…
      sampler {
        min_scale: 0.3
        max_scale: 1
        min_aspect_ratio: 0.5
        max_aspect_ratio: 2
      }
      sample_constraint {
        min_jaccard_overlap: 0.9
      }
      max_sample: 1
      max_trials: 50
    }
    batch_sampler {
      sampler {
        min_scale: 0.3
        max_scale: 1
        min_aspect_ratio: 0.5
        max_aspect_ratio: 2
      }
      sample_constraint {
        max_jaccard_overlap: 1
      }
      max_sample: 1
      max_trials: 50
    }
    label_map_file: "data/VOC0712/labelmap_voc.prototxt"
  }
}
layer {
  name: "conv1_1"
  type: "Convolution"
  bottom: "data"
  top: "conv1_1"
  param {
    lr_mult: 1
    decay_mult: 1
  }
  param {
    lr_mult: 2
    decay_mult: 0
  }
  convolution_param {
    num_output: 64
    pad: 1
    kernel_size: 3
    weight_filler {
      type: "xavier"
    }
    bias_filler {
      type: "constant"
      value: 0
    }
  }
}
layer {
  name: "relu1_1"
  type: "ReLU"
  bottom: "conv1_1"
  top: "conv1_1"
}
layer {
  name: "conv1_2"
  type: "Convolution"
  bottom: "conv1_1"
  top: "conv1_2"
  param {
    lr_mult: 1
    decay_mult: 1
  }
  param {
    lr_mult: 2
    decay_mult: 0
  }
  convolution_param {
    num_output: 64
    pad: 1
    kernel_size: 3
    weight_filler {
      type: "xavier"
    }
    bias_filler {
      type: "constant"
      value: 0
    }
  }
}
layer {
  name: "relu1_2"
  type: "ReLU"
  bottom: "conv1_2"
  top: "conv1_2"
}
layer {
  name: "pool1"
  type: "Pooling"
  bottom: "conv1_2"
  top: "pool1"
  pooling_param {
    pool: MAX
    kernel_size: 2
    stride: 2
  }
}
layer {
  name: "conv2_1"
  type: "Convolution"
  bottom: "pool1"
  top: "conv2_1"
  param {
    lr_mult: 1
    decay_mult: 1
  }
  param {
    lr_mult: 2
    decay_mult: 0
  }
  convolution_param {
    num_output: 128
    pad: 1
    kernel_size: 3
    weight_filler {
      type: "xavier"
    }
    bias_filler {
      type: "constant"
      value: 0
    }
  }
}
layer {
  name: "relu2_1"
  type: "ReLU"
  bottom: "conv2_1"
  top: "conv2_1"
}
layer {
  name: "conv2_2"
  type: "Convolution"
  bottom: "conv2_1"
  top: "conv2_2"
  param {
    lr_mult: 1
    decay_mult: 1
  }
  param {
    lr_mult: 2
    decay_mult: 0
  }
  convolution_param {
    num_output: 128
    pad: 1
    kernel_size: 3
    weight_filler {
      type: "xavier"
    }
    bias_filler {
      type: "constant"
      value: 0
    }
  }
}
layer {
  name: "relu2_2"
  type: "ReLU"
  bottom: "conv2_2"
  top: "conv2_2"
}
layer {
  name: "pool2"
  type: "Pooling"
  bottom: "conv2_2"
  top: "pool2"
  pooling_param {
    pool: MAX
    kernel_size: 2
    stride: 2
  }
}
layer {
  name: "conv3_1"
  type: "Convolution"
  bottom: "pool2"
  top: "conv3_1"
  param {
    lr_mult: 1
    decay_mult: 1
  }
  param {
    lr_mult: 2
    decay_mult: 0
  }
  convolution_param {
    num_output: 256
    pad: 1
    kernel_size: 3
    weight_filler {
      type: "xavier"
    }
    bias_filler {
      type: "constant"
      value: 0
    }
  }
}
layer {
  name: "relu3_1"
  type: "ReLU"
  bottom: "conv3_1"
  top: "conv3_1"
}
layer {
  name: "conv3_2"
  type: "Convolution"
  bottom: "conv3_1"
  top: "conv3_2"
  param {
    lr_mult: 1
    decay_mult: 1
  }
  param {
    lr_mult: 2
    decay_mult: 0
  }
  convolution_param {
    num_output: 256
    pad: 1
    kernel_size: 3
    weight_filler {
      type: "xavier"
    }
    bias_filler {
      type: "constant"
      value: 0
    }
  }
}
layer {
  name: "relu3_2"
  type: "ReLU"
  bottom: "conv3_2"
  top: "conv3_2"
}
layer {
  name: "conv3_3"
  type: "Convolution"
  bottom: "conv3_2"
  top: "conv3_3"
  param {
    lr_mult: 1
    decay_mult: 1
  }
  param {
    lr_mult: 2
    decay_mult: 0
  }
  convolution_param {
    num_output: 256
    pad: 1
    kernel_size: 3
    weight_filler {
      type: "xavier"
    }
    bias_filler {
      type: "constant"
      value: 0
    }
  }
}
layer {
  name: "relu3_3"
  type: "ReLU"
  bottom: "conv3_3"
  top: "conv3_3"
}
layer {
  name: "pool3"
  type: "Pooling"
  bottom: "conv3_3"
  top: "pool3"
  pooling_param {
    pool: MAX
    kernel_size: 2
    stride: 2
  }
}
layer {
  name: "conv4_1"
  type: "Convolution"
  bottom: "pool3"
  top: "conv4_1"
  param {
    lr_mult: 1
    decay_mult: 1
  }
  param {
    lr_mult: 2
    decay_mult: 0
  }
  convolution_param {
    num_output: 512
    pad: 1
    kernel_size: 3
    weight_filler {
      type: "xavier"
    }
    bias_filler {
      type: "constant"
      value: 0
    }
  }
}
layer {
  name: "relu4_1"
  type: "ReLU"
  bottom: "conv4_1"
  top: "conv4_1"
}
layer {
  name: "conv4_2"
  type: "Convolution"
  bottom: "conv4_1"
  top: "conv4_2"
  param {
    lr_mult: 1
    decay_mult: 1
  }
  param {
    lr_mult: 2
    decay_mult: 0
  }
  convolution_param {
    num_output: 512
    pad: 1
    kernel_size: 3
    weight_filler {
      type: "xavier"
    }
    bias_filler {
      type: "constant"
      value: 0
    }
  }
}
layer {
  name: "relu4_2"
  type: "ReLU"
  bottom: "conv4_2"
  top: "conv4_2"
}
layer {
  name: "conv4_3"
  type: "Convolution"
  bottom: "conv4_2"
  top: "conv4_3"
  param {
    lr_mult: 1
    decay_mult: 1
  }
  param {
    lr_mult: 2
    decay_mult: 0
  }
  convolution_param {
    num_output: 512
    pad: 1
    kernel_size: 3
    weight_filler {
      type: "xavier"
    }
    bias_filler {
      type: "constant"
      value: 0
    }
  }
}
layer {
  name: "relu4_3"
  type: "ReLU"
  bottom: "conv4_3"
  top: "conv4_3"
}
layer {
  name: "pool4"
  type: "Pooling"
  bottom: "conv4_3"
  top: "pool4"
  pooling_param {
    pool: MAX
    kernel_size: 2
    stride: 2
  }
}
layer {
  name: "conv5_1"
  type: "Convolution"
  bottom: "pool4"
  top: "conv5_1"
  param {
    lr_mult: 1
    decay_mult: 1
  }
  param {
    lr_mult: 2
    decay_mult: 0
  }
  convolution_param {
    num_output: 512
    pad: 1
    kernel_size: 3
    weight_filler {
      type: "xavier"
    }
    bias_filler {
      type: "constant"
      value: 0
    }
    dilation: 1
  }
}
layer {
  name: "relu5_1"
  type: "ReLU"
  bottom: "conv5_1"
  top: "conv5_1"
}
layer {
  name: "conv5_2"
  type: "Convolution"
  bottom: "conv5_1"
  top: "conv5_2"
  param {
    lr_mult: 1
    decay_mult: 1
  }
  param {
    lr_mult: 2
    decay_mult: 0
  }
  convolution_param {
    num_output: 512
    pad: 1
    kernel_size: 3
    weight_filler {
      type: "xavier"
    }
    bias_filler {
      type: "constant"
      value: 0
    }
    dilation: 1
  }
}
layer {
  name: "relu5_2"
  type: "ReLU"
  bottom: "conv5_2"
  top: "conv5_2"
}
layer {
  name: "conv5_3"
  type: "Convolution"
  bottom: "conv5_2"
  top: "conv5_3"
  param {
    lr_mult: 1
    decay_mult: 1
  }
  param {
    lr_mult: 2
    decay_mult: 0
  }
  convolution_param {
    num_output: 512
    pad: 1
    kernel_size: 3
    weight_filler {
      type: "xavier"
    }
    bias_filler {
      type: "constant"
      value: 0
    }
    dilation: 1
  }
}
layer {
  name: "relu5_3"
  type: "ReLU"
  bottom: "conv5_3"
  top: "conv5_3"
}
layer {
  name: "pool5"
  type: "Pooling"
  bottom: "conv5_3"
  top: "pool5"
  pooling_param {
    pool: MAX
    kernel_size: 3
    stride: 1
    pad: 1
  }
}
layer {
  name: "fc6"
  type: "Convolution"
  bottom: "pool5"
  top: "fc6"
  param {
    lr_mult: 1
    decay_mult: 1
  }
  param {
    lr_mult: 2
    decay_mult: 0
  }
  convolution_param {
    num_output: 1024
    pad: 6
    kernel_size: 3
    weight_filler {
      type: "xavier"
    }
    bias_filler {
      type: "constant"
      value: 0
    }
    dilation: 6
  }
}
layer {
  name: "relu6"
  type: "ReLU"
  bottom: "fc6"
  top: "fc6"
}
layer {
  name: "fc7"
  type: "Convolution"
  bottom: "fc6"
  top: "fc7"
  param {
    lr_mult: 1
    decay_mult: 1
  }
  param {
    lr_mult: 2
    decay_mult: 0
  }
  convolution_param {
    num_output: 1024
    kernel_size: 1
    weight_filler {
      type: "xavier"
    }
    bias_filler {
      type: "constant"
      value: 0
    }
  }
}
layer {
  name: "relu7"
  type: "ReLU"
  bottom: "fc7"
  top: "fc7"
}
layer {
  name: "conv6_1"
  type: "Convolution"
  bottom: "fc7"
  top: "conv6_1"
  param {
    lr_mult: 1
    decay_mult: 1
  }
  param {
    lr_mult: 2
    decay_mult: 0
  }
  convolution_param {
    num_output: 256
    pad: 0
    kernel_size: 1
    stride: 1
    weight_filler {
      type: "xavier"
    }
    bias_filler {
      type: "constant"
      value: 0
    }
  }
}
layer {
  name: "conv6_1_relu"
  type: "ReLU"
  bottom: "conv6_1"
  top: "conv6_1"
}
layer {
  name: "conv6_2"
  type: "Convolution"
  bottom: "conv6_1"
  top: "conv6_2"
  param {
    lr_mult: 1
    decay_mult: 1
  }
  param {
    lr_mult: 2
    decay_mult: 0
  }
  convolution_param {
    num_output: 512
    pad: 1
    kernel_size: 3
    stride: 2
    weight_filler {
      type: "xavier"
    }
    bias_filler {
      type: "constant"
      value: 0
    }
  }
}
layer {
  name: "conv6_2_relu"
  type: "ReLU"
  bottom: "conv6_2"
  top: "conv6_2"
}
layer {
  name: "conv7_1"
  type: "Convolution"
  bottom: "conv6_2"
  top: "conv7_1"
  param {
    lr_mult: 1
    decay_mult: 1
  }
  param {
    lr_mult: 2
    decay_mult: 0
  }
  convolution_param {
    num_output: 128
    pad: 0
    kernel_size: 1
    stride: 1
    weight_filler {
      type: "xavier"
    }
    bias_filler {
      type: "constant"
      value: 0
    }
  }
}
layer {
  name: "conv7_1_relu"
  type: "ReLU"
  bottom: "conv7_1"
  top: "conv7_1"
}
layer {
  name: "conv7_2"
  type: "Convolution"
  bottom: "conv7_1"
  top: "conv7_2"
  param {
    lr_mult: 1
    decay_mult: 1
  }
  param {
    lr_mult: 2
    decay_mult: 0
  }
  convolution_param {
    num_output: 256
    pad: 1
    kernel_size: 3
    stride: 2
    weight_filler {
      type: "xavier"
    }
    bias_filler {
      type: "constant"
      value: 0
    }
  }
}
layer {
  name: "conv7_2_relu"
  type: "ReLU"
  bottom: "conv7_2"
  top: "conv7_2"
}
layer {
  name: "conv8_1"
  type: "Convolution"
  bottom: "conv7_2"
  top: "conv8_1"
  param {
    lr_mult: 1
    decay_mult: 1
  }
  param {
    lr_mult: 2
    decay_mult: 0
  }
  convolution_param {
    num_output: 128
    pad: 0
    kernel_size: 1
    stride: 1
    weight_filler {
      type: "xavier"
    }
    bias_filler {
      type: "constant"
      value: 0
    }
  }
}
layer {
  name: "conv8_1_relu"
  type: "ReLU"
  bottom: "conv8_1"
  top: "conv8_1"
}
layer {
  name: "conv8_2"
  type: "Convolution"
  bottom: "conv8_1"
  top: "conv8_2"
  param {
    lr_mult: 1
    decay_mult: 1
  }
  param {
    lr_mult: 2
    decay_mult: 0
  }
  convolution_param {
    num_output: 256
    pad: 0
    kernel_size: 3
    stride: 1
    weight_filler {
      type: "xavier"
    }
    bias_filler {
      type: "constant"
      value: 0
    }
  }
}
layer {
  name: "conv8_2_relu"
  type: "ReLU"
  bottom: "conv8_2"
  top: "conv8_2"
}
layer {
  name: "conv9_1"
  type: "Convolution"
  bottom: "conv8_2"
  top: "conv9_1"
  param {
    lr_mult: 1
    decay_mult: 1
  }
  param {
    lr_mult: 2
    decay_mult: 0
  }
  convolution_param {
    num_output: 128
    pad: 0
    kernel_size: 1
    stride: 1
    weight_filler {
      type: "xavier"
    }
    bias_filler {
      type: "constant"
      value: 0
    }
  }
}
layer {
  name: "conv9_1_relu"
  type: "ReLU"
  bottom: "conv9_1"
  top: "conv9_1"
}
layer {
  name: "conv9_2"
  type: "Convolution"
  bottom: "conv9_1"
  top: "conv9_2"
  param {
    lr_mult: 1
    decay_mult: 1
  }
  param {
    lr_mult: 2
    decay_mult: 0
  }
  convolution_param {
    num_output: 256
    pad: 0
    kernel_size: 3
    stride: 1
    weight_filler {
      type: "xavier"
    }
    bias_filler {
      type: "constant"
      value: 0
    }
  }
}
layer {
  name: "conv9_2_relu"
  type: "ReLU"
  bottom: "conv9_2"
  top: "conv9_2"
}
layer {
  name: "Deconvolution1"
  type: "Deconvolution"
  bottom: "conv5_3"
  top: "Deconvolution1"
  convolution_param {
    num_output: 512
    pad: 0
    kernel_size: 2
    stride: 2
    weight_filler {
      type: "bilinear"
    }
  }
}
layer {
  name: "Convolution1"
  type: "Convolution"
  bottom: "Deconvolution1"
  top: "Convolution1"
  convolution_param {
    num_output: 512
    pad: 1
    kernel_size: 3
    stride: 1
  }
}
layer {
  name: "BatchNorm1"
  type: "BatchNorm"
  bottom: "Convolution1"
  top: "Convolution1"
}
layer {
  name: "up_conv5_3"
  type: "ReLU"
  bottom: "Convolution1"
  top: "Convolution1"
}
layer {
  name: "Convolution2"
  type: "Convolution"
  bottom: "conv4_3"
  top: "Convolution2"
  convolution_param {
    num_output: 512
    pad: 1
    kernel_size: 3
    stride: 1
  }
}
layer {
  name: "BatchNorm2"
  type: "BatchNorm"
  bottom: "Convolution2"
  top: "Convolution2"
}
layer {
  name: "conv4_3_conv"
  type: "ReLU"
  bottom: "Convolution2"
  top: "Convolution2"
}
layer {
  name: "Concat1"
  type: "Concat"
  bottom: "Convolution1"
  bottom: "Convolution2"
  top: "Concat1"
}
layer {
  name: "Convolution3"
  type: "Convolution"
  bottom: "Concat1"
  top: "Convolution3"
  convolution_param {
    num_output: 512
    kernel_size: 1
    stride: 1
  }
}
layer {
  name: "conc1"
  type: "ReLU"
  bottom: "Convolution3"
  top: "Convolution3"
}
layer {
  name: "conc1_norm"
  type: "Normalize"
  bottom: "Convolution3"
  top: "conc1_norm"
  norm_param {
    across_spatial: false
    scale_filler {
      type: "constant"
      value: 20
    }
    channel_shared: false
  }
}
layer {
  name: "conc1_norm_mbox_loc"
  type: "Convolution"
  bottom: "conc1_norm"
  top: "conc1_norm_mbox_loc"
  param {
    lr_mult: 1
    decay_mult: 1
  }
  param {
    lr_mult: 2
    decay_mult: 0
  }
  convolution_param {
    num_output: 16
    pad: 1
    kernel_size: 3
    stride: 1
    weight_filler {
      type: "xavier"
    }
    bias_filler {
      type: "constant"
      value: 0
    }
  }
}
layer {
  name: "conc1_norm_mbox_loc_perm"
  type: "Permute"
  bottom: "conc1_norm_mbox_loc"
  top: "conc1_norm_mbox_loc_perm"
  permute_param {
    order: 0
    order: 2
    order: 3
    order: 1
  }
}
layer {
  name: "conc1_norm_mbox_loc_flat"
  type: "Flatten"
  bottom: "conc1_norm_mbox_loc_perm"
  top: "conc1_norm_mbox_loc_flat"
  flatten_param {
    axis: 1
  }
}
layer {
  name: "conc1_norm_mbox_conf"
  type: "Convolution"
  bottom: "conc1_norm"
  top: "conc1_norm_mbox_conf"
  param {
    lr_mult: 1
    decay_mult: 1
  }
  param {
    lr_mult: 2
    decay_mult: 0
  }
  convolution_param {
    num_output: 84
    pad: 1
    kernel_size: 3
    stride: 1
    weight_filler {
      type: "xavier"
    }
    bias_filler {
      type: "constant"
      value: 0
    }
  }
}
layer {
  name: "conc1_norm_mbox_conf_perm"
  type: "Permute"
  bottom: "conc1_norm_mbox_conf"
  top: "conc1_norm_mbox_conf_perm"
  permute_param {
    order: 0
    order: 2
    order: 3
    order: 1
  }
}
layer {
  name: "conc1_norm_mbox_conf_flat"
  type: "Flatten"
  bottom: "conc1_norm_mbox_conf_perm"
  top: "conc1_norm_mbox_conf_flat"
  flatten_param {
    axis: 1
  }
}
layer {
  name: "conc1_norm_mbox_priorbox"
  type: "PriorBox"
  bottom: "conc1_norm"
  bottom: "data"
  top: "conc1_norm_mbox_priorbox"
  prior_box_param {
    min_size: 30
    max_size: 60
    aspect_ratio: 2
    flip: true
    clip: false
    variance: 0.1
    variance: 0.1
    variance: 0.2
    variance: 0.2
    step: 8
    offset: 0.5
  }
}
layer {
  name: "fc7_mbox_loc"
  type: "Convolution"
  bottom: "fc7"
  top: "fc7_mbox_loc"
  param {
    lr_mult: 1
    decay_mult: 1
  }
  param {
    lr_mult: 2
    decay_mult: 0
  }
  convolution_param {
    num_output: 24
    pad: 1
    kernel_size: 3
    stride: 1
    weight_filler {
      type: "xavier"
    }
    bias_filler {
      type: "constant"
      value: 0
    }
  }
}
layer {
  name: "fc7_mbox_loc_perm"
  type: "Permute"
  bottom: "fc7_mbox_loc"
  top: "fc7_mbox_loc_perm"
  permute_param {
    order: 0
    order: 2
    order: 3
    order: 1
  }
}
layer {
  name: "fc7_mbox_loc_flat"
  type: "Flatten"
  bottom: "fc7_mbox_loc_perm"
  top: "fc7_mbox_loc_flat"
  flatten_param {
    axis: 1
  }
}
layer {
  name: "fc7_mbox_conf"
  type: "Convolution"
  bottom: "fc7"
  top: "fc7_mbox_conf"
  param {
    lr_mult: 1
    decay_mult: 1
  }
  param {
    lr_mult: 2
    decay_mult: 0
  }
  convolution_param {
    num_output: 126
    pad: 1
    kernel_size: 3
    stride: 1
    weight_filler {
      type: "xavier"
    }
    bias_filler {
      type: "constant"
      value: 0
    }
  }
}
layer {
  name: "fc7_mbox_conf_perm"
  type: "Permute"
  bottom: "fc7_mbox_conf"
  top: "fc7_mbox_conf_perm"
  permute_param {
    order: 0
    order: 2
    order: 3
    order: 1
  }
}
layer {
  name: "fc7_mbox_conf_flat"
  type: "Flatten"
  bottom: "fc7_mbox_conf_perm"
  top: "fc7_mbox_conf_flat"
  flatten_param {
    axis: 1
  }
}
layer {
  name: "fc7_mbox_priorbox"
  type: "PriorBox"
  bottom: "fc7"
  bottom: "data"
  top: "fc7_mbox_priorbox"
  prior_box_param {
    min_size: 60
    max_size: 111
    aspect_ratio: 2
    aspect_ratio: 3
    flip: true
    clip: false
    variance: 0.1
    variance: 0.1
    variance: 0.2
    variance: 0.2
    step: 16
    offset: 0.5
  }
}
layer {
  name: "conv6_2_mbox_loc"
  type: "Convolution"
  bottom: "conv6_2"
  top: "conv6_2_mbox_loc"
  param {
    lr_mult: 1
    decay_mult: 1
  }
  param {
    lr_mult: 2
    decay_mult: 0
  }
  convolution_param {
    num_output: 24
    pad: 1
    kernel_size: 3
    stride: 1
    weight_filler {
      type: "xavier"
    }
    bias_filler {
      type: "constant"
      value: 0
    }
  }
}
layer {
  name: "conv6_2_mbox_loc_perm"
  type: "Permute"
  bottom: "conv6_2_mbox_loc"
  top: "conv6_2_mbox_loc_perm"
  permute_param {
    order: 0
    order: 2
    order: 3
    order: 1
  }
}
layer {
  name: "conv6_2_mbox_loc_flat"
  type: "Flatten"
  bottom: "conv6_2_mbox_loc_perm"
  top: "conv6_2_mbox_loc_flat"
  flatten_param {
    axis: 1
  }
}
layer {
  name: "conv6_2_mbox_conf"
  type: "Convolution"
  bottom: "conv6_2"
  top: "conv6_2_mbox_conf"
  param {
    lr_mult: 1
    decay_mult: 1
  }
  param {
    lr_mult: 2
    decay_mult: 0
  }
  convolution_param {
    num_output: 126
    pad: 1
    kernel_size: 3
    stride: 1
    weight_filler {
      type: "xavier"
    }
    bias_filler {
      type: "constant"
      value: 0
    }
  }
}
layer {
  name: "conv6_2_mbox_conf_perm"
  type: "Permute"
  bottom: "conv6_2_mbox_conf"
  top: "conv6_2_mbox_conf_perm"
  permute_param {
    order: 0
    order: 2
    order: 3
    order: 1
  }
}
layer {
  name: "conv6_2_mbox_conf_flat"
  type: "Flatten"
  bottom: "conv6_2_mbox_conf_perm"
  top: "conv6_2_mbox_conf_flat"
  flatten_param {
    axis: 1
  }
}
layer {
  name: "conv6_2_mbox_priorbox"
  type: "PriorBox"
  bottom: "conv6_2"
  bottom: "data"
  top: "conv6_2_mbox_priorbox"
  prior_box_param {
    min_size: 111
    max_size: 162
    aspect_ratio: 2
    aspect_ratio: 3
    flip: true
    clip: false
    variance: 0.1
    variance: 0.1
    variance: 0.2
    variance: 0.2
    step: 32
    offset: 0.5
  }
}
layer {
  name: "conv7_2_mbox_loc"
  type: "Convolution"
  bottom: "conv7_2"
  top: "conv7_2_mbox_loc"
  param {
    lr_mult: 1
    decay_mult: 1
  }
  param {
    lr_mult: 2
    decay_mult: 0
  }
  convolution_param {
    num_output: 24
    pad: 1
    kernel_size: 3
    stride: 1
    weight_filler {
      type: "xavier"
    }
    bias_filler {
      type: "constant"
      value: 0
    }
  }
}
layer {
  name: "conv7_2_mbox_loc_perm"
  type: "Permute"
  bottom: "conv7_2_mbox_loc"
  top: "conv7_2_mbox_loc_perm"
  permute_param {
    order: 0
    order: 2
    order: 3
    order: 1
  }
}
layer {
  name: "conv7_2_mbox_loc_flat"
  type: "Flatten"
  bottom: "conv7_2_mbox_loc_perm"
  top: "conv7_2_mbox_loc_flat"
  flatten_param {
    axis: 1
  }
}
layer {
  name: "conv7_2_mbox_conf"
  type: "Convolution"
  bottom: "conv7_2"
  top: "conv7_2_mbox_conf"
  param {
    lr_mult: 1
    decay_mult: 1
  }
  param {
    lr_mult: 2
    decay_mult: 0
  }
  convolution_param {
    num_output: 126
    pad: 1
    kernel_size: 3
    stride: 1
    weight_filler {
      type: "xavier"
    }
    bias_filler {
      type: "constant"
      value: 0
    }
  }
}
layer {
  name: "conv7_2_mbox_conf_perm"
  type: "Permute"
  bottom: "conv7_2_mbox_conf"
  top: "conv7_2_mbox_conf_perm"
  permute_param {
    order: 0
    order: 2
    order: 3
    order: 1
  }
}
layer {
  name: "conv7_2_mbox_conf_flat"
  type: "Flatten"
  bottom: "conv7_2_mbox_conf_perm"
  top: "conv7_2_mbox_conf_flat"
  flatten_param {
    axis: 1
  }
}
layer {
  name: "conv7_2_mbox_priorbox"
  type: "PriorBox"
  bottom: "conv7_2"
  bottom: "data"
  top: "conv7_2_mbox_priorbox"
  prior_box_param {
    min_size: 162
    max_size: 213
    aspect_ratio: 2
    aspect_ratio: 3
    flip: true
    clip: false
    variance: 0.1
    variance: 0.1
    variance: 0.2
    variance: 0.2
    step: 64
    offset: 0.5
  }
}
layer {
  name: "conv8_2_mbox_loc"
  type: "Convolution"
  bottom: "conv8_2"
  top: "conv8_2_mbox_loc"
  param {
    lr_mult: 1
    decay_mult: 1
  }
  param {
    lr_mult: 2
    decay_mult: 0
  }
  convolution_param {
    num_output: 16
    pad: 1
    kernel_size: 3
    stride: 1
    weight_filler {
      type: "xavier"
    }
    bias_filler {
      type: "constant"
      value: 0
    }
  }
}
layer {
  name: "conv8_2_mbox_loc_perm"
  type: "Permute"
  bottom: "conv8_2_mbox_loc"
  top: "conv8_2_mbox_loc_perm"
  permute_param {
    order: 0
    order: 2
    order: 3
    order: 1
  }
}
layer {
  name: "conv8_2_mbox_loc_flat"
  type: "Flatten"
  bottom: "conv8_2_mbox_loc_perm"
  top: "conv8_2_mbox_loc_flat"
  flatten_param {
    axis: 1
  }
}
layer {
  name: "conv8_2_mbox_conf"
  type: "Convolution"
  bottom: "conv8_2"
  top: "conv8_2_mbox_conf"
  param {
    lr_mult: 1
    decay_mult: 1
  }
  param {
    lr_mult: 2
    decay_mult: 0
  }
  convolution_param {
    num_output: 84
    pad: 1
    kernel_size: 3
    stride: 1
    weight_filler {
      type: "xavier"
    }
    bias_filler {
      type: "constant"
      value: 0
    }
  }
}
layer {
  name: "conv8_2_mbox_conf_perm"
  type: "Permute"
  bottom: "conv8_2_mbox_conf"
  top: "conv8_2_mbox_conf_perm"
  permute_param {
    order: 0
    order: 2
    order: 3
    order: 1
  }
}
layer {
  name: "conv8_2_mbox_conf_flat"
  type: "Flatten"
  bottom: "conv8_2_mbox_conf_perm"
  top: "conv8_2_mbox_conf_flat"
  flatten_param {
    axis: 1
  }
}
layer {
  name: "conv8_2_mbox_priorbox"
  type: "PriorBox"
  bottom: "conv8_2"
  bottom: "data"
  top: "conv8_2_mbox_priorbox"
  prior_box_param {
    min_size: 213
    max_size: 264
    aspect_ratio: 2
    flip: true
    clip: false
    variance: 0.1
    variance: 0.1
    variance: 0.2
    variance: 0.2
    step: 100
    offset: 0.5
  }
}
layer {
  name: "conv9_2_mbox_loc"
  type: "Convolution"
  bottom: "conv9_2"
  top: "conv9_2_mbox_loc"
  param {
    lr_mult: 1
    decay_mult: 1
  }
  param {
    lr_mult: 2
    decay_mult: 0
  }
  convolution_param {
    num_output: 16
    pad: 1
    kernel_size: 3
    stride: 1
    weight_filler {
      type: "xavier"
    }
    bias_filler {
      type: "constant"
      value: 0
    }
  }
}
layer {
  name: "conv9_2_mbox_loc_perm"
  type: "Permute"
  bottom: "conv9_2_mbox_loc"
  top: "conv9_2_mbox_loc_perm"
  permute_param {
    order: 0
    order: 2
    order: 3
    order: 1
  }
}
layer {
  name: "conv9_2_mbox_loc_flat"
  type: "Flatten"
  bottom: "conv9_2_mbox_loc_perm"
  top: "conv9_2_mbox_loc_flat"
  flatten_param {
    axis: 1
  }
}
layer {
  name: "conv9_2_mbox_conf"
  type: "Convolution"
  bottom: "conv9_2"
  top: "conv9_2_mbox_conf"
  param {
    lr_mult: 1
    decay_mult: 1
  }
  param {
    lr_mult: 2
    decay_mult: 0
  }
  convolution_param {
    num_output: 84
    pad: 1
    kernel_size: 3
    stride: 1
    weight_filler {
      type: "xavier"
    }
    bias_filler {
      type: "constant"
      value: 0
    }
  }
}
layer {
  name: "conv9_2_mbox_conf_perm"
  type: "Permute"
  bottom: "conv9_2_mbox_conf"
  top: "conv9_2_mbox_conf_perm"
  permute_param {
    order: 0
    order: 2
    order: 3
    order: 1
  }
}
layer {
  name: "conv9_2_mbox_conf_flat"
  type: "Flatten"
  bottom: "conv9_2_mbox_conf_perm"
  top: "conv9_2_mbox_conf_flat"
  flatten_param {
    axis: 1
  }
}
layer {
  name: "conv9_2_mbox_priorbox"
  type: "PriorBox"
  bottom: "conv9_2"
  bottom: "data"
  top: "conv9_2_mbox_priorbox"
  prior_box_param {
    min_size: 264
    max_size: 315
    aspect_ratio: 2
    flip: true
    clip: false
    variance: 0.1
    variance: 0.1
    variance: 0.2
    variance: 0.2
    step: 300
    offset: 0.5
  }
}
layer {
  name: "mbox_loc"
  type: "Concat"
  bottom: "conc1_norm_mbox_loc_flat"
  bottom: "fc7_mbox_loc_flat"
  bottom: "conv6_2_mbox_loc_flat"
  bottom: "conv7_2_mbox_loc_flat"
  bottom: "conv8_2_mbox_loc_flat"
  bottom: "conv9_2_mbox_loc_flat"
  top: "mbox_loc"
  concat_param {
    axis: 1
  }
}
layer {
  name: "mbox_conf"
  type: "Concat"
  bottom: "conc1_norm_mbox_conf_flat"
  bottom: "fc7_mbox_conf_flat"
  bottom: "conv6_2_mbox_conf_flat"
  bottom: "conv7_2_mbox_conf_flat"
  bottom: "conv8_2_mbox_conf_flat"
  bottom: "conv9_2_mbox_conf_flat"
  top: "mbox_conf"
  concat_param {
    axis: 1
  }
}
layer {
  name: "mbox_priorbox"
  type: "Concat"
  bottom: "conc1_norm_mbox_priorbox"
  bottom: "fc7_mbox_priorbox"
  bottom: "conv6_2_mbox_priorbox"
  bottom: "conv7_2_mbox_priorbox"
  bottom: "conv8_2_mbox_priorbox"
  bottom: "conv9_2_mbox_priorbox"
  top: "mbox_priorbox"
  concat_param {
    axis: 2
  }
}
layer {
  name: "mbox_loss"
  type: "MultiBoxLoss"
  bottom: "mbox_loc"
  bottom: "mbox_conf"
  bottom: "mbox_priorbox"
  bottom: "label"
  top: "mbox_loss"
  include {
    phase: TRAIN
  }
  propagate_down: true
  propagate_down: true
  propagate_down: false
  propagate_down: false
  loss_param {
    normalization: VALID
  }
  multibox_loss_param {
    loc_loss_type: SMOOTH_L1
    conf_loss_type: SOFTMAX
    loc_weight: 1
    num_classes: 21
    share_location: true
    match_type: PER_PREDICTION
    overlap_threshold: 0.5
    use_prior_for_matching: true
    background_label_id: 0
    use_difficult_gt: true
    neg_pos_ratio: 3
    neg_overlap: 0.5
    code_type: CENTER_SIZE
    ignore_cross_boundary_bbox: false
    mining_type: MAX_NEGATIVE
  }
}
I0408 15:15:48.675004 21720 layer_factory.hpp:77] Creating layer data
I0408 15:15:48.675647 21720 net.cpp:100] Creating Layer data
I0408 15:15:48.675664 21720 net.cpp:408] data -> data
I0408 15:15:48.675777 21720 net.cpp:408] data -> label
I0408 15:15:48.677742 21742 db_lmdb.cpp:35] Opened lmdb examples/VOC0712/VOC0712_trainval_lmdb
I0408 15:15:48.707137 21720 annotated_data_layer.cpp:62] output data size: 16,3,300,300
I0408 15:15:48.775681 21720 net.cpp:150] Setting up data
I0408 15:15:48.775782 21720 net.cpp:157] Top shape: 16 3 300 300 (4320000)
I0408 15:15:48.775815 21720 net.cpp:157] Top shape: 1 1 1 8 (8)
I0408 15:15:48.775838 21720 net.cpp:165] Memory required for data: 17280032
I0408 15:15:48.775872 21720 layer_factory.hpp:77] Creating layer data_data_0_split
I0408 15:15:48.775913 21720 net.cpp:100] Creating Layer data_data_0_split
I0408 15:15:48.775943 21720 net.cpp:434] data_data_0_split <- data
I0408 15:15:48.775986 21720 net.cpp:408] data_data_0_split -> data_data_0_split_0
I0408 15:15:48.776023 21720 net.cpp:408] data_data_0_split -> data_data_0_split_1
I0408 15:15:48.776057 21720 net.cpp:408] data_data_0_split -> data_data_0_split_2
I0408 15:15:48.776089 21720 net.cpp:408] data_data_0_split -> data_data_0_split_3
I0408 15:15:48.776211 21720 net.cpp:408] data_data_0_split -> data_data_0_split_4
I0408 15:15:48.776248 21720 net.cpp:408] data_data_0_split -> data_data_0_split_5
I0408 15:15:48.776280 21720 net.cpp:408] data_data_0_split -> data_data_0_split_6
I0408 15:15:48.776578 21720 net.cpp:150] Setting up data_data_0_split
I0408 15:15:48.776618 21720 net.cpp:157] Top shape: 16 3 300 300 (4320000)
I0408 15:15:48.776643 21720 net.cpp:157] Top shape: 16 3 300 300 (4320000)
I0408 15:15:48.776667 21720 net.cpp:157] Top shape: 16 3 300 300 (4320000)
I0408 15:15:48.776692 21720 net.cpp:157] Top shape: 16 3 300 300 (4320000)
I0408 15:15:48.776757 21720 net.cpp:157] Top shape: 16 3 300 300 (4320000)
I0408 15:15:48.776783 21720 net.cpp:157] Top shape: 16 3 300 300 (4320000)
I0408 15:15:48.776808 21720 net.cpp:157] Top shape: 16 3 300 300 (4320000)
I0408 15:15:48.776830 21720 net.cpp:165] Memory required for data: 138240032
I0408 15:15:48.776854 21720 layer_factory.hpp:77] Creating layer conv1_1
I0408 15:15:48.776906 21720 net.cpp:100] Creating Layer conv1_1
I0408 15:15:48.776932 21720 net.cpp:434] conv1_1 <- data_data_0_split_0
I0408 15:15:48.776967 21720 net.cpp:408] conv1_1 -> conv1_1
I0408 15:15:49.208215 21720 net.cpp:150] Setting up conv1_1
I0408 15:15:49.208261 21720 net.cpp:157] Top shape: 16 64 300 300 (92160000)
I0408 15:15:49.208267 21720 net.cpp:165] Memory required for data: 506880032
I0408 15:15:49.208336 21720 layer_factory.hpp:77] Creating layer relu1_1
I0408 15:15:49.208382 21720 net.cpp:100] Creating Layer relu1_1
I0408 15:15:49.208389 21720 net.cpp:434] relu1_1 <- conv1_1
I0408 15:15:49.208415 21720 net.cpp:395] relu1_1 -> conv1_1 (in-place)
I0408 15:15:49.208698 21720 net.cpp:150] Setting up relu1_1
I0408 15:15:49.208712 21720 net.cpp:157] Top shape: 16 64 300 300 (92160000)
I0408 15:15:49.208717 21720 net.cpp:165] Memory required for data: 875520032
I0408 15:15:49.208731 21720 layer_factory.hpp:77] Creating layer conv1_2
I0408 15:15:49.208757 21720 net.cpp:100] Creating Layer conv1_2
I0408 15:15:49.208765 21720 net.cpp:434] conv1_2 <- conv1_1
I0408 15:15:49.208802 21720 net.cpp:408] conv1_2 -> conv1_2
I0408 15:15:49.212756 21720 net.cpp:150] Setting up conv1_2
I0408 15:15:49.212781 21720 net.cpp:157] Top shape: 16 64 300 300 (92160000)
I0408 15:15:49.212786 21720 net.cpp:165] Memory required for data: 1244160032
I0408 15:15:49.212800 21720 layer_factory.hpp:77] Creating layer relu1_2
I0408 15:15:49.212810 21720 net.cpp:100] Creating Layer relu1_2
I0408 15:15:49.212816 21720 net.cpp:434] relu1_2 <- conv1_2
I0408 15:15:49.212824 21720 net.cpp:395] relu1_2 -> conv1_2 (in-place)
I0408 15:15:49.214051 21720 net.cpp:150] Setting up relu1_2
I0408 15:15:49.214071 21720 net.cpp:157] Top shape: 16 64 300 300 (92160000)
I0408 15:15:49.214076 21720 net.cpp:165] Memory required for data: 1612800032
I0408 15:15:49.214082 21720 layer_factory.hpp:77] Creating layer pool1
I0408 15:15:49.214093 21720 net.cpp:100] Creating Layer pool1
I0408 15:15:49.214099 21720 net.cpp:434] pool1 <- conv1_2
I0408 15:15:49.214108 21720 net.cpp:408] pool1 -> pool1
I0408 15:15:49.214181 21720 net.cpp:150] Setting up pool1
I0408 15:15:49.214192 21720 net.cpp:157] Top shape: 16 64 150 150 (23040000)
I0408 15:15:49.214197 21720 net.cpp:165] Memory required for data: 1704960032
I0408 15:15:49.214217 21720 layer_factory.hpp:77] Creating layer conv2_1
I0408 15:15:49.214232 21720 net.cpp:100] Creating Layer conv2_1
I0408 15:15:49.214237 21720 net.cpp:434] conv2_1 <- pool1
I0408 15:15:49.214246 21720 net.cpp:408] conv2_1 -> conv2_1
I0408 15:15:49.216002 21720 net.cpp:150] Setting up conv2_1
I0408 15:15:49.216020 21720 net.cpp:157] Top shape: 16 128 150 150 (46080000)
I0408 15:15:49.216025 21720 net.cpp:165] Memory required for data: 1889280032
I0408 15:15:49.216042 21720 layer_factory.hpp:77] Creating layer relu2_1
I0408 15:15:49.216054 21720 net.cpp:100] Creating Layer relu2_1
I0408 15:15:49.216059 21720 net.cpp:434] relu2_1 <- conv2_1
I0408 15:15:49.216068 21720 net.cpp:395] relu2_1 -> conv2_1 (in-place)
I0408 15:15:49.217329 21720 net.cpp:150] Setting up relu2_1
I0408 15:15:49.217350 21720 net.cpp:157] Top shape: 16 128 150 150 (46080000)
I0408 15:15:49.217355 21720 net.cpp:165] Memory required for data: 2073600032
I0408 15:15:49.217360 21720 layer_factory.hpp:77] Creating layer conv2_2
I0408 15:15:49.217375 21720 net.cpp:100] Creating Layer conv2_2
I0408 15:15:49.217381 21720 net.cpp:434] conv2_2 <- conv2_1
I0408 15:15:49.217406 21720 net.cpp:408] conv2_2 -> conv2_2
I0408 15:15:49.221807 21720 net.cpp:150] Setting up conv2_2
I0408 15:15:49.221830 21720 net.cpp:157] Top shape: 16 128 150 150 (46080000)
I0408 15:15:49.221837 21720 net.cpp:165] Memory required for data: 2257920032
I0408 15:15:49.221848 21720 layer_factory.hpp:77] Creating layer relu2_2
I0408 15:15:49.221856 21720 net.cpp:100] Creating Layer relu2_2
I0408 15:15:49.221861 21720 net.cpp:434] relu2_2 <- conv2_2
I0408 15:15:49.221870 21720 net.cpp:395] relu2_2 -> conv2_2 (in-place)
I0408 15:15:49.222153 21720 net.cpp:150] Setting up relu2_2
I0408 15:15:49.222167 21720 net.cpp:157] Top shape: 16 128 150 150 (46080000)
I0408 15:15:49.222172 21720 net.cpp:165] Memory required for data: 2442240032
I0408 15:15:49.222189 21720 layer_factory.hpp:77] Creating layer pool2
I0408 15:15:49.222198 21720 net.cpp:100] Creating Layer pool2
I0408 15:15:49.222203 21720 net.cpp:434] pool2 <- conv2_2
I0408 15:15:49.222213 21720 net.cpp:408] pool2 -> pool2
I0408 15:15:49.222277 21720 net.cpp:150] Setting up pool2
I0408 15:15:49.222287 21720 net.cpp:157] Top shape: 16 128 75 75 (11520000)
I0408 15:15:49.222292 21720 net.cpp:165] Memory required for data: 2488320032
I0408 15:15:49.222297 21720 layer_factory.hpp:77] Creating layer conv3_1
I0408 15:15:49.222314 21720 net.cpp:100] Creating Layer conv3_1
I0408 15:15:49.222321 21720 net.cpp:434] conv3_1 <- pool2
I0408 15:15:49.222331 21720 net.cpp:408] conv3_1 -> conv3_1
I0408 15:15:49.230938 21720 net.cpp:150] Setting up conv3_1
I0408 15:15:49.230960 21720 net.cpp:157] Top shape: 16 256 75 75 (23040000)
I0408 15:15:49.230967 21720 net.cpp:165] Memory required for data: 2580480032
I0408 15:15:49.230983 21720 layer_factory.hpp:77] Creating layer relu3_1
I0408 15:15:49.231011 21720 net.cpp:100] Creating Layer relu3_1
I0408 15:15:49.231019 21720 net.cpp:434] relu3_1 <- conv3_1
I0408 15:15:49.231026 21720 net.cpp:395] relu3_1 -> conv3_1 (in-place)
I0408 15:15:49.231323 21720 net.cpp:150] Setting up relu3_1
I0408 15:15:49.231338 21720 net.cpp:157] Top shape: 16 256 75 75 (23040000)
I0408 15:15:49.231343 21720 net.cpp:165] Memory required for data: 2672640032
I0408 15:15:49.231360 21720 layer_factory.hpp:77] Creating layer conv3_2
I0408 15:15:49.231379 21720 net.cpp:100] Creating Layer conv3_2
I0408 15:15:49.231384 21720 net.cpp:434] conv3_2 <- conv3_1
I0408 15:15:49.231396 21720 net.cpp:408] conv3_2 -> conv3_2
I0408 15:15:49.241336 21720 net.cpp:150] Setting up conv3_2
I0408 15:15:49.241360 21720 net.cpp:157] Top shape: 16 256 75 75 (23040000)
I0408 15:15:49.241366 21720 net.cpp:165] Memory required for data: 2764800032
I0408 15:15:49.241379 21720 layer_factory.hpp:77] Creating layer relu3_2
I0408 15:15:49.241387 21720 net.cpp:100] Creating Layer relu3_2
I0408 15:15:49.241392 21720 net.cpp:434] relu3_2 <- conv3_2
I0408 15:15:49.241418 21720 net.cpp:395] relu3_2 -> conv3_2 (in-place)
I0408 15:15:49.241700 21720 net.cpp:150] Setting up relu3_2
I0408 15:15:49.241714 21720 net.cpp:157] Top shape: 16 256 75 75 (23040000)
I0408 15:15:49.241719 21720 net.cpp:165] Memory required for data: 2856960032
I0408 15:15:49.241724 21720 layer_factory.hpp:77] Creating layer conv3_3
I0408 15:15:49.241746 21720 net.cpp:100] Creating Layer conv3_3
I0408 15:15:49.241751 21720 net.cpp:434] conv3_3 <- conv3_2
I0408 15:15:49.241760 21720 net.cpp:408] conv3_3 -> conv3_3
I0408 15:15:49.251616 21720 net.cpp:150] Setting up conv3_3
I0408 15:15:49.251639 21720 net.cpp:157] Top shape: 16 256 75 75 (23040000)
I0408 15:15:49.251646 21720 net.cpp:165] Memory required for data: 2949120032
I0408 15:15:49.251667 21720 layer_factory.hpp:77] Creating layer relu3_3
I0408 15:15:49.251677 21720 net.cpp:100] Creating Layer relu3_3
I0408 15:15:49.251683 21720 net.cpp:434] relu3_3 <- conv3_3
I0408 15:15:49.251693 21720 net.cpp:395] relu3_3 -> conv3_3 (in-place)
I0408 15:15:49.251972 21720 net.cpp:150] Setting up relu3_3
I0408 15:15:49.251986 21720 net.cpp:157] Top shape: 16 256 75 75 (23040000)
I0408 15:15:49.251992 21720 net.cpp:165] Memory required for data: 3041280032
I0408 15:15:49.251996 21720 layer_factory.hpp:77] Creating layer pool3
I0408 15:15:49.252007 21720 net.cpp:100] Creating Layer pool3
I0408 15:15:49.252012 21720 net.cpp:434] pool3 <- conv3_3
I0408 15:15:49.252023 21720 net.cpp:408] pool3 -> pool3
I0408 15:15:49.252089 21720 net.cpp:150] Setting up pool3
I0408 15:15:49.252099 21720 net.cpp:157] Top shape: 16 256 38 38 (5914624)
I0408 15:15:49.252104 21720 net.cpp:165] Memory required for data: 3064938528
I0408 15:15:49.252110 21720 layer_factory.hpp:77] Creating layer conv4_1
I0408 15:15:49.252123 21720 net.cpp:100] Creating Layer conv4_1
I0408 15:15:49.252128 21720 net.cpp:434] conv4_1 <- pool3
I0408 15:15:49.252140 21720 net.cpp:408] conv4_1 -> conv4_1
I0408 15:15:49.269843 21720 net.cpp:150] Setting up conv4_1
I0408 15:15:49.269865 21720 net.cpp:157] Top shape: 16 512 38 38 (11829248)
I0408 15:15:49.269870 21720 net.cpp:165] Memory required for data: 3112255520
I0408 15:15:49.269881 21720 layer_factory.hpp:77] Creating layer relu4_1
I0408 15:15:49.269906 21720 net.cpp:100] Creating Layer relu4_1
I0408 15:15:49.269912 21720 net.cpp:434] relu4_1 <- conv4_1
I0408 15:15:49.269922 21720 net.cpp:395] relu4_1 -> conv4_1 (in-place)
I0408 15:15:49.271214 21720 net.cpp:150] Setting up relu4_1
I0408 15:15:49.271234 21720 net.cpp:157] Top shape: 16 512 38 38 (11829248)
I0408 15:15:49.271239 21720 net.cpp:165] Memory required for data: 3159572512
I0408 15:15:49.271245 21720 layer_factory.hpp:77] Creating layer conv4_2
I0408 15:15:49.271261 21720 net.cpp:100] Creating Layer conv4_2
I0408 15:15:49.271267 21720 net.cpp:434] conv4_2 <- conv4_1
I0408 15:15:49.271280 21720 net.cpp:408] conv4_2 -> conv4_2
I0408 15:15:49.297626 21720 net.cpp:150] Setting up conv4_2
I0408 15:15:49.297652 21720 net.cpp:157] Top shape: 16 512 38 38 (11829248)
I0408 15:15:49.297683 21720 net.cpp:165] Memory required for data: 3206889504
I0408 15:15:49.297703 21720 layer_factory.hpp:77] Creating layer relu4_2
I0408 15:15:49.297719 21720 net.cpp:100] Creating Layer relu4_2
I0408 15:15:49.297724 21720 net.cpp:434] relu4_2 <- conv4_2
I0408 15:15:49.297734 21720 net.cpp:395] relu4_2 -> conv4_2 (in-place)
I0408 15:15:49.299096 21720 net.cpp:150] Setting up relu4_2
I0408 15:15:49.299116 21720 net.cpp:157] Top shape: 16 512 38 38 (11829248)
I0408 15:15:49.299121 21720 net.cpp:165] Memory required for data: 3254206496
I0408 15:15:49.299142 21720 layer_factory.hpp:77] Creating layer conv4_3
I0408 15:15:49.299160 21720 net.cpp:100] Creating Layer conv4_3
I0408 15:15:49.299166 21720 net.cpp:434] conv4_3 <- conv4_2
I0408 15:15:49.299178 21720 net.cpp:408] conv4_3 -> conv4_3
I0408 15:15:49.326791 21720 net.cpp:150] Setting up conv4_3
I0408 15:15:49.326817 21720 net.cpp:157] Top shape: 16 512 38 38 (11829248)
I0408 15:15:49.326824 21720 net.cpp:165] Memory required for data: 3301523488
I0408 15:15:49.326835 21720 layer_factory.hpp:77] Creating layer relu4_3
I0408 15:15:49.326859 21720 net.cpp:100] Creating Layer relu4_3
I0408 15:15:49.326865 21720 net.cpp:434] relu4_3 <- conv4_3
I0408 15:15:49.326874 21720 net.cpp:395] relu4_3 -> conv4_3 (in-place)
I0408 15:15:49.327162 21720 net.cpp:150] Setting up relu4_3
I0408 15:15:49.327178 21720 net.cpp:157] Top shape: 16 512 38 38 (11829248)
I0408 15:15:49.327183 21720 net.cpp:165] Memory required for data: 3348840480
I0408 15:15:49.327188 21720 layer_factory.hpp:77] Creating layer conv4_3_relu4_3_0_split
I0408 15:15:49.327198 21720 net.cpp:100] Creating Layer conv4_3_relu4_3_0_split
I0408 15:15:49.327204 21720 net.cpp:434] conv4_3_relu4_3_0_split <- conv4_3
I0408 15:15:49.327215 21720 net.cpp:408] conv4_3_relu4_3_0_split -> conv4_3_relu4_3_0_split_0
I0408 15:15:49.327225 21720 net.cpp:408] conv4_3_relu4_3_0_split -> conv4_3_relu4_3_0_split_1
I0408 15:15:49.327289 21720 net.cpp:150] Setting up conv4_3_relu4_3_0_split
I0408 15:15:49.327306 21720 net.cpp:157] Top shape: 16 512 38 38 (11829248)
I0408 15:15:49.327312 21720 net.cpp:157] Top shape: 16 512 38 38 (11829248)
I0408 15:15:49.327316 21720 net.cpp:165] Memory required for data: 3443474464
I0408 15:15:49.327322 21720 layer_factory.hpp:77] Creating layer pool4
I0408 15:15:49.327333 21720 net.cpp:100] Creating Layer pool4
I0408 15:15:49.327339 21720 net.cpp:434] pool4 <- conv4_3_relu4_3_0_split_0
I0408 15:15:49.327347 21720 net.cpp:408] pool4 -> pool4
I0408 15:15:49.327404 21720 net.cpp:150] Setting up pool4
I0408 15:15:49.327414 21720 net.cpp:157] Top shape: 16 512 19 19 (2957312)
I0408 15:15:49.327419 21720 net.cpp:165] Memory required for data: 3455303712
I0408 15:15:49.327441 21720 layer_factory.hpp:77] Creating layer conv5_1
I0408 15:15:49.327461 21720 net.cpp:100] Creating Layer conv5_1
I0408 15:15:49.327468 21720 net.cpp:434] conv5_1 <- pool4
I0408 15:15:49.327479 21720 net.cpp:408] conv5_1 -> conv5_1
I0408 15:15:49.355887 21720 net.cpp:150] Setting up conv5_1
I0408 15:15:49.355911 21720 net.cpp:157] Top shape: 16 512 19 19 (2957312)
I0408 15:15:49.355918 21720 net.cpp:165] Memory required for data: 3467132960
I0408 15:15:49.355931 21720 layer_factory.hpp:77] Creating layer relu5_1
I0408 15:15:49.355940 21720 net.cpp:100] Creating Layer relu5_1
I0408 15:15:49.355947 21720 net.cpp:434] relu5_1 <- conv5_1
I0408 15:15:49.355958 21720 net.cpp:395] relu5_1 -> conv5_1 (in-place)
I0408 15:15:49.356240 21720 net.cpp:150] Setting up relu5_1
I0408 15:15:49.356256 21720 net.cpp:157] Top shape: 16 512 19 19 (2957312)
I0408 15:15:49.356261 21720 net.cpp:165] Memory required for data: 3478962208
I0408 15:15:49.356267 21720 layer_factory.hpp:77] Creating layer conv5_2
I0408 15:15:49.356302 21720 net.cpp:100] Creating Layer conv5_2
I0408 15:15:49.356309 21720 net.cpp:434] conv5_2 <- conv5_1
I0408 15:15:49.356318 21720 net.cpp:408] conv5_2 -> conv5_2
I0408 15:15:49.384373 21720 net.cpp:150] Setting up conv5_2
I0408 15:15:49.384408 21720 net.cpp:157] Top shape: 16 512 19 19 (2957312)
I0408 15:15:49.384449 21720 net.cpp:165] Memory required for data: 3490791456
I0408 15:15:49.384465 21720 layer_factory.hpp:77] Creating layer relu5_2
I0408 15:15:49.384481 21720 net.cpp:100] Creating Layer relu5_2
I0408 15:15:49.384488 21720 net.cpp:434] relu5_2 <- conv5_2
I0408 15:15:49.384500 21720 net.cpp:395] relu5_2 -> conv5_2 (in-place)
I0408 15:15:49.384780 21720 net.cpp:150] Setting up relu5_2
I0408 15:15:49.384796 21720 net.cpp:157] Top shape: 16 512 19 19 (2957312)
I0408 15:15:49.384801 21720 net.cpp:165] Memory required for data: 3502620704
I0408 15:15:49.384806 21720 layer_factory.hpp:77] Creating layer conv5_3
I0408 15:15:49.384824 21720 net.cpp:100] Creating Layer conv5_3
I0408 15:15:49.384830 21720 net.cpp:434] conv5_3 <- conv5_2
I0408 15:15:49.384841 21720 net.cpp:408] conv5_3 -> conv5_3
I0408 15:15:49.412700 21720 net.cpp:150] Setting up conv5_3
I0408 15:15:49.412731 21720 net.cpp:157] Top shape: 16 512 19 19 (2957312)
I0408 15:15:49.412739 21720 net.cpp:165] Memory required for data: 3514449952
I0408 15:15:49.412752 21720 layer_factory.hpp:77] Creating layer relu5_3
I0408 15:15:49.412773 21720 net.cpp:100] Creating Layer relu5_3
I0408 15:15:49.412781 21720 net.cpp:434] relu5_3 <- conv5_3
I0408 15:15:49.412791 21720 net.cpp:395] relu5_3 -> conv5_3 (in-place)
I0408 15:15:49.413063 21720 net.cpp:150] Setting up relu5_3
I0408 15:15:49.413075 21720 net.cpp:157] Top shape: 16 512 19 19 (2957312)
I0408 15:15:49.413080 21720 net.cpp:165] Memory required for data: 3526279200
I0408 15:15:49.413107 21720 layer_factory.hpp:77] Creating layer conv5_3_relu5_3_0_split
I0408 15:15:49.413121 21720 net.cpp:100] Creating Layer conv5_3_relu5_3_0_split
I0408 15:15:49.413127 21720 net.cpp:434] conv5_3_relu5_3_0_split <- conv5_3
I0408 15:15:49.413138 21720 net.cpp:408] conv5_3_relu5_3_0_split -> conv5_3_relu5_3_0_split_0
I0408 15:15:49.413151 21720 net.cpp:408] conv5_3_relu5_3_0_split -> conv5_3_relu5_3_0_split_1
I0408 15:15:49.413215 21720 net.cpp:150] Setting up conv5_3_relu5_3_0_split
I0408 15:15:49.413225 21720 net.cpp:157] Top shape: 16 512 19 19 (2957312)
I0408 15:15:49.413231 21720 net.cpp:157] Top shape: 16 512 19 19 (2957312)
I0408 15:15:49.413238 21720 net.cpp:165] Memory required for data: 3549937696
I0408 15:15:49.413241 21720 layer_factory.hpp:77] Creating layer pool5
I0408 15:15:49.413251 21720 net.cpp:100] Creating Layer pool5
I0408 15:15:49.413256 21720 net.cpp:434] pool5 <- conv5_3_relu5_3_0_split_0
I0408 15:15:49.413267 21720 net.cpp:408] pool5 -> pool5
I0408 15:15:49.413327 21720 net.cpp:150] Setting up pool5
I0408 15:15:49.413337 21720 net.cpp:157] Top shape: 16 512 19 19 (2957312)
I0408 15:15:49.413342 21720 net.cpp:165] Memory required for data: 3561766944
I0408 15:15:49.413347 21720 layer_factory.hpp:77] Creating layer fc6
I0408 15:15:49.413367 21720 net.cpp:100] Creating Layer fc6
I0408 15:15:49.413374 21720 net.cpp:434] fc6 <- pool5
I0408 15:15:49.413383 21720 net.cpp:408] fc6 -> fc6
I0408 15:15:49.468190 21720 net.cpp:150] Setting up fc6
I0408 15:15:49.468230 21720 net.cpp:157] Top shape: 16 1024 19 19 (5914624)
I0408 15:15:49.468235 21720 net.cpp:165] Memory required for data: 3585425440
I0408 15:15:49.468253 21720 layer_factory.hpp:77] Creating layer relu6
I0408 15:15:49.468282 21720 net.cpp:100] Creating Layer relu6
I0408 15:15:49.468292 21720 net.cpp:434] relu6 <- fc6
I0408 15:15:49.468304 21720 net.cpp:395] relu6 -> fc6 (in-place)
I0408 15:15:49.469998 21720 net.cpp:150] Setting up relu6
I0408 15:15:49.470021 21720 net.cpp:157] Top shape: 16 1024 19 19 (5914624)
I0408 15:15:49.470027 21720 net.cpp:165] Memory required for data: 3609083936
I0408 15:15:49.470034 21720 layer_factory.hpp:77] Creating layer fc7
I0408 15:15:49.470055 21720 net.cpp:100] Creating Layer fc7
I0408 15:15:49.470062 21720 net.cpp:434] fc7 <- fc6
I0408 15:15:49.470072 21720 net.cpp:408] fc7 -> fc7
I0408 15:15:49.484923 21720 net.cpp:150] Setting up fc7
I0408 15:15:49.484966 21720 net.cpp:157] Top shape: 16 1024 19 19 (5914624)
I0408 15:15:49.484975 21720 net.cpp:165] Memory required for data: 3632742432
I0408 15:15:49.485024 21720 layer_factory.hpp:77] Creating layer relu7
I0408 15:15:49.485045 21720 net.cpp:100] Creating Layer relu7
I0408 15:15:49.485055 21720 net.cpp:434] relu7 <- fc7
I0408 15:15:49.485069 21720 net.cpp:395] relu7 -> fc7 (in-place)
I0408 15:15:49.485394 21720 net.cpp:150] Setting up relu7
I0408 15:15:49.485409 21720 net.cpp:157] Top shape: 16 1024 19 19 (5914624)
I0408 15:15:49.485414 21720 net.cpp:165] Memory required for data: 3656400928
I0408 15:15:49.485424 21720 layer_factory.hpp:77] Creating layer fc7_relu7_0_split
I0408 15:15:49.485435 21720 net.cpp:100] Creating Layer fc7_relu7_0_split
I0408 15:15:49.485441 21720 net.cpp:434] fc7_relu7_0_split <- fc7
I0408 15:15:49.485457 21720 net.cpp:408] fc7_relu7_0_split -> fc7_relu7_0_split_0
I0408 15:15:49.485471 21720 net.cpp:408] fc7_relu7_0_split -> fc7_relu7_0_split_1
I0408 15:15:49.485482 21720 net.cpp:408] fc7_relu7_0_split -> fc7_relu7_0_split_2
I0408 15:15:49.485505 21720 net.cpp:408] fc7_relu7_0_split -> fc7_relu7_0_split_3
I0408 15:15:49.485622 21720 net.cpp:150] Setting up fc7_relu7_0_split
I0408 15:15:49.485635 21720 net.cpp:157] Top shape: 16 1024 19 19 (5914624)
I0408 15:15:49.485642 21720 net.cpp:157] Top shape: 16 1024 19 19 (5914624)
I0408 15:15:49.485651 21720 net.cpp:157] Top shape: 16 1024 19 19 (5914624)
I0408 15:15:49.485656 21720 net.cpp:157] Top shape: 16 1024 19 19 (5914624)
I0408 15:15:49.485661 21720 net.cpp:165] Memory required for data: 3751034912
I0408 15:15:49.485668 21720 layer_factory.hpp:77] Creating layer conv6_1
I0408 15:15:49.485692 21720 net.cpp:100] Creating Layer conv6_1
I0408 15:15:49.485698 21720 net.cpp:434] conv6_1 <- fc7_relu7_0_split_0
I0408 15:15:49.485713 21720 net.cpp:408] conv6_1 -> conv6_1
I0408 15:15:49.494364 21720 net.cpp:150] Setting up conv6_1
I0408 15:15:49.494411 21720 net.cpp:157] Top shape: 16 256 19 19 (1478656)
I0408 15:15:49.494419 21720 net.cpp:165] Memory required for data: 3756949536
I0408 15:15:49.494439 21720 layer_factory.hpp:77] Creating layer conv6_1_relu
I0408 15:15:49.494458 21720 net.cpp:100] Creating Layer conv6_1_relu
I0408 15:15:49.494470 21720 net.cpp:434] conv6_1_relu <- conv6_1
I0408 15:15:49.494490 21720 net.cpp:395] conv6_1_relu -> conv6_1 (in-place)
I0408 15:15:49.494886 21720 net.cpp:150] Setting up conv6_1_relu
I0408 15:15:49.494902 21720 net.cpp:157] Top shape: 16 256 19 19 (1478656)
I0408 15:15:49.494907 21720 net.cpp:165] Memory required for data: 3762864160
I0408 15:15:49.494913 21720 layer_factory.hpp:77] Creating layer conv6_2
I0408 15:15:49.494951 21720 net.cpp:100] Creating Layer conv6_2
I0408 15:15:49.494957 21720 net.cpp:434] conv6_2 <- conv6_1
I0408 15:15:49.494968 21720 net.cpp:408] conv6_2 -> conv6_2
I0408 15:15:49.511234 21720 net.cpp:150] Setting up conv6_2
I0408 15:15:49.511276 21720 net.cpp:157] Top shape: 16 512 10 10 (819200)
I0408 15:15:49.511281 21720 net.cpp:165] Memory required for data: 3766140960
I0408 15:15:49.511359 21720 layer_factory.hpp:77] Creating layer conv6_2_relu
I0408 15:15:49.511379 21720 net.cpp:100] Creating Layer conv6_2_relu
I0408 15:15:49.511389 21720 net.cpp:434] conv6_2_relu <- conv6_2
I0408 15:15:49.511399 21720 net.cpp:395] conv6_2_relu -> conv6_2 (in-place)
I0408 15:15:49.511684 21720 net.cpp:150] Setting up conv6_2_relu
I0408 15:15:49.511698 21720 net.cpp:157] Top shape: 16 512 10 10 (819200)
I0408 15:15:49.511703 21720 net.cpp:165] Memory required for data: 3769417760
I0408 15:15:49.511708 21720 layer_factory.hpp:77] Creating layer conv6_2_conv6_2_relu_0_split
I0408 15:15:49.511723 21720 net.cpp:100] Creating Layer conv6_2_conv6_2_relu_0_split
I0408 15:15:49.511729 21720 net.cpp:434] conv6_2_conv6_2_relu_0_split <- conv6_2
I0408 15:15:49.511739 21720 net.cpp:408] conv6_2_conv6_2_relu_0_split -> conv6_2_conv6_2_relu_0_split_0
I0408 15:15:49.511754 21720 net.cpp:408] conv6_2_conv6_2_relu_0_split -> conv6_2_conv6_2_relu_0_split_1
I0408 15:15:49.511764 21720 net.cpp:408] conv6_2_conv6_2_relu_0_split -> conv6_2_conv6_2_relu_0_split_2
I0408 15:15:49.511772 21720 net.cpp:408] conv6_2_conv6_2_relu_0_split -> conv6_2_conv6_2_relu_0_split_3
I0408 15:15:49.511940 21720 net.cpp:150] Setting up conv6_2_conv6_2_relu_0_split
I0408 15:15:49.511952 21720 net.cpp:157] Top shape: 16 512 10 10 (819200)
I0408 15:15:49.511958 21720 net.cpp:157] Top shape: 16 512 10 10 (819200)
I0408 15:15:49.511965 21720 net.cpp:157] Top shape: 16 512 10 10 (819200)
I0408 15:15:49.511973 21720 net.cpp:157] Top shape: 16 512 10 10 (819200)
I0408 15:15:49.511977 21720 net.cpp:165] Memory required for data: 3782524960
I0408 15:15:49.511982 21720 layer_factory.hpp:77] Creating layer conv7_1
I0408 15:15:49.512004 21720 net.cpp:100] Creating Layer conv7_1
I0408 15:15:49.512013 21720 net.cpp:434] conv7_1 <- conv6_2_conv6_2_relu_0_split_0
I0408 15:15:49.512023 21720 net.cpp:408] conv7_1 -> conv7_1
I0408 15:15:49.515282 21720 net.cpp:150] Setting up conv7_1
I0408 15:15:49.515316 21720 net.cpp:157] Top shape: 16 128 10 10 (204800)
I0408 15:15:49.515322 21720 net.cpp:165] Memory required for data: 3783344160
I0408 15:15:49.515336 21720 layer_factory.hpp:77] Creating layer conv7_1_relu
I0408 15:15:49.515348 21720 net.cpp:100] Creating Layer conv7_1_relu
I0408 15:15:49.515355 21720 net.cpp:434] conv7_1_relu <- conv7_1
I0408 15:15:49.515367 21720 net.cpp:395] conv7_1_relu -> conv7_1 (in-place)
I0408 15:15:49.515646 21720 net.cpp:150] Setting up conv7_1_relu
I0408 15:15:49.515661 21720 net.cpp:157] Top shape: 16 128 10 10 (204800)
I0408 15:15:49.515666 21720 net.cpp:165] Memory required for data: 3784163360
I0408 15:15:49.515671 21720 layer_factory.hpp:77] Creating layer conv7_2
I0408 15:15:49.515691 21720 net.cpp:100] Creating Layer conv7_2
I0408 15:15:49.515697 21720 net.cpp:434] conv7_2 <- conv7_1
I0408 15:15:49.515707 21720 net.cpp:408] conv7_2 -> conv7_2
I0408 15:15:49.522620 21720 net.cpp:150] Setting up conv7_2
I0408 15:15:49.522661 21720 net.cpp:157] Top shape: 16 256 5 5 (102400)
I0408 15:15:49.522667 21720 net.cpp:165] Memory required for data: 3784572960
I0408 15:15:49.522682 21720 layer_factory.hpp:77] Creating layer conv7_2_relu
I0408 15:15:49.522701 21720 net.cpp:100] Creating Layer conv7_2_relu
I0408 15:15:49.522707 21720 net.cpp:434] conv7_2_relu <- conv7_2
I0408 15:15:49.522717 21720 net.cpp:395] conv7_2_relu -> conv7_2 (in-place)
I0408 15:15:49.523011 21720 net.cpp:150] Setting up conv7_2_relu
I0408 15:15:49.523026 21720 net.cpp:157] Top shape: 16 256 5 5 (102400)
I0408 15:15:49.523031 21720 net.cpp:165] Memory required for data: 3784982560
I0408 15:15:49.523038 21720 layer_factory.hpp:77] Creating layer conv7_2_conv7_2_relu_0_split
I0408 15:15:49.523048 21720 net.cpp:100] Creating Layer conv7_2_conv7_2_relu_0_split
I0408 15:15:49.523054 21720 net.cpp:434] conv7_2_conv7_2_relu_0_split <- conv7_2
I0408 15:15:49.523066 21720 net.cpp:408] conv7_2_conv7_2_relu_0_split -> conv7_2_conv7_2_relu_0_split_0
I0408 15:15:49.523082 21720 net.cpp:408] conv7_2_conv7_2_relu_0_split -> conv7_2_conv7_2_relu_0_split_1
I0408 15:15:49.523094 21720 net.cpp:408] conv7_2_conv7_2_relu_0_split -> conv7_2_conv7_2_relu_0_split_2
I0408 15:15:49.523106 21720 net.cpp:408] conv7_2_conv7_2_relu_0_split -> conv7_2_conv7_2_relu_0_split_3
I0408 15:15:49.523211 21720 net.cpp:150] Setting up conv7_2_conv7_2_relu_0_split
I0408 15:15:49.523221 21720 net.cpp:157] Top shape: 16 256 5 5 (102400)
I0408 15:15:49.523228 21720 net.cpp:157] Top shape: 16 256 5 5 (102400)
I0408 15:15:49.523236 21720 net.cpp:157] Top shape: 16 256 5 5 (102400)
I0408 15:15:49.523241 21720 net.cpp:157] Top shape: 16 256 5 5 (102400)
I0408 15:15:49.523246 21720 net.cpp:165] Memory required for data: 3786620960
I0408 15:15:49.523249 21720 layer_factory.hpp:77] Creating layer conv8_1
I0408 15:15:49.523268 21720 net.cpp:100] Creating Layer conv8_1
I0408 15:15:49.523275 21720 net.cpp:434] conv8_1 <- conv7_2_conv7_2_relu_0_split_0
I0408 15:15:49.523288 21720 net.cpp:408] conv8_1 -> conv8_1
I0408 15:15:49.525993 21720 net.cpp:150] Setting up conv8_1
I0408 15:15:49.526020 21720 net.cpp:157] Top shape: 16 128 5 5 (51200)
I0408 15:15:49.526024 21720 net.cpp:165] Memory required for data: 3786825760
I0408 15:15:49.526036 21720 layer_factory.hpp:77] Creating layer conv8_1_relu
I0408 15:15:49.526072 21720 net.cpp:100] Creating Layer conv8_1_relu
I0408 15:15:49.526082 21720 net.cpp:434] conv8_1_relu <- conv8_1
I0408 15:15:49.526090 21720 net.cpp:395] conv8_1_relu -> conv8_1 (in-place)
I0408 15:15:49.527465 21720 net.cpp:150] Setting up conv8_1_relu
I0408 15:15:49.527485 21720 net.cpp:157] Top shape: 16 128 5 5 (51200)
I0408 15:15:49.527492 21720 net.cpp:165] Memory required for data: 3787030560
I0408 15:15:49.527500 21720 layer_factory.hpp:77] Creating layer conv8_2
I0408 15:15:49.527519 21720 net.cpp:100] Creating Layer conv8_2
I0408 15:15:49.527525 21720 net.cpp:434] conv8_2 <- conv8_1
I0408 15:15:49.527539 21720 net.cpp:408] conv8_2 -> conv8_2
I0408 15:15:49.534561 21720 net.cpp:150] Setting up conv8_2
I0408 15:15:49.534605 21720 net.cpp:157] Top shape: 16 256 3 3 (36864)
I0408 15:15:49.534610 21720 net.cpp:165] Memory required for data: 3787178016
I0408 15:15:49.534626 21720 layer_factory.hpp:77] Creating layer conv8_2_relu
I0408 15:15:49.534641 21720 net.cpp:100] Creating Layer conv8_2_relu
I0408 15:15:49.534648 21720 net.cpp:434] conv8_2_relu <- conv8_2
I0408 15:15:49.534660 21720 net.cpp:395] conv8_2_relu -> conv8_2 (in-place)
I0408 15:15:49.534965 21720 net.cpp:150] Setting up conv8_2_relu
I0408 15:15:49.534979 21720 net.cpp:157] Top shape: 16 256 3 3 (36864)
I0408 15:15:49.534984 21720 net.cpp:165] Memory required for data: 3787325472
I0408 15:15:49.534991 21720 layer_factory.hpp:77] Creating layer conv8_2_conv8_2_relu_0_split
I0408 15:15:49.535003 21720 net.cpp:100] Creating Layer conv8_2_conv8_2_relu_0_split
I0408 15:15:49.535010 21720 net.cpp:434] conv8_2_conv8_2_relu_0_split <- conv8_2
I0408 15:15:49.535018 21720 net.cpp:408] conv8_2_conv8_2_relu_0_split -> conv8_2_conv8_2_relu_0_split_0
I0408 15:15:49.535030 21720 net.cpp:408] conv8_2_conv8_2_relu_0_split -> conv8_2_conv8_2_relu_0_split_1
I0408 15:15:49.535043 21720 net.cpp:408] conv8_2_conv8_2_relu_0_split -> conv8_2_conv8_2_relu_0_split_2
I0408 15:15:49.535053 21720 net.cpp:408] conv8_2_conv8_2_relu_0_split -> conv8_2_conv8_2_relu_0_split_3
I0408 15:15:49.535161 21720 net.cpp:150] Setting up conv8_2_conv8_2_relu_0_split
I0408 15:15:49.535172 21720 net.cpp:157] Top shape: 16 256 3 3 (36864)
I0408 15:15:49.535179 21720 net.cpp:157] Top shape: 16 256 3 3 (36864)
I0408 15:15:49.535185 21720 net.cpp:157] Top shape: 16 256 3 3 (36864)
I0408 15:15:49.535192 21720 net.cpp:157] Top shape: 16 256 3 3 (36864)
I0408 15:15:49.535197 21720 net.cpp:165] Memory required for data: 3787915296
I0408 15:15:49.535203 21720 layer_factory.hpp:77] Creating layer conv9_1
I0408 15:15:49.535224 21720 net.cpp:100] Creating Layer conv9_1
I0408 15:15:49.535233 21720 net.cpp:434] conv9_1 <- conv8_2_conv8_2_relu_0_split_0
I0408 15:15:49.535243 21720 net.cpp:408] conv9_1 -> conv9_1
I0408 15:15:49.538090 21720 net.cpp:150] Setting up conv9_1
I0408 15:15:49.538122 21720 net.cpp:157] Top shape: 16 128 3 3 (18432)
I0408 15:15:49.538128 21720 net.cpp:165] Memory required for data: 3787989024
I0408 15:15:49.538141 21720 layer_factory.hpp:77] Creating layer conv9_1_relu
I0408 15:15:49.538152 21720 net.cpp:100] Creating Layer conv9_1_relu
I0408 15:15:49.538159 21720 net.cpp:434] conv9_1_relu <- conv9_1
I0408 15:15:49.538170 21720 net.cpp:395] conv9_1_relu -> conv9_1 (in-place)
I0408 15:15:49.538458 21720 net.cpp:150] Setting up conv9_1_relu
I0408 15:15:49.538473 21720 net.cpp:157] Top shape: 16 128 3 3 (18432)
I0408 15:15:49.538478 21720 net.cpp:165] Memory required for data: 3788062752
I0408 15:15:49.538483 21720 layer_factory.hpp:77] Creating layer conv9_2
I0408 15:15:49.538502 21720 net.cpp:100] Creating Layer conv9_2
I0408 15:15:49.538509 21720 net.cpp:434] conv9_2 <- conv9_1
I0408 15:15:49.538518 21720 net.cpp:408] conv9_2 -> conv9_2
I0408 15:15:49.545729 21720 net.cpp:150] Setting up conv9_2
I0408 15:15:49.545770 21720 net.cpp:157] Top shape: 16 256 1 1 (4096)
I0408 15:15:49.545776 21720 net.cpp:165] Memory required for data: 3788079136
I0408 15:15:49.545799 21720 layer_factory.hpp:77] Creating layer conv9_2_relu
I0408 15:15:49.545814 21720 net.cpp:100] Creating Layer conv9_2_relu
I0408 15:15:49.545850 21720 net.cpp:434] conv9_2_relu <- conv9_2
I0408 15:15:49.545871 21720 net.cpp:395] conv9_2_relu -> conv9_2 (in-place)
I0408 15:15:49.546154 21720 net.cpp:150] Setting up conv9_2_relu
I0408 15:15:49.546170 21720 net.cpp:157] Top shape: 16 256 1 1 (4096)
I0408 15:15:49.546175 21720 net.cpp:165] Memory required for data: 3788095520
I0408 15:15:49.546185 21720 layer_factory.hpp:77] Creating layer conv9_2_conv9_2_relu_0_split
I0408 15:15:49.546195 21720 net.cpp:100] Creating Layer conv9_2_conv9_2_relu_0_split
I0408 15:15:49.546200 21720 net.cpp:434] conv9_2_conv9_2_relu_0_split <- conv9_2
I0408 15:15:49.546211 21720 net.cpp:408] conv9_2_conv9_2_relu_0_split -> conv9_2_conv9_2_relu_0_split_0
I0408 15:15:49.546223 21720 net.cpp:408] conv9_2_conv9_2_relu_0_split -> conv9_2_conv9_2_relu_0_split_1
I0408 15:15:49.546233 21720 net.cpp:408] conv9_2_conv9_2_relu_0_split -> conv9_2_conv9_2_relu_0_split_2
I0408 15:15:49.546321 21720 net.cpp:150] Setting up conv9_2_conv9_2_relu_0_split
I0408 15:15:49.546334 21720 net.cpp:157] Top shape: 16 256 1 1 (4096)
I0408 15:15:49.546341 21720 net.cpp:157] Top shape: 16 256 1 1 (4096)
I0408 15:15:49.546347 21720 net.cpp:157] Top shape: 16 256 1 1 (4096)
I0408 15:15:49.546351 21720 net.cpp:165] Memory required for data: 3788144672
I0408 15:15:49.546356 21720 layer_factory.hpp:77] Creating layer Deconvolution1
I0408 15:15:49.546388 21720 net.cpp:100] Creating Layer Deconvolution1
I0408 15:15:49.546396 21720 net.cpp:434] Deconvolution1 <- conv5_3_relu5_3_0_split_1
I0408 15:15:49.546407 21720 net.cpp:408] Deconvolution1 -> Deconvolution1
I0408 15:15:49.611575 21720 net.cpp:150] Setting up Deconvolution1
I0408 15:15:49.611624 21720 net.cpp:157] Top shape: 16 512 38 38 (11829248)
I0408 15:15:49.611629 21720 net.cpp:165] Memory required for data: 3835461664
I0408 15:15:49.611644 21720 layer_factory.hpp:77] Creating layer Convolution1
I0408 15:15:49.611665 21720 net.cpp:100] Creating Layer Convolution1
I0408 15:15:49.611673 21720 net.cpp:434] Convolution1 <- Deconvolution1
I0408 15:15:49.611687 21720 net.cpp:408] Convolution1 -> Convolution1
I0408 15:15:49.623296 21720 net.cpp:150] Setting up Convolution1
I0408 15:15:49.623340 21720 net.cpp:157] Top shape: 16 512 38 38 (11829248)
I0408 15:15:49.623347 21720 net.cpp:165] Memory required for data: 3882778656
I0408 15:15:49.623363 21720 layer_factory.hpp:77] Creating layer BatchNorm1
I0408 15:15:49.623378 21720 net.cpp:100] Creating Layer BatchNorm1
I0408 15:15:49.623386 21720 net.cpp:434] BatchNorm1 <- Convolution1
I0408 15:15:49.623397 21720 net.cpp:395] BatchNorm1 -> Convolution1 (in-place)
I0408 15:15:49.623827 21720 net.cpp:150] Setting up BatchNorm1
I0408 15:15:49.623841 21720 net.cpp:157] Top shape: 16 512 38 38 (11829248)
I0408 15:15:49.623844 21720 net.cpp:165] Memory required for data: 3930095648
I0408 15:15:49.623858 21720 layer_factory.hpp:77] Creating layer up_conv5_3
I0408 15:15:49.623867 21720 net.cpp:100] Creating Layer up_conv5_3
I0408 15:15:49.623872 21720 net.cpp:434] up_conv5_3 <- Convolution1
I0408 15:15:49.623879 21720 net.cpp:395] up_conv5_3 -> Convolution1 (in-place)
I0408 15:15:49.624181 21720 net.cpp:150] Setting up up_conv5_3
I0408 15:15:49.624194 21720 net.cpp:157] Top shape: 16 512 38 38 (11829248)
I0408 15:15:49.624199 21720 net.cpp:165] Memory required for data: 3977412640
I0408 15:15:49.624204 21720 layer_factory.hpp:77] Creating layer Convolution2
I0408 15:15:49.624259 21720 net.cpp:100] Creating Layer Convolution2
I0408 15:15:49.624269 21720 net.cpp:434] Convolution2 <- conv4_3_relu4_3_0_split_1
I0408 15:15:49.624279 21720 net.cpp:408] Convolution2 -> Convolution2
I0408 15:15:49.636006 21720 net.cpp:150] Setting up Convolution2
I0408 15:15:49.636077 21720 net.cpp:157] Top shape: 16 512 38 38 (11829248)
I0408 15:15:49.636083 21720 net.cpp:165] Memory required for data: 4024729632
I0408 15:15:49.636099 21720 layer_factory.hpp:77] Creating layer BatchNorm2
I0408 15:15:49.636116 21720 net.cpp:100] Creating Layer BatchNorm2
I0408 15:15:49.636126 21720 net.cpp:434] BatchNorm2 <- Convolution2
I0408 15:15:49.636157 21720 net.cpp:395] BatchNorm2 -> Convolution2 (in-place)
I0408 15:15:49.636503 21720 net.cpp:150] Setting up BatchNorm2
I0408 15:15:49.636514 21720 net.cpp:157] Top shape: 16 512 38 38 (11829248)
I0408 15:15:49.636520 21720 net.cpp:165] Memory required for data: 4072046624
I0408 15:15:49.636534 21720 layer_factory.hpp:77] Creating layer conv4_3_conv
I0408 15:15:49.636543 21720 net.cpp:100] Creating Layer conv4_3_conv
I0408 15:15:49.636548 21720 net.cpp:434] conv4_3_conv <- Convolution2
I0408 15:15:49.636559 21720 net.cpp:395] conv4_3_conv -> Convolution2 (in-place)
I0408 15:15:49.639971 21720 net.cpp:150] Setting up conv4_3_conv
I0408 15:15:49.640003 21720 net.cpp:157] Top shape: 16 512 38 38 (11829248)
I0408 15:15:49.640010 21720 net.cpp:165] Memory required for data: 4119363616
I0408 15:15:49.640018 21720 layer_factory.hpp:77] Creating layer Concat1
I0408 15:15:49.640033 21720 net.cpp:100] Creating Layer Concat1
I0408 15:15:49.640040 21720 net.cpp:434] Concat1 <- Convolution1
I0408 15:15:49.640049 21720 net.cpp:434] Concat1 <- Convolution2
I0408 15:15:49.640058 21720 net.cpp:408] Concat1 -> Concat1
I0408 15:15:49.640123 21720 net.cpp:150] Setting up Concat1
I0408 15:15:49.640135 21720 net.cpp:157] Top shape: 16 1024 38 38 (23658496)
I0408 15:15:49.640139 21720 net.cpp:165] Memory required for data: 4213997600
I0408 15:15:49.640146 21720 layer_factory.hpp:77] Creating layer Convolution3
I0408 15:15:49.640161 21720 net.cpp:100] Creating Layer Convolution3
I0408 15:15:49.640168 21720 net.cpp:434] Convolution3 <- Concat1
I0408 15:15:49.640178 21720 net.cpp:408] Convolution3 -> Convolution3
I0408 15:15:49.645089 21720 net.cpp:150] Setting up Convolution3
I0408 15:15:49.645133 21720 net.cpp:157] Top shape: 16 512 38 38 (11829248)
I0408 15:15:49.645138 21720 net.cpp:165] Memory required for data: 4261314592
I0408 15:15:49.645156 21720 layer_factory.hpp:77] Creating layer conc1
I0408 15:15:49.645172 21720 net.cpp:100] Creating Layer conc1
I0408 15:15:49.645180 21720 net.cpp:434] conc1 <- Convolution3
I0408 15:15:49.645190 21720 net.cpp:395] conc1 -> Convolution3 (in-place)
I0408 15:15:49.646612 21720 net.cpp:150] Setting up conc1
I0408 15:15:49.646633 21720 net.cpp:157] Top shape: 16 512 38 38 (11829248)
I0408 15:15:49.646638 21720 net.cpp:165] Memory required for data: 4308631584
I0408 15:15:49.646644 21720 layer_factory.hpp:77] Creating layer conc1_norm
I0408 15:15:49.646658 21720 net.cpp:100] Creating Layer conc1_norm
I0408 15:15:49.646666 21720 net.cpp:434] conc1_norm <- Convolution3
I0408 15:15:49.646674 21720 net.cpp:408] conc1_norm -> conc1_norm
I0408 15:15:49.646981 21720 net.cpp:150] Setting up conc1_norm
I0408 15:15:49.646996 21720 net.cpp:157] Top shape: 16 512 38 38 (11829248)
I0408 15:15:49.647002 21720 net.cpp:165] Memory required for data: 4355948576
I0408 15:15:49.647011 21720 layer_factory.hpp:77] Creating layer conc1_norm_conc1_norm_0_split
I0408 15:15:49.647020 21720 net.cpp:100] Creating Layer conc1_norm_conc1_norm_0_split
I0408 15:15:49.647025 21720 net.cpp:434] conc1_norm_conc1_norm_0_split <- conc1_norm
I0408 15:15:49.647037 21720 net.cpp:408] conc1_norm_conc1_norm_0_split -> conc1_norm_conc1_norm_0_split_0
I0408 15:15:49.647047 21720 net.cpp:408] conc1_norm_conc1_norm_0_split -> conc1_norm_conc1_norm_0_split_1
I0408 15:15:49.647056 21720 net.cpp:408] conc1_norm_conc1_norm_0_split -> conc1_norm_conc1_norm_0_split_2
I0408 15:15:49.647135 21720 net.cpp:150] Setting up conc1_norm_conc1_norm_0_split
I0408 15:15:49.647145 21720 net.cpp:157] Top shape: 16 512 38 38 (11829248)
I0408 15:15:49.647151 21720 net.cpp:157] Top shape: 16 512 38 38 (11829248)
I0408 15:15:49.647157 21720 net.cpp:157] Top shape: 16 512 38 38 (11829248)
I0408 15:15:49.647162 21720 net.cpp:165] Memory required for data: 4497899552
I0408 15:15:49.647171 21720 layer_factory.hpp:77] Creating layer conc1_norm_mbox_loc
I0408 15:15:49.647189 21720 net.cpp:100] Creating Layer conc1_norm_mbox_loc
I0408 15:15:49.647195 21720 net.cpp:434] conc1_norm_mbox_loc <- conc1_norm_conc1_norm_0_split_0
I0408 15:15:49.647230 21720 net.cpp:408] conc1_norm_mbox_loc -> conc1_norm_mbox_loc
I0408 15:15:49.651631 21720 net.cpp:150] Setting up conc1_norm_mbox_loc
I0408 15:15:49.651671 21720 net.cpp:157] Top shape: 16 16 38 38 (369664)
I0408 15:15:49.651677 21720 net.cpp:165] Memory required for data: 4499378208
I0408 15:15:49.651692 21720 layer_factory.hpp:77] Creating layer conc1_norm_mbox_loc_perm
I0408 15:15:49.651708 21720 net.cpp:100] Creating Layer conc1_norm_mbox_loc_perm
I0408 15:15:49.651715 21720 net.cpp:434] conc1_norm_mbox_loc_perm <- conc1_norm_mbox_loc
I0408 15:15:49.651729 21720 net.cpp:408] conc1_norm_mbox_loc_perm -> conc1_norm_mbox_loc_perm
I0408 15:15:49.651919 21720 net.cpp:150] Setting up conc1_norm_mbox_loc_perm
I0408 15:15:49.651932 21720 net.cpp:157] Top shape: 16 38 38 16 (369664)
I0408 15:15:49.651937 21720 net.cpp:165] Memory required for data: 4500856864
I0408 15:15:49.651942 21720 layer_factory.hpp:77] Creating layer conc1_norm_mbox_loc_flat
I0408 15:15:49.651952 21720 net.cpp:100] Creating Layer conc1_norm_mbox_loc_flat
I0408 15:15:49.651959 21720 net.cpp:434] conc1_norm_mbox_loc_flat <- conc1_norm_mbox_loc_perm
I0408 15:15:49.651969 21720 net.cpp:408] conc1_norm_mbox_loc_flat -> conc1_norm_mbox_loc_flat
I0408 15:15:49.652029 21720 net.cpp:150] Setting up conc1_norm_mbox_loc_flat
I0408 15:15:49.652038 21720 net.cpp:157] Top shape: 16 23104 (369664)
I0408 15:15:49.652045 21720 net.cpp:165] Memory required for data: 4502335520
I0408 15:15:49.652052 21720 layer_factory.hpp:77] Creating layer conc1_norm_mbox_conf
I0408 15:15:49.652071 21720 net.cpp:100] Creating Layer conc1_norm_mbox_conf
I0408 15:15:49.652078 21720 net.cpp:434] conc1_norm_mbox_conf <- conc1_norm_conc1_norm_0_split_1
I0408 15:15:49.652092 21720 net.cpp:408] conc1_norm_mbox_conf -> conc1_norm_mbox_conf
I0408 15:15:49.660012 21720 net.cpp:150] Setting up conc1_norm_mbox_conf
I0408 15:15:49.660055 21720 net.cpp:157] Top shape: 16 84 38 38 (1940736)
I0408 15:15:49.660060 21720 net.cpp:165] Memory required for data: 4510098464
I0408 15:15:49.660099 21720 layer_factory.hpp:77] Creating layer conc1_norm_mbox_conf_perm
I0408 15:15:49.660116 21720 net.cpp:100] Creating Layer conc1_norm_mbox_conf_perm
I0408 15:15:49.660125 21720 net.cpp:434] conc1_norm_mbox_conf_perm <- conc1_norm_mbox_conf
I0408 15:15:49.660136 21720 net.cpp:408] conc1_norm_mbox_conf_perm -> conc1_norm_mbox_conf_perm
I0408 15:15:49.660339 21720 net.cpp:150] Setting up conc1_norm_mbox_conf_perm
I0408 15:15:49.660351 21720 net.cpp:157] Top shape: 16 38 38 84 (1940736)
I0408 15:15:49.660356 21720 net.cpp:165] Memory required for data: 4517861408
I0408 15:15:49.660360 21720 layer_factory.hpp:77] Creating layer conc1_norm_mbox_conf_flat
I0408 15:15:49.660372 21720 net.cpp:100] Creating Layer conc1_norm_mbox_conf_flat
I0408 15:15:49.660377 21720 net.cpp:434] conc1_norm_mbox_conf_flat <- conc1_norm_mbox_conf_perm
I0408 15:15:49.660387 21720 net.cpp:408] conc1_norm_mbox_conf_flat -> conc1_norm_mbox_conf_flat
I0408 15:15:49.660428 21720 net.cpp:150] Setting up conc1_norm_mbox_conf_flat
I0408 15:15:49.660439 21720 net.cpp:157] Top shape: 16 121296 (1940736)
I0408 15:15:49.660442 21720 net.cpp:165] Memory required for data: 4525624352
I0408 15:15:49.660449 21720 layer_factory.hpp:77] Creating layer conc1_norm_mbox_priorbox
I0408 15:15:49.660460 21720 net.cpp:100] Creating Layer conc1_norm_mbox_priorbox
I0408 15:15:49.660475 21720 net.cpp:434] conc1_norm_mbox_priorbox <- conc1_norm_conc1_norm_0_split_2
I0408 15:15:49.660483 21720 net.cpp:434] conc1_norm_mbox_priorbox <- data_data_0_split_1
I0408 15:15:49.660495 21720 net.cpp:408] conc1_norm_mbox_priorbox -> conc1_norm_mbox_priorbox
I0408 15:15:49.660550 21720 net.cpp:150] Setting up conc1_norm_mbox_priorbox
I0408 15:15:49.660562 21720 net.cpp:157] Top shape: 1 2 23104 (46208)
I0408 15:15:49.660567 21720 net.cpp:165] Memory required for data: 4525809184
I0408 15:15:49.660571 21720 layer_factory.hpp:77] Creating layer fc7_mbox_loc
I0408 15:15:49.660591 21720 net.cpp:100] Creating Layer fc7_mbox_loc
I0408 15:15:49.660600 21720 net.cpp:434] fc7_mbox_loc <- fc7_relu7_0_split_1
I0408 15:15:49.660635 21720 net.cpp:408] fc7_mbox_loc -> fc7_mbox_loc
I0408 15:15:49.666594 21720 net.cpp:150] Setting up fc7_mbox_loc
I0408 15:15:49.666638 21720 net.cpp:157] Top shape: 16 24 19 19 (138624)
I0408 15:15:49.666646 21720 net.cpp:165] Memory required for data: 4526363680
I0408 15:15:49.666662 21720 layer_factory.hpp:77] Creating layer fc7_mbox_loc_perm
I0408 15:15:49.666687 21720 net.cpp:100] Creating Layer fc7_mbox_loc_perm
I0408 15:15:49.666695 21720 net.cpp:434] fc7_mbox_loc_perm <- fc7_mbox_loc
I0408 15:15:49.666712 21720 net.cpp:408] fc7_mbox_loc_perm -> fc7_mbox_loc_perm
I0408 15:15:49.666920 21720 net.cpp:150] Setting up fc7_mbox_loc_perm
I0408 15:15:49.666934 21720 net.cpp:157] Top shape: 16 19 19 24 (138624)
I0408 15:15:49.666939 21720 net.cpp:165] Memory required for data: 4526918176
I0408 15:15:49.666946 21720 layer_factory.hpp:77] Creating layer fc7_mbox_loc_flat
I0408 15:15:49.666962 21720 net.cpp:100] Creating Layer fc7_mbox_loc_flat
I0408 15:15:49.666968 21720 net.cpp:434] fc7_mbox_loc_flat <- fc7_mbox_loc_perm
I0408 15:15:49.666976 21720 net.cpp:408] fc7_mbox_loc_flat -> fc7_mbox_loc_flat
I0408 15:15:49.667017 21720 net.cpp:150] Setting up fc7_mbox_loc_flat
I0408 15:15:49.667027 21720 net.cpp:157] Top shape: 16 8664 (138624)
I0408 15:15:49.667037 21720 net.cpp:165] Memory required for data: 4527472672
I0408 15:15:49.667043 21720 layer_factory.hpp:77] Creating layer fc7_mbox_conf
I0408 15:15:49.667063 21720 net.cpp:100] Creating Layer fc7_mbox_conf
I0408 15:15:49.667070 21720 net.cpp:434] fc7_mbox_conf <- fc7_relu7_0_split_2
I0408 15:15:49.667083 21720 net.cpp:408] fc7_mbox_conf -> fc7_mbox_conf
I0408 15:15:49.687206 21720 net.cpp:150] Setting up fc7_mbox_conf
I0408 15:15:49.687255 21720 net.cpp:157] Top shape: 16 126 19 19 (727776)
I0408 15:15:49.687263 21720 net.cpp:165] Memory required for data: 4530383776
I0408 15:15:49.687288 21720 layer_factory.hpp:77] Creating layer fc7_mbox_conf_perm
I0408 15:15:49.687311 21720 net.cpp:100] Creating Layer fc7_mbox_conf_perm
I0408 15:15:49.687327 21720 net.cpp:434] fc7_mbox_conf_perm <- fc7_mbox_conf
I0408 15:15:49.687343 21720 net.cpp:408] fc7_mbox_conf_perm -> fc7_mbox_conf_perm
I0408 15:15:49.687613 21720 net.cpp:150] Setting up fc7_mbox_conf_perm
I0408 15:15:49.687629 21720 net.cpp:157] Top shape: 16 19 19 126 (727776)
I0408 15:15:49.687638 21720 net.cpp:165] Memory required for data: 4533294880
I0408 15:15:49.687670 21720 layer_factory.hpp:77] Creating layer fc7_mbox_conf_flat
I0408 15:15:49.687690 21720 net.cpp:100] Creating Layer fc7_mbox_conf_flat
I0408 15:15:49.687697 21720 net.cpp:434] fc7_mbox_conf_flat <- fc7_mbox_conf_perm
I0408 15:15:49.687712 21720 net.cpp:408] fc7_mbox_conf_flat -> fc7_mbox_conf_flat
I0408 15:15:49.687778 21720 net.cpp:150] Setting up fc7_mbox_conf_flat
I0408 15:15:49.687791 21720 net.cpp:157] Top shape: 16 45486 (727776)
I0408 15:15:49.687798 21720 net.cpp:165] Memory required for data: 4536205984
I0408 15:15:49.687805 21720 layer_factory.hpp:77] Creating layer fc7_mbox_priorbox
I0408 15:15:49.687820 21720 net.cpp:100] Creating Layer fc7_mbox_priorbox
I0408 15:15:49.687829 21720 net.cpp:434] fc7_mbox_priorbox <- fc7_relu7_0_split_3
I0408 15:15:49.687841 21720 net.cpp:434] fc7_mbox_priorbox <- data_data_0_split_2
I0408 15:15:49.687858 21720 net.cpp:408] fc7_mbox_priorbox -> fc7_mbox_priorbox
I0408 15:15:49.687928 21720 net.cpp:150] Setting up fc7_mbox_priorbox
I0408 15:15:49.687942 21720 net.cpp:157] Top shape: 1 2 8664 (17328)
I0408 15:15:49.687948 21720 net.cpp:165] Memory required for data: 4536275296
I0408 15:15:49.687957 21720 layer_factory.hpp:77] Creating layer conv6_2_mbox_loc
I0408 15:15:49.687988 21720 net.cpp:100] Creating Layer conv6_2_mbox_loc
I0408 15:15:49.687999 21720 net.cpp:434] conv6_2_mbox_loc <- conv6_2_conv6_2_relu_0_split_1
I0408 15:15:49.688014 21720 net.cpp:408] conv6_2_mbox_loc -> conv6_2_mbox_loc
I0408 15:15:49.694917 21720 net.cpp:150] Setting up conv6_2_mbox_loc
I0408 15:15:49.694947 21720 net.cpp:157] Top shape: 16 24 10 10 (38400)
I0408 15:15:49.694955 21720 net.cpp:165] Memory required for data: 4536428896
I0408 15:15:49.695030 21720 layer_factory.hpp:77] Creating layer conv6_2_mbox_loc_perm
I0408 15:15:49.695056 21720 net.cpp:100] Creating Layer conv6_2_mbox_loc_perm
I0408 15:15:49.695065 21720 net.cpp:434] conv6_2_mbox_loc_perm <- conv6_2_mbox_loc
I0408 15:15:49.695077 21720 net.cpp:408] conv6_2_mbox_loc_perm -> conv6_2_mbox_loc_perm
I0408 15:15:49.695346 21720 net.cpp:150] Setting up conv6_2_mbox_loc_perm
I0408 15:15:49.695363 21720 net.cpp:157] Top shape: 16 10 10 24 (38400)
I0408 15:15:49.695374 21720 net.cpp:165] Memory required for data: 4536582496
I0408 15:15:49.695380 21720 layer_factory.hpp:77] Creating layer conv6_2_mbox_loc_flat
I0408 15:15:49.695395 21720 net.cpp:100] Creating Layer conv6_2_mbox_loc_flat
I0408 15:15:49.695407 21720 net.cpp:434] conv6_2_mbox_loc_flat <- conv6_2_mbox_loc_perm
I0408 15:15:49.695420 21720 net.cpp:408] conv6_2_mbox_loc_flat -> conv6_2_mbox_loc_flat
I0408 15:15:49.695482 21720 net.cpp:150] Setting up conv6_2_mbox_loc_flat
I0408 15:15:49.695495 21720 net.cpp:157] Top shape: 16 2400 (38400)
I0408 15:15:49.695503 21720 net.cpp:165] Memory required for data: 4536736096
I0408 15:15:49.695510 21720 layer_factory.hpp:77] Creating layer conv6_2_mbox_conf
I0408 15:15:49.695531 21720 net.cpp:100] Creating Layer conv6_2_mbox_conf
I0408 15:15:49.695541 21720 net.cpp:434] conv6_2_mbox_conf <- conv6_2_conv6_2_relu_0_split_2
I0408 15:15:49.695562 21720 net.cpp:408] conv6_2_mbox_conf -> conv6_2_mbox_conf
I0408 15:15:49.710157 21720 net.cpp:150] Setting up conv6_2_mbox_conf
I0408 15:15:49.710202 21720 net.cpp:157] Top shape: 16 126 10 10 (201600)
I0408 15:15:49.710209 21720 net.cpp:165] Memory required for data: 4537542496
I0408 15:15:49.710256 21720 layer_factory.hpp:77] Creating layer conv6_2_mbox_conf_perm
I0408 15:15:49.710283 21720 net.cpp:100] Creating Layer conv6_2_mbox_conf_perm
I0408 15:15:49.710295 21720 net.cpp:434] conv6_2_mbox_conf_perm <- conv6_2_mbox_conf
I0408 15:15:49.710310 21720 net.cpp:408] conv6_2_mbox_conf_perm -> conv6_2_mbox_conf_perm
I0408 15:15:49.710563 21720 net.cpp:150] Setting up conv6_2_mbox_conf_perm
I0408 15:15:49.710578 21720 net.cpp:157] Top shape: 16 10 10 126 (201600)
I0408 15:15:49.710584 21720 net.cpp:165] Memory required for data: 4538348896
I0408 15:15:49.710590 21720 layer_factory.hpp:77] Creating layer conv6_2_mbox_conf_flat
I0408 15:15:49.710603 21720 net.cpp:100] Creating Layer conv6_2_mbox_conf_flat
I0408 15:15:49.710610 21720 net.cpp:434] conv6_2_mbox_conf_flat <- conv6_2_mbox_conf_perm
I0408 15:15:49.710623 21720 net.cpp:408] conv6_2_mbox_conf_flat -> conv6_2_mbox_conf_flat
I0408 15:15:49.710680 21720 net.cpp:150] Setting up conv6_2_mbox_conf_flat
I0408 15:15:49.710696 21720 net.cpp:157] Top shape: 16 12600 (201600)
I0408 15:15:49.710702 21720 net.cpp:165] Memory required for data: 4539155296
I0408 15:15:49.710708 21720 layer_factory.hpp:77] Creating layer conv6_2_mbox_priorbox
I0408 15:15:49.710724 21720 net.cpp:100] Creating Layer conv6_2_mbox_priorbox
I0408 15:15:49.710733 21720 net.cpp:434] conv6_2_mbox_priorbox <- conv6_2_conv6_2_relu_0_split_3
I0408 15:15:49.710743 21720 net.cpp:434] conv6_2_mbox_priorbox <- data_data_0_split_3
I0408 15:15:49.710754 21720 net.cpp:408] conv6_2_mbox_priorbox -> conv6_2_mbox_priorbox
I0408 15:15:49.710813 21720 net.cpp:150] Setting up conv6_2_mbox_priorbox
I0408 15:15:49.710827 21720 net.cpp:157] Top shape: 1 2 2400 (4800)
I0408 15:15:49.710834 21720 net.cpp:165] Memory required for data: 4539174496
I0408 15:15:49.710865 21720 layer_factory.hpp:77] Creating layer conv7_2_mbox_loc
I0408 15:15:49.710916 21720 net.cpp:100] Creating Layer conv7_2_mbox_loc
I0408 15:15:49.710928 21720 net.cpp:434] conv7_2_mbox_loc <- conv7_2_conv7_2_relu_0_split_1
I0408 15:15:49.710944 21720 net.cpp:408] conv7_2_mbox_loc -> conv7_2_mbox_loc
I0408 15:15:49.716202 21720 net.cpp:150] Setting up conv7_2_mbox_loc
I0408 15:15:49.716231 21720 net.cpp:157] Top shape: 16 24 5 5 (9600)
I0408 15:15:49.716238 21720 net.cpp:165] Memory required for data: 4539212896
I0408 15:15:49.716255 21720 layer_factory.hpp:77] Creating layer conv7_2_mbox_loc_perm
I0408 15:15:49.716320 21720 net.cpp:100] Creating Layer conv7_2_mbox_loc_perm
I0408 15:15:49.716331 21720 net.cpp:434] conv7_2_mbox_loc_perm <- conv7_2_mbox_loc
I0408 15:15:49.716347 21720 net.cpp:408] conv7_2_mbox_loc_perm -> conv7_2_mbox_loc_perm
I0408 15:15:49.716562 21720 net.cpp:150] Setting up conv7_2_mbox_loc_perm
I0408 15:15:49.716578 21720 net.cpp:157] Top shape: 16 5 5 24 (9600)
I0408 15:15:49.716584 21720 net.cpp:165] Memory required for data: 4539251296
I0408 15:15:49.716591 21720 layer_factory.hpp:77] Creating layer conv7_2_mbox_loc_flat
I0408 15:15:49.716601 21720 net.cpp:100] Creating Layer conv7_2_mbox_loc_flat
I0408 15:15:49.716609 21720 net.cpp:434] conv7_2_mbox_loc_flat <- conv7_2_mbox_loc_perm
I0408 15:15:49.716617 21720 net.cpp:408] conv7_2_mbox_loc_flat -> conv7_2_mbox_loc_flat
I0408 15:15:49.716667 21720 net.cpp:150] Setting up conv7_2_mbox_loc_flat
I0408 15:15:49.716678 21720 net.cpp:157] Top shape: 16 600 (9600)
I0408 15:15:49.716683 21720 net.cpp:165] Memory required for data: 4539289696
I0408 15:15:49.716701 21720 layer_factory.hpp:77] Creating layer conv7_2_mbox_conf
I0408 15:15:49.716732 21720 net.cpp:100] Creating Layer conv7_2_mbox_conf
I0408 15:15:49.716740 21720 net.cpp:434] conv7_2_mbox_conf <- conv7_2_conv7_2_relu_0_split_2
I0408 15:15:49.716755 21720 net.cpp:408] conv7_2_mbox_conf -> conv7_2_mbox_conf
I0408 15:15:49.725958 21720 net.cpp:150] Setting up conv7_2_mbox_conf
I0408 15:15:49.726007 21720 net.cpp:157] Top shape: 16 126 5 5 (50400)
I0408 15:15:49.726013 21720 net.cpp:165] Memory required for data: 4539491296
I0408 15:15:49.726033 21720 layer_factory.hpp:77] Creating layer conv7_2_mbox_conf_perm
I0408 15:15:49.726058 21720 net.cpp:100] Creating Layer conv7_2_mbox_conf_perm
I0408 15:15:49.726069 21720 net.cpp:434] conv7_2_mbox_conf_perm <- conv7_2_mbox_conf
I0408 15:15:49.726081 21720 net.cpp:408] conv7_2_mbox_conf_perm -> conv7_2_mbox_conf_perm
I0408 15:15:49.726306 21720 net.cpp:150] Setting up conv7_2_mbox_conf_perm
I0408 15:15:49.726320 21720 net.cpp:157] Top shape: 16 5 5 126 (50400)
I0408 15:15:49.726325 21720 net.cpp:165] Memory required for data: 4539692896
I0408 15:15:49.726331 21720 layer_factory.hpp:77] Creating layer conv7_2_mbox_conf_flat
I0408 15:15:49.726343 21720 net.cpp:100] Creating Layer conv7_2_mbox_conf_flat
I0408 15:15:49.726349 21720 net.cpp:434] conv7_2_mbox_conf_flat <- conv7_2_mbox_conf_perm
I0408 15:15:49.726362 21720 net.cpp:408] conv7_2_mbox_conf_flat -> conv7_2_mbox_conf_flat
I0408 15:15:49.726414 21720 net.cpp:150] Setting up conv7_2_mbox_conf_flat
I0408 15:15:49.726425 21720 net.cpp:157] Top shape: 16 3150 (50400)
I0408 15:15:49.726430 21720 net.cpp:165] Memory required for data: 4539894496
I0408 15:15:49.726460 21720 layer_factory.hpp:77] Creating layer conv7_2_mbox_priorbox
I0408 15:15:49.726475 21720 net.cpp:100] Creating Layer conv7_2_mbox_priorbox
I0408 15:15:49.726481 21720 net.cpp:434] conv7_2_mbox_priorbox <- conv7_2_conv7_2_relu_0_split_3
I0408 15:15:49.726490 21720 net.cpp:434] conv7_2_mbox_priorbox <- data_data_0_split_4
I0408 15:15:49.726505 21720 net.cpp:408] conv7_2_mbox_priorbox -> conv7_2_mbox_priorbox
I0408 15:15:49.726563 21720 net.cpp:150] Setting up conv7_2_mbox_priorbox
I0408 15:15:49.726574 21720 net.cpp:157] Top shape: 1 2 600 (1200)
I0408 15:15:49.726579 21720 net.cpp:165] Memory required for data: 4539899296
I0408 15:15:49.726585 21720 layer_factory.hpp:77] Creating layer conv8_2_mbox_loc
I0408 15:15:49.726610 21720 net.cpp:100] Creating Layer conv8_2_mbox_loc
I0408 15:15:49.726619 21720 net.cpp:434] conv8_2_mbox_loc <- conv8_2_conv8_2_relu_0_split_1
I0408 15:15:49.726629 21720 net.cpp:408] conv8_2_mbox_loc -> conv8_2_mbox_loc
I0408 15:15:49.731876 21720 net.cpp:150] Setting up conv8_2_mbox_loc
I0408 15:15:49.731911 21720 net.cpp:157] Top shape: 16 16 3 3 (2304)
I0408 15:15:49.731919 21720 net.cpp:165] Memory required for data: 4539908512
I0408 15:15:49.731933 21720 layer_factory.hpp:77] Creating layer conv8_2_mbox_loc_perm
I0408 15:15:49.731950 21720 net.cpp:100] Creating Layer conv8_2_mbox_loc_perm
I0408 15:15:49.731990 21720 net.cpp:434] conv8_2_mbox_loc_perm <- conv8_2_mbox_loc
I0408 15:15:49.732005 21720 net.cpp:408] conv8_2_mbox_loc_perm -> conv8_2_mbox_loc_perm
I0408 15:15:49.732218 21720 net.cpp:150] Setting up conv8_2_mbox_loc_perm
I0408 15:15:49.732235 21720 net.cpp:157] Top shape: 16 3 3 16 (2304)
I0408 15:15:49.732241 21720 net.cpp:165] Memory required for data: 4539917728
I0408 15:15:49.732269 21720 layer_factory.hpp:77] Creating layer conv8_2_mbox_loc_flat
I0408 15:15:49.732280 21720 net.cpp:100] Creating Layer conv8_2_mbox_loc_flat
I0408 15:15:49.732287 21720 net.cpp:434] conv8_2_mbox_loc_flat <- conv8_2_mbox_loc_perm
I0408 15:15:49.732300 21720 net.cpp:408] conv8_2_mbox_loc_flat -> conv8_2_mbox_loc_flat
I0408 15:15:49.732344 21720 net.cpp:150] Setting up conv8_2_mbox_loc_flat
I0408 15:15:49.732358 21720 net.cpp:157] Top shape: 16 144 (2304)
I0408 15:15:49.732364 21720 net.cpp:165] Memory required for data: 4539926944
I0408 15:15:49.732369 21720 layer_factory.hpp:77] Creating layer conv8_2_mbox_conf
I0408 15:15:49.732388 21720 net.cpp:100] Creating Layer conv8_2_mbox_conf
I0408 15:15:49.732398 21720 net.cpp:434] conv8_2_mbox_conf <- conv8_2_conv8_2_relu_0_split_2
I0408 15:15:49.732415 21720 net.cpp:408] conv8_2_mbox_conf -> conv8_2_mbox_conf
I0408 15:15:49.740216 21720 net.cpp:150] Setting up conv8_2_mbox_conf
I0408 15:15:49.740257 21720 net.cpp:157] Top shape: 16 84 3 3 (12096)
I0408 15:15:49.740262 21720 net.cpp:165] Memory required for data: 4539975328
I0408 15:15:49.740283 21720 layer_factory.hpp:77] Creating layer conv8_2_mbox_conf_perm
I0408 15:15:49.740303 21720 net.cpp:100] Creating Layer conv8_2_mbox_conf_perm
I0408 15:15:49.740314 21720 net.cpp:434] conv8_2_mbox_conf_perm <- conv8_2_mbox_conf
I0408 15:15:49.740329 21720 net.cpp:408] conv8_2_mbox_conf_perm -> conv8_2_mbox_conf_perm
I0408 15:15:49.740545 21720 net.cpp:150] Setting up conv8_2_mbox_conf_perm
I0408 15:15:49.740557 21720 net.cpp:157] Top shape: 16 3 3 84 (12096)
I0408 15:15:49.740562 21720 net.cpp:165] Memory required for data: 4540023712
I0408 15:15:49.740594 21720 layer_factory.hpp:77] Creating layer conv8_2_mbox_conf_flat
I0408 15:15:49.740608 21720 net.cpp:100] Creating Layer conv8_2_mbox_conf_flat
I0408 15:15:49.740617 21720 net.cpp:434] conv8_2_mbox_conf_flat <- conv8_2_mbox_conf_perm
I0408 15:15:49.740625 21720 net.cpp:408] conv8_2_mbox_conf_flat -> conv8_2_mbox_conf_flat
I0408 15:15:49.740674 21720 net.cpp:150] Setting up conv8_2_mbox_conf_flat
I0408 15:15:49.740686 21720 net.cpp:157] Top shape: 16 756 (12096)
I0408 15:15:49.740691 21720 net.cpp:165] Memory required for data: 4540072096
I0408 15:15:49.740696 21720 layer_factory.hpp:77] Creating layer conv8_2_mbox_priorbox
I0408 15:15:49.740710 21720 net.cpp:100] Creating Layer conv8_2_mbox_priorbox
I0408 15:15:49.740717 21720 net.cpp:434] conv8_2_mbox_priorbox <- conv8_2_conv8_2_relu_0_split_3
I0408 15:15:49.740725 21720 net.cpp:434] conv8_2_mbox_priorbox <- data_data_0_split_5
I0408 15:15:49.740734 21720 net.cpp:408] conv8_2_mbox_priorbox -> conv8_2_mbox_priorbox
I0408 15:15:49.740789 21720 net.cpp:150] Setting up conv8_2_mbox_priorbox
I0408 15:15:49.740802 21720 net.cpp:157] Top shape: 1 2 144 (288)
I0408 15:15:49.740805 21720 net.cpp:165] Memory required for data: 4540073248
I0408 15:15:49.740810 21720 layer_factory.hpp:77] Creating layer conv9_2_mbox_loc
I0408 15:15:49.740833 21720 net.cpp:100] Creating Layer conv9_2_mbox_loc
I0408 15:15:49.740842 21720 net.cpp:434] conv9_2_mbox_loc <- conv9_2_conv9_2_relu_0_split_0
I0408 15:15:49.740854 21720 net.cpp:408] conv9_2_mbox_loc -> conv9_2_mbox_loc
I0408 15:15:49.744094 21720 net.cpp:150] Setting up conv9_2_mbox_loc
I0408 15:15:49.744135 21720 net.cpp:157] Top shape: 16 16 1 1 (256)
I0408 15:15:49.744143 21720 net.cpp:165] Memory required for data: 4540074272
I0408 15:15:49.744161 21720 layer_factory.hpp:77] Creating layer conv9_2_mbox_loc_perm
I0408 15:15:49.744185 21720 net.cpp:100] Creating Layer conv9_2_mbox_loc_perm
I0408 15:15:49.744194 21720 net.cpp:434] conv9_2_mbox_loc_perm <- conv9_2_mbox_loc
I0408 15:15:49.744241 21720 net.cpp:408] conv9_2_mbox_loc_perm -> conv9_2_mbox_loc_perm
I0408 15:15:49.744441 21720 net.cpp:150] Setting up conv9_2_mbox_loc_perm
I0408 15:15:49.744453 21720 net.cpp:157] Top shape: 16 1 1 16 (256)
I0408 15:15:49.744458 21720 net.cpp:165] Memory required for data: 4540075296
I0408 15:15:49.744488 21720 layer_factory.hpp:77] Creating layer conv9_2_mbox_loc_flat
I0408 15:15:49.744503 21720 net.cpp:100] Creating Layer conv9_2_mbox_loc_flat
I0408 15:15:49.744509 21720 net.cpp:434] conv9_2_mbox_loc_flat <- conv9_2_mbox_loc_perm
I0408 15:15:49.744518 21720 net.cpp:408] conv9_2_mbox_loc_flat -> conv9_2_mbox_loc_flat
I0408 15:15:49.744565 21720 net.cpp:150] Setting up conv9_2_mbox_loc_flat
I0408 15:15:49.744575 21720 net.cpp:157] Top shape: 16 16 (256)
I0408 15:15:49.744580 21720 net.cpp:165] Memory required for data: 4540076320
I0408 15:15:49.744585 21720 layer_factory.hpp:77] Creating layer conv9_2_mbox_conf
I0408 15:15:49.744616 21720 net.cpp:100] Creating Layer conv9_2_mbox_conf
I0408 15:15:49.744624 21720 net.cpp:434] conv9_2_mbox_conf <- conv9_2_conv9_2_relu_0_split_1
I0408 15:15:49.744637 21720 net.cpp:408] conv9_2_mbox_conf -> conv9_2_mbox_conf
I0408 15:15:49.749491 21720 net.cpp:150] Setting up conv9_2_mbox_conf
I0408 15:15:49.749537 21720 net.cpp:157] Top shape: 16 84 1 1 (1344)
I0408 15:15:49.749543 21720 net.cpp:165] Memory required for data: 4540081696
I0408 15:15:49.749563 21720 layer_factory.hpp:77] Creating layer conv9_2_mbox_conf_perm
I0408 15:15:49.749588 21720 net.cpp:100] Creating Layer conv9_2_mbox_conf_perm
I0408 15:15:49.749600 21720 net.cpp:434] conv9_2_mbox_conf_perm <- conv9_2_mbox_conf
I0408 15:15:49.749614 21720 net.cpp:408] conv9_2_mbox_conf_perm -> conv9_2_mbox_conf_perm
I0408 15:15:49.749825 21720 net.cpp:150] Setting up conv9_2_mbox_conf_perm
I0408 15:15:49.749836 21720 net.cpp:157] Top shape: 16 1 1 84 (1344)
I0408 15:15:49.749841 21720 net.cpp:165] Memory required for data: 4540087072
I0408 15:15:49.749846 21720 layer_factory.hpp:77] Creating layer conv9_2_mbox_conf_flat
I0408 15:15:49.749857 21720 net.cpp:100] Creating Layer conv9_2_mbox_conf_flat
I0408 15:15:49.749863 21720 net.cpp:434] conv9_2_mbox_conf_flat <- conv9_2_mbox_conf_perm
I0408 15:15:49.749874 21720 net.cpp:408] conv9_2_mbox_conf_flat -> conv9_2_mbox_conf_flat
I0408 15:15:49.749918 21720 net.cpp:150] Setting up conv9_2_mbox_conf_flat
I0408 15:15:49.749928 21720 net.cpp:157] Top shape: 16 84 (1344)
I0408 15:15:49.749933 21720 net.cpp:165] Memory required for data: 4540092448
I0408 15:15:49.749938 21720 layer_factory.hpp:77] Creating layer conv9_2_mbox_priorbox
I0408 15:15:49.749972 21720 net.cpp:100] Creating Layer conv9_2_mbox_priorbox
I0408 15:15:49.749980 21720 net.cpp:434] conv9_2_mbox_priorbox <- conv9_2_conv9_2_relu_0_split_2
I0408 15:15:49.749991 21720 net.cpp:434] conv9_2_mbox_priorbox <- data_data_0_split_6
I0408 15:15:49.750001 21720 net.cpp:408] conv9_2_mbox_priorbox -> conv9_2_mbox_priorbox
I0408 15:15:49.750056 21720 net.cpp:150] Setting up conv9_2_mbox_priorbox
I0408 15:15:49.750068 21720 net.cpp:157] Top shape: 1 2 16 (32)
I0408 15:15:49.750072 21720 net.cpp:165] Memory required for data: 4540092576
I0408 15:15:49.750078 21720 layer_factory.hpp:77] Creating layer mbox_loc
I0408 15:15:49.750088 21720 net.cpp:100] Creating Layer mbox_loc
I0408 15:15:49.750095 21720 net.cpp:434] mbox_loc <- conc1_norm_mbox_loc_flat
I0408 15:15:49.750105 21720 net.cpp:434] mbox_loc <- fc7_mbox_loc_flat
I0408 15:15:49.750115 21720 net.cpp:434] mbox_loc <- conv6_2_mbox_loc_flat
I0408 15:15:49.750123 21720 net.cpp:434] mbox_loc <- conv7_2_mbox_loc_flat
I0408 15:15:49.750129 21720 net.cpp:434] mbox_loc <- conv8_2_mbox_loc_flat
I0408 15:15:49.750135 21720 net.cpp:434] mbox_loc <- conv9_2_mbox_loc_flat
I0408 15:15:49.750145 21720 net.cpp:408] mbox_loc -> mbox_loc
I0408 15:15:49.750193 21720 net.cpp:150] Setting up mbox_loc
I0408 15:15:49.750205 21720 net.cpp:157] Top shape: 16 34928 (558848)
I0408 15:15:49.750210 21720 net.cpp:165] Memory required for data: 4542327968
I0408 15:15:49.750214 21720 layer_factory.hpp:77] Creating layer mbox_conf
I0408 15:15:49.750252 21720 net.cpp:100] Creating Layer mbox_conf
I0408 15:15:49.750258 21720 net.cpp:434] mbox_conf <- conc1_norm_mbox_conf_flat
I0408 15:15:49.750267 21720 net.cpp:434] mbox_conf <- fc7_mbox_conf_flat
I0408 15:15:49.750274 21720 net.cpp:434] mbox_conf <- conv6_2_mbox_conf_flat
I0408 15:15:49.750282 21720 net.cpp:434] mbox_conf <- conv7_2_mbox_conf_flat
I0408 15:15:49.750288 21720 net.cpp:434] mbox_conf <- conv8_2_mbox_conf_flat
I0408 15:15:49.750293 21720 net.cpp:434] mbox_conf <- conv9_2_mbox_conf_flat
I0408 15:15:49.750305 21720 net.cpp:408] mbox_conf -> mbox_conf
I0408 15:15:49.750345 21720 net.cpp:150] Setting up mbox_conf
I0408 15:15:49.750355 21720 net.cpp:157] Top shape: 16 183372 (2933952)
I0408 15:15:49.750360 21720 net.cpp:165] Memory required for data: 4554063776
I0408 15:15:49.750366 21720 layer_factory.hpp:77] Creating layer mbox_priorbox
I0408 15:15:49.750375 21720 net.cpp:100] Creating Layer mbox_priorbox
I0408 15:15:49.750380 21720 net.cpp:434] mbox_priorbox <- conc1_norm_mbox_priorbox
I0408 15:15:49.750387 21720 net.cpp:434] mbox_priorbox <- fc7_mbox_priorbox
I0408 15:15:49.750394 21720 net.cpp:434] mbox_priorbox <- conv6_2_mbox_priorbox
I0408 15:15:49.750401 21720 net.cpp:434] mbox_priorbox <- conv7_2_mbox_priorbox
I0408 15:15:49.750407 21720 net.cpp:434] mbox_priorbox <- conv8_2_mbox_priorbox
I0408 15:15:49.750413 21720 net.cpp:434] mbox_priorbox <- conv9_2_mbox_priorbox
I0408 15:15:49.750424 21720 net.cpp:408] mbox_priorbox -> mbox_priorbox
I0408 15:15:49.750461 21720 net.cpp:150] Setting up mbox_priorbox
I0408 15:15:49.750475 21720 net.cpp:157] Top shape: 1 2 34928 (69856)
I0408 15:15:49.750480 21720 net.cpp:165] Memory required for data: 4554343200
I0408 15:15:49.750486 21720 layer_factory.hpp:77] Creating layer mbox_loss
I0408 15:15:49.750502 21720 net.cpp:100] Creating Layer mbox_loss
I0408 15:15:49.750509 21720 net.cpp:434] mbox_loss <- mbox_loc
I0408 15:15:49.750516 21720 net.cpp:434] mbox_loss <- mbox_conf
I0408 15:15:49.750524 21720 net.cpp:434] mbox_loss <- mbox_priorbox
…
state {
  phase: TEST
}
layer {
  name: "data"
  type: "AnnotatedData"
  top: "data"
  top: "label"
  include {
    phase: TEST
  }
  transform_param {
    mean_value: 104
    mean_value: 117
    mean_value: 123
    resize_param {
      prob: 1
      resize_mode: WARP
      height: 300
      width: 300
      interp_mode: LINEAR
    }
  }
  data_param {
    source: "examples/VOC0712/VOC0712_test_lmdb"
    batch_size: 4
    backend: LMDB
  }
  annotated_data_param {
    batch_sampler {
    }
    label_map_file: "data/VOC0712/labelmap_voc.prototxt"
  }
}
layer {
  name: "conv1_1"
  type: "Convolution"
  bottom: "data"
  top: "conv1_1"
  param {
    lr_mult: 1
    decay_mult: 1
  }
  param {
    lr_mult: 2
    decay_mult: 0
  }
  convolution_param {
    num_output: 64
    pad: 1
    kernel_size: 3
    weight_filler {
      type: "xavier"
    }
    bias_filler {
      type: "constant"
      value: 0
    }
  }
}
layer {
  name: "relu1_1"
  type: "ReLU"
  bottom: "conv1_1"
  top: "conv1_1"
}
layer {
  name: "conv1_2"
  type: "Convolution"
  bottom: "conv1_1"
  top: "conv1_2"
  param {
    lr_mult: 1
    decay_mult: 1
  }
  param {
    lr_mult: 2
    decay_mult: 0
  }
  convolution_param {
    num_output: 64
    pad: 1
    kernel_size: 3
    weight_filler {
      type: "xavier"
    }
    bias_filler {
      type: "constant"
      value: 0
    }
  }
}
layer {
  name: "relu1_2"
  type: "ReLU"
  bottom: "conv1_2"
  top: "conv1_2"
}
layer {
  name: "pool1"
  type: "Pooling"
  bottom: "conv1_2"
  top: "pool1"
  pooling_param {
    pool: MAX
    kernel_size: 2
    stride: 2
  }
}
layer {
  name: "conv2_1"
  type: "Convolution"
  bottom: "pool1"
  top: "conv2_1"
  param {
    lr_mult: 1
    decay_mult: 1
  }
  param {
    lr_mult: 2
    decay_mult: 0
  }
  convolution_param {
    num_output: 128
    pad: 1
    kernel_size: 3
    weight_filler {
      type: "xavier"
    }
    bias_filler {
      type: "constant"
      value: 0
    }
  }
}
layer {
  name: "relu2_1"
  type: "ReLU"
  bottom: "conv2_1"
  top: "conv2_1"
}
layer {
  name: "conv2_2"
  type: "Convolution"
  bottom: "conv2_1"
  top: "conv2_2"
  param {
    lr_mult: 1
    decay_mult: 1
  }
  param {
    lr_mult: 2
    decay_mult: 0
  }
  convolution_param {
    num_output: 128
    pad: 1
    kernel_size: 3
    weight_filler {
      type: "xavier"
    }
    bias_filler {
      type: "constant"
      value: 0
    }
  }
}
layer {
  name: "relu2_2"
  type: "ReLU"
  bottom: "conv2_2"
  top: "conv2_2"
}
layer {
  name: "pool2"
  type: "Pooling"
  bottom: "conv2_2"
  top: "pool2"
  pooling_param {
    pool: MAX
    kernel_size: 2
    stride: 2
  }
}
layer {
  name: "conv3_1"
  type: "Convolution"
  bottom: "pool2"
  top: "conv3_1"
  param {
    lr_mult: 1
    decay_mult: 1
  }
  param {
    lr_mult: 2
    decay_mult: 0
  }
  convolution_param {
    num_output: 256
    pad: 1
    kernel_size: 3
    weight_filler {
      type: "xavier"
    }
    bias_filler {
      type: "constant"
      value: 0
    }
  }
}
layer {
  name: "relu3_1"
  type: "ReLU"
  bottom: "conv3_1"
  top: "conv3_1"
}
layer {
  name: "conv3_2"
  type: "Convolution"
  bottom: "conv3_1"
  top: "conv3_2"
  param {
    lr_mult: 1
    decay_mult: 1
  }
  param {
    lr_mult: 2
    decay_mult: 0
  }
  convolution_param {
    num_output: 256
    pad: 1
    kernel_size: 3
    weight_filler {
      type: "xavier"
    }
    bias_filler {
      type: "constant"
      value: 0
    }
  }
}
layer {
  name: "relu3_2"
  type: "ReLU"
  bottom: "conv3_2"
  top: "conv3_2"
}
layer {
  name: "conv3_3"
  type: "Convolution"
  bottom: "conv3_2"
  top: "conv3_3"
  param {
    lr_mult: 1
    decay_mult: 1
  }
  param {
    lr_mult: 2
    decay_mult: 0
  }
  convolution_param {
    num_output: 256
    pad: 1
    kernel_size: 3
    weight_filler {
      type: "xavier"
    }
    bias_filler {
      type: "constant"
      value: 0
    }
  }
}
layer {
  name: "relu3_3"
  type: "ReLU"
  bottom: "conv3_3"
  top: "conv3_3"
}
layer {
  name: "pool3"
  type: "Pooling"
  bottom: "conv3_3"
  top: "pool3"
  pooling_param {
    pool: MAX
    kernel_size: 2
    stride: 2
  }
}
layer {
  name: "conv4_1"
  type: "Convolution"
  bottom: "pool3"
  top: "conv4_1"
  param {
    lr_mult: 1
    decay_mult: 1
  }
  param {
    lr_mult: 2
    decay_mult: 0
  }
  convolution_param {
    num_output: 512
    pad: 1
    kernel_size: 3
    weight_filler {
      type: "xavier"
    }
    bias_filler {
      type: "constant"
      value: 0
    }
  }
}
layer {
  name: "relu4_1"
  type: "ReLU"
  bottom: "conv4_1"
  top: "conv4_1"
}
layer {
  name: "conv4_2"
  type: "Convolution"
  bottom: "conv4_1"
  top: "conv4_2"
  param {
    lr_mult: 1
    decay_mult: 1
  }
  param {
    lr_mult: 2
    decay_mult: 0
  }
  convolution_param {
    num_output: 512
    pad: 1
    kernel_size: 3
    weight_filler {
      type: "xavier"
    }
    bias_filler {
      type: "constant"
      value: 0
    }
  }
}
layer {
  name: "relu4_2"
  type: "ReLU"
  bottom: "conv4_2"
  top: "conv4_2"
}
layer {
  name: "conv4_3"
  type: "Convolution"
  bottom: "conv4_2"
  top: "conv4_3"
  param {
    lr_mult: 1
    decay_mult: 1
  }
  param {
    lr_mult: 2
    decay_mult: 0
  }
  convolution_param {
    num_output: 512
    pad: 1
    kernel_size: 3
    weight_filler {
      type: "xavier"
    }
    bias_filler {
      type: "constant"
      value: 0
    }
  }
}
layer {
  name: "relu4_3"
  type: "ReLU"
  bottom: "conv4_3"
  top: "conv4_3"
}
layer {
  name: "pool4"
  type: "Pooling"
  bottom: "conv4_3"
  top: "pool4"
  pooling_param {
    pool: MAX
    kernel_size: 2
    stride: 2
  }
}
layer {
  name: "conv5_1"
  type: "Convolution"
  bottom: "pool4"
  top: "conv5_1"
  param {
    lr_mult: 1
    decay_mult: 1
  }
  param {
    lr_mult: 2
    decay_mult: 0
  }
  convolution_param {
    num_output: 512
    pad: 1
    kernel_size: 3
    weight_filler {
      type: "xavier"
    }
    bias_filler {
      type: "constant"
      value: 0
    }
    dilation: 1
  }
}
layer {
  name: "relu5_1"
  type: "ReLU"
  bottom: "conv5_1"
  top: "conv5_1"
}
layer {
  name: "conv5_2"
  type: "Convolution"
  bottom: "conv5_1"
  top: "conv5_2"
  param {
    lr_mult: 1
    decay_mult: 1
  }
  param {
    lr_mult: 2
    decay_mult: 0
  }
  convolution_param {
    num_output: 512
    pad: 1
    kernel_size: 3
    weight_filler {
      type: "xavier"
    }
    bias_filler {
      type: "constant"
      value: 0
    }
    dilation: 1
  }
}
layer {
  name: "relu5_2"
  type: "ReLU"
  bottom: "conv5_2"
  top: "conv5_2"
}
layer {
  name: "conv5_3"
  type: "Convolution"
  bottom: "conv5_2"
  top: "conv5_3"
  param {
    lr_mult: 1
    decay_mult: 1
  }
  param {
    lr_mult: 2
    decay_mult: 0
  }
  convolution_param {
    num_output: 512
    pad: 1
    kernel_size: 3
    weight_filler {
      type: "xavier"
    }
    bias_filler {
      type: "constant"
      value: 0
    }
    dilation: 1
  }
}
layer {
  name: "relu5_3"
  type: "ReLU"
  bottom: "conv5_3"
  top: "conv5_3"
}
layer {
  name: "pool5"
  type: "Pooling"
  bottom: "conv5_3"
  top: "pool5"
  pooling_param {
    pool: MAX
    kernel_size: 3
    stride: 1
    pad: 1
  }
}
layer {
  name: "fc6"
  type: "Convolution"
  bottom: "pool5"
  top: "fc6"
  param {
    lr_mult: 1
    decay_mult: 1
  }
  param {
    lr_mult: 2
    decay_mult: 0
  }
  convolution_param {
    num_output: 1024
    pad: 6
    kernel_size: 3
    weight_filler {
      type: "xavier"
    }
    bias_filler {
      type: "constant"
      value: 0
    }
    dilation: 6
  }
}
layer {
  name: "relu6"
  type: "ReLU"
  bottom: "fc6"
  top: "fc6"
}
layer {
  name: "fc7"
  type: "Convolution"
  bottom: "fc6"
  top: "fc7"
  param {
    lr_mult: 1
    decay_mult: 1
  }
  param {
    lr_mult: 2
    decay_mult: 0
  }
  convolution_param {
    num_output: 1024
    kernel_size: 1
    weight_filler {
      type: "xavier"
    }
    bias_filler {
      type: "constant"
      value: 0
    }
  }
}
layer {
  name: "relu7"
  type: "ReLU"
  bottom: "fc7"
  top: "fc7"
}
layer {
  name: "conv6_1"
  type: "Convolution"
  bottom: "fc7"
  top: "conv6_1"
  param {
    lr_mult: 1
    decay_mult: 1
  }
  param {
    lr_mult: 2
    decay_mult: 0
  }
  convolution_param {
    num_output: 256
    pad: 0
    kernel_size: 1
    stride: 1
    weight_filler {
      type: "xavier"
    }
    bias_filler {
      type: "constant"
      value: 0
    }
  }
}
layer {
  name: "conv6_1_relu"
  type: "ReLU"
  bottom: "conv6_1"
  top: "conv6_1"
}
layer {
  name: "conv6_2"
  type: "Convolution"
  bottom: "conv6_1"
  top: "conv6_2"
  param {
    lr_mult: 1
    decay_mult: 1
  }
  param {
    lr_mult: 2
    decay_mult: 0
  }
  convolution_param {
    num_output: 512
    pad: 1
    kernel_size: 3
    stride: 2
    weight_filler {
      type: "xavier"
    }
    bias_filler {
      type: "constant"
      value: 0
    }
  }
}
layer {
  name: "conv6_2_relu"
  type: "ReLU"
  bottom: "conv6_2"
  top: "conv6_2"
}
layer {
  name: "conv7_1"
  type: "Convolution"
  bottom: "conv6_2"
  top: "conv7_1"
  param {
    lr_mult: 1
    decay_mult: 1
  }
  param {
    lr_mult: 2
    decay_mult: 0
  }
  convolution_param {
    num_output: 128
    pad: 0
    kernel_size: 1
    stride: 1
    weight_filler {
      type: "xavier"
    }
    bias_filler {
      type: "constant"
      value: 0
    }
  }
}
layer {
  name: "conv7_1_relu"
  type: "ReLU"
  bottom: "conv7_1"
  top: "conv7_1"
}
layer {
  name: "conv7_2"
  type: "Convolution"
  bottom: "conv7_1"
  top: "conv7_2"
  param {
    lr_mult: 1
    decay_mult: 1
  }
  param {
    lr_mult: 2
    decay_mult: 0
  }
  convolution_param {
    num_output: 256
    pad: 1
    kernel_size: 3
    stride: 2
    weight_filler {
      type: "xavier"
    }
    bias_filler {
      type: "constant"
      value: 0
    }
  }
}
layer {
  name: "conv7_2_relu"
  type: "ReLU"
  bottom: "conv7_2"
  top: "conv7_2"
}
layer {
  name: "conv8_1"
  type: "Convolution"
  bottom: "conv7_2"
  top: "conv8_1"
  param {
    lr_mult: 1
    decay_mult: 1
  }
  param {
    lr_mult: 2
    decay_mult: 0
  }
  convolution_param {
    num_output: 128
    pad: 0
    kernel_size: 1
    stride: 1
    weight_filler {
      type: "xavier"
    }
    bias_filler {
      type: "constant"
      value: 0
    }
  }
}
layer {
  name: "conv8_1_relu"
  type: "ReLU"
  bottom: "conv8_1"
  top: "conv8_1"
}
layer {
  name: "conv8_2"
  type: "Convolution"
  bottom: "conv8_1"
  top: "conv8_2"
  param {
    lr_mult: 1
    decay_mult: 1
  }
  param {
    lr_mult: 2
    decay_mult: 0
  }
  convolution_param {
    num_output: 256
    pad: 0
    kernel_size: 3
    stride: 1
    weight_filler {
      type: "xavier"
    }
    bias_filler {
      type: "constant"
      value: 0
    }
  }
}
layer {
  name: "conv8_2_relu"
  type: "ReLU"
  bottom: "conv8_2"
  top: "conv8_2"
}
layer {
  name: "conv9_1"
  type: "Convolution"
  bottom: "conv8_2"
  top: "conv9_1"
  param {
    lr_mult: 1
    decay_mult: 1
  }
  param {
    lr_mult: 2
    decay_mult: 0
  }
  convolution_param {
    num_output: 128
    pad: 0
    kernel_size: 1
    stride: 1
    weight_filler {
      type: "xavier"
    }
    bias_filler {
      type: "constant"
      value: 0
    }
  }
}
layer {
  name: "conv9_1_relu"
  type: "ReLU"
  bottom: "conv9_1"
  top: "conv9_1"
}
layer {
  name: "conv9_2"
  type: "Convolution"
  bottom: "conv9_1"
  top: "conv9_2"
  param {
    lr_mult: 1
    decay_mult: 1
  }
  param {
    lr_mult: 2
    decay_mult: 0
  }
  convolution_param {
    num_output: 256
    pad: 0
    kernel_size: 3
    stride: 1
    weight_filler {
      type: "xavier"
    }
    bias_filler {
      type: "constant"
      value: 0
    }
  }
}
layer {
  name: "conv9_2_relu"
  type: "ReLU"
  bottom: "conv9_2"
  top: "conv9_2"
}
layer {
  name: "Deconvolution1"
  type: "Deconvolution"
  bottom: "conv5_3"
  top: "Deconvolution1"
  convolution_param {
    num_output: 512
    pad: 0
    kernel_size: 2
    stride: 2
    weight_filler {
      type: "bilinear"
    }
  }
}
layer {
  name: "Convolution1"
  type: "Convolution"
  bottom: "Deconvolution1"
  top: "Convolution1"
  convolution_param {
    num_output: 512
    pad: 1
    kernel_size: 3
    stride: 1
  }
}
layer {
  name: "BatchNorm1"
  type: "BatchNorm"
  bottom: "Convolution1"
  top: "Convolution1"
}
layer {
  name: "up_conv5_3"
  type: "ReLU"
  bottom: "Convolution1"
  top: "Convolution1"
}
layer {
  name: "Convolution2"
  type: "Convolution"
  bottom: "conv4_3"
  top: "Convolution2"
  convolution_param {
    num_output: 512
    pad: 1
    kernel_size: 3
    stride: 1
  }
}
layer {
  name: "BatchNorm2"
  type: "BatchNorm"
  bottom: "Convolution2"
  top: "Convolution2"
}
layer {
  name: "conv4_3_conv"
  type: "ReLU"
  bottom: "Convolution2"
  top: "Convolution2"
}
layer {
  name: "Concat1"
  type: "Concat"
  bottom: "Convolution1"
  bottom: "Convolution2"
  top: "Concat1"
}
layer {
  name: "Convolution3"
  type: "Convolution"
  bottom: "Concat1"
  top: "Convolution3"
  convolution_param {
    num_output: 512
    kernel_size: 1
    stride: 1
  }
}
layer {
  name: "conc1"
  type: "ReLU"
  bottom: "Convolution3"
  top: "Convolution3"
}
layer {
  name: "conc1_norm"
  type: "Normalize"
  bottom: "Convolution3"
  top: "conc1_norm"
  norm_param {
    across_spatial: false
    scale_filler {
      type: "constant"
      value: 20
    }
    channel_shared: false
  }
}
layer {
  name: "conc1_norm_mbox_loc"
  type: "Convolution"
  bottom: "conc1_norm"
  top: "conc1_norm_mbox_loc"
  param {
    lr_mult: 1
    decay_mult: 1
  }
  param {
    lr_mult: 2
    decay_mult: 0
  }
  convolution_param {
    num_output: 16
    pad: 1
    kernel_size: 3
    stride: 1
    weight_filler {
      type: "xavier"
    }
    bias_filler {
      type: "constant"
      value: 0
    }
  }
}
layer {
  name: "conc1_norm_mbox_loc_perm"
  type: "Permute"
  bottom: "conc1_norm_mbox_loc"
  top: "conc1_norm_mbox_loc_perm"
  permute_param {
    order: 0
    order: 2
    order: 3
    order: 1
  }
}
layer {
  name: "conc1_norm_mbox_loc_flat"
  type: "Flatten"
  bottom: "conc1_norm_mbox_loc_perm"
  top: "conc1_norm_mbox_loc_flat"
  flatten_param {
    axis: 1
  }
}
layer {
  name: "conc1_norm_mbox_conf"
  type: "Convolution"
  bottom: "conc1_norm"
  top: "conc1_norm_mbox_conf"
  param {
    lr_mult: 1
    decay_mult: 1
  }
  param {
    lr_mult: 2
    decay_mult: 0
  }
  convolution_param {
    num_output: 84
    pad: 1
    kernel_size: 3
    stride: 1
    weight_filler {
      type: "xavier"
    }
    bias_filler {
      type: "constant"
      value: 0
    }
  }
}
layer {
  name: "conc1_norm_mbox_conf_perm"
  type: "Permute"
  bottom: "conc1_norm_mbox_conf"
  top: "conc1_norm_mbox_conf_perm"
  permute_param {
    order: 0
    order: 2
    order: 3
    order: 1
  }
}
layer {
  name: "conc1_norm_mbox_conf_flat"
  type: "Flatten"
  bottom: "conc1_norm_mbox_conf_perm"
  top: "conc1_norm_mbox_conf_flat"
  flatten_param {
    axis: 1
  }
}
layer {
  name: "conc1_norm_mbox_priorbox"
  type: "PriorBox"
  bottom: "conc1_norm"
  bottom: "data"
  top: "conc1_norm_mbox_priorbox"
  prior_box_param {
    min_size: 30
    max_size: 60
    aspect_ratio: 2
    flip: true
    clip: false
    variance: 0.1
    variance: 0.1
    variance: 0.2
    variance: 0.2
    step: 8
    offset: 0.5
  }
}
layer {
  name: "fc7_mbox_loc"
  type: "Convolution"
  bottom: "fc7"
  top: "fc7_mbox_loc"
  param {
    lr_mult: 1
    decay_mult: 1
  }
  param {
    lr_mult: 2
    decay_mult: 0
  }
  convolution_param {
    num_output: 24
    pad: 1
    kernel_size: 3
    stride: 1
    weight_filler {
      type: "xavier"
    }
    bias_filler {
      type: "constant"
      value: 0
    }
  }
}
layer {
  name: "fc7_mbox_loc_perm"
  type: "Permute"
  bottom: "fc7_mbox_loc"
  top: "fc7_mbox_loc_perm"
  permute_param {
    order: 0
    order: 2
    order: 3
    order: 1
  }
}
layer {
  name: "fc7_mbox_loc_flat"
  type: "Flatten"
  bottom: "fc7_mbox_loc_perm"
  top: "fc7_mbox_loc_flat"
  flatten_param {
    axis: 1
  }
}
layer {
  name: "fc7_mbox_conf"
  type: "Convolution"
  bottom: "fc7"
  top: "fc7_mbox_conf"
  param {
    lr_mult: 1
    decay_mult: 1
  }
  param {
    lr_mult: 2
    decay_mult: 0
  }
  convolution_param {
    num_output: 126
    pad: 1
    kernel_size: 3
    stride: 1
    weight_filler {
      type: "xavier"
    }
    bias_filler {
      type: "constant"
      value: 0
    }
  }
}
layer {
  name: "fc7_mbox_conf_perm"
  type: "Permute"
  bottom: "fc7_mbox_conf"
  top: "fc7_mbox_conf_perm"
  permute_param {
    order: 0
    order: 2
    order: 3
    order: 1
  }
}
layer {
  name: "fc7_mbox_conf_flat"
  type: "Flatten"
  bottom: "fc7_mbox_conf_perm"
  top: "fc7_mbox_conf_flat"
  flatten_param {
    axis: 1
  }
}
layer {
  name: "fc7_mbox_priorbox"
  type: "PriorBox"
  bottom: "fc7"
  bottom: "data"
  top: "fc7_mbox_priorbox"
  prior_box_param {
    min_size: 60
    max_size: 111
    aspect_ratio: 2
    aspect_ratio: 3
    flip: true
    clip: false
    variance: 0.1
    variance: 0.1
    variance: 0.2
    variance: 0.2
    step: 16
    offset: 0.5
  }
}
layer {
  name: "conv6_2_mbox_loc"
  type: "Convolution"
  bottom: "conv6_2"
  top: "conv6_2_mbox_loc"
  param {
    lr_mult: 1
    decay_mult: 1
  }
  param {
    lr_mult: 2
    decay_mult: 0
  }
  convolution_param {
    num_output: 24
    pad: 1
    kernel_size: 3
    stride: 1
    weight_filler {
      type: "xavier"
    }
    bias_filler {
      type: "constant"
      value: 0
    }
  }
}
layer {
  name: "conv6_2_mbox_loc_perm"
  type: "Permute"
  bottom: "conv6_2_mbox_loc"
  top: "conv6_2_mbox_loc_perm"
  permute_param {
    order: 0
    order: 2
    order: 3
    order: 1
  }
}
layer {
  name: "conv6_2_mbox_loc_flat"
  type: "Flatten"
  bottom: "conv6_2_mbox_loc_perm"
  top: "conv6_2_mbox_loc_flat"
  flatten_param {
    axis: 1
  }
}
layer {
  name: "conv6_2_mbox_conf"
  type: "Convolution"
  bottom: "conv6_2"
  top: "conv6_2_mbox_conf"
  param {
    lr_mult: 1
    decay_mult: 1
  }
  param {
    lr_mult: 2
    decay_mult: 0
  }
  convolution_param {
    num_output: 126
    pad: 1
    kernel_size: 3
    stride: 1
    weight_filler {
      type: "xavier"
    }
    bias_filler {
      type: "constant"
      value: 0
    }
  }
}
layer {
  name: "conv6_2_mbox_conf_perm"
  type: "Permute"
  bottom: "conv6_2_mbox_conf"
  top: "conv6_2_mbox_conf_perm"
  permute_param {
    order: 0
    order: 2
    order: 3
    order: 1
  }
}
layer {
  name: "conv6_2_mbox_conf_flat"
  type: "Flatten"
  bottom: "conv6_2_mbox_conf_perm"
  top: "conv6_2_mbox_conf_flat"
  flatten_param {
    axis: 1
  }
}
layer {
  name: "conv6_2_mbox_priorbox"
  type: "PriorBox"
  bottom: "conv6_2"
  bottom: "data"
  top: "conv6_2_mbox_priorbox"
  prior_box_param {
    min_size: 111
    max_size: 162
    aspect_ratio: 2
    aspect_ratio: 3
    flip: true
    clip: false
    variance: 0.1
    variance: 0.1
    variance: 0.2
    variance: 0.2
    step: 32
    offset: 0.5
  }
}
layer {
  name: "conv7_2_mbox_loc"
  type: "Convolution"
  bottom: "conv7_2"
  top: "conv7_2_mbox_loc"
  param {
    lr_mult: 1
    decay_mult: 1
  }
  param {
    lr_mult: 2
    decay_mult: 0
  }
  convolution_param {
    num_output: 24
    pad: 1
    kernel_size: 3
    stride: 1
    weight_filler {
      type: "xavier"
    }
    bias_filler {
      type: "constant"
      value: 0
    }
  }
}
layer {
  name: "conv7_2_mbox_loc_perm"
  type: "Permute"
  bottom: "conv7_2_mbox_loc"
  top: "conv7_2_mbox_loc_perm"
  permute_param {
    order: 0
    order: 2
    order: 3
    order: 1
  }
}
layer {
  name: "conv7_2_mbox_loc_flat"
  type: "Flatten"
  bottom: "conv7_2_mbox_loc_perm"
  top: "conv7_2_mbox_loc_flat"
  flatten_param {
    axis: 1
  }
}
layer {
  name: "conv7_2_mbox_conf"
  type: "Convolution"
  bottom: "conv7_2"
  top: "conv7_2_mbox_conf"
  param {
    lr_mult: 1
    decay_mult: 1
  }
  param {
    lr_mult: 2
    decay_mult: 0
  }
  convolution_param {
    num_output: 126
    pad: 1
    kernel_size: 3
    stride: 1
    weight_filler {
      type: "xavier"
    }
    bias_filler {
      type: "constant"
      value: 0
    }
  }
}
layer {
  name: "conv7_2_mbox_conf_perm"
  type: "Permute"
  bottom: "conv7_2_mbox_conf"
  top: "conv7_2_mbox_conf_perm"
  permute_param {
    order: 0
    order: 2
    order: 3
    order: 1
  }
}
layer {
  name: "conv7_2_mbox_conf_flat"
  type: "Flatten"
  bottom: "conv7_2_mbox_conf_perm"
  top: "conv7_2_mbox_conf_flat"
  flatten_param {
    axis: 1
  }
}
layer {
  name: "conv7_2_mbox_priorbox"
  type: "PriorBox"
  bottom: "conv7_2"
  bottom: "data"
  top: "conv7_2_mbox_priorbox"
  prior_box_param {
    min_size: 162
    max_size: 213
    aspect_ratio: 2
    aspect_ratio: 3
    flip: true
    clip: false
    variance: 0.1
    variance: 0.1
    variance: 0.2
    variance: 0.2
    step: 64
    offset: 0.5
  }
}
layer {
  name: "conv8_2_mbox_loc"
  type: "Convolution"
  bottom: "conv8_2"
  top: "conv8_2_mbox_loc"
  param {
    lr_mult: 1
    decay_mult: 1
  }
  param {
    lr_mult: 2
    decay_mult: 0
  }
  convolution_param {
    num_output: 16
    pad: 1
    kernel_size: 3
    stride: 1
    weight_filler {
      type: "xavier"
    }
    bias_filler {
      type: "constant"
      value: 0
    }
  }
}
layer {
  name: "conv8_2_mbox_loc_perm"
  type: "Permute"
  bottom: "conv8_2_mbox_loc"
  top: "conv8_2_mbox_loc_perm"
  permute_param {
    order: 0
    order: 2
    order: 3
    order: 1
  }
}
layer {
  name: "conv8_2_mbox_loc_flat"
  type: "Flatten"
  bottom: "conv8_2_mbox_loc_perm"
  top: "conv8_2_mbox_loc_flat"
  flatten_param {
    axis: 1
  }
}
layer {
  name: "conv8_2_mbox_conf"
  type: "Convolution"
  bottom: "conv8_2"
  top: "conv8_2_mbox_conf"
  param {
    lr_mult: 1
    decay_mult: 1
  }
  param {
    lr_mult: 2
    decay_mult: 0
  }
  convolution_param {
    num_output: 84
    pad: 1
    kernel_size: 3
    stride: 1
    weight_filler {
      type: "xavier"
    }
    bias_filler {
      type: "constant"
      value: 0
    }
  }
}
layer {
  name: "conv8_2_mbox_conf_perm"
  type: "Permute"
  bottom: "conv8_2_mbox_conf"
  top: "conv8_2_mbox_conf_perm"
  permute_param {
    order: 0
    order: 2
    order: 3
    order: 1
  }
}
layer {
  name: "conv8_2_mbox_conf_flat"
  type: "Flatten"
  bottom: "conv8_2_mbox_conf_perm"
  top: "conv8_2_mbox_conf_flat"
  flatten_param {
    axis: 1
  }
}
layer {
  name: "conv8_2_mbox_priorbox"
  type: "PriorBox"
  bottom: "conv8_2"
  bottom: "data"
  top: "conv8_2_mbox_priorbox"
  prior_box_param {
    min_size: 213
    max_size: 264
    aspect_ratio: 2
    flip: true
    clip: false
    variance: 0.1
    variance: 0.1
    variance: 0.2
    variance: 0.2
    step: 100
    offset: 0.5
  }
}
layer {
  name: "conv9_2_mbox_loc"
  type: "Convolution"
  bottom: "conv9_2"
  top: "conv9_2_mbox_loc"
  param {
    lr_mult: 1
    decay_mult: 1
  }
  param {
    lr_mult: 2
    decay_mult: 0
  }
  convolution_param {
    num_output: 16
    pad: 1
    kernel_size: 3
    stride: 1
    weight_filler {
      type: "xavier"
    }
    bias_filler {
      type: "constant"
      value: 0
    }
  }
}
layer {
  name: "conv9_2_mbox_loc_perm"
  type: "Permute"
  bottom: "conv9_2_mbox_loc"
  top: "conv9_2_mbox_loc_perm"
  permute_param {
    order: 0
    order: 2
    order: 3
    order: 1
  }
}
layer {
  name: "conv9_2_mbox_loc_flat"
  type: "Flatten"
  bottom: "conv9_2_mbox_loc_perm"
  top: "conv9_2_mbox_loc_flat"
  flatten_param {
    axis: 1
  }
}
layer {
  name: "conv9_2_mbox_conf"
  type: "Convolution"
  bottom: "conv9_2"
  top: "conv9_2_mbox_conf"
  param {
    lr_mult: 1
    decay_mult: 1
  }
  param {
    lr_mult: 2
    decay_mult: 0
  }
  convolution_param {
    num_output: 84
    pad: 1
    kernel_size: 3
    stride: 1
    weight_filler {
      type: "xavier"
    }
    bias_filler {
      type: "constant"
      value: 0
    }
  }
}
layer {
  name: "conv9_2_mbox_conf_perm"
  type: "Permute"
  bottom: "conv9_2_mbox_conf"
  top: "conv9_2_mbox_conf_perm"
  permute_param {
    order: 0
    order: 2
    order: 3
    order: 1
  }
}
layer {
  name: "conv9_2_mbox_conf_flat"
  type: "Flatten"
  bottom: "conv9_2_mbox_conf_perm"
  top: "conv9_2_mbox_conf_flat"
  flatten_param {
    axis: 1
  }
}
layer {
  name: "conv9_2_mbox_priorbox"
  type: "PriorBox"
  bottom: "conv9_2"
  bottom: "data"
  top: "conv9_2_mbox_priorbox"
  prior_box_param {
    min_size: 264
    max_size: 315
    aspect_ratio: 2
    flip: true
    clip: false
    variance: 0.1
    variance: 0.1
    variance: 0.2
    variance: 0.2
    step: 300
    offset: 0.5
  }
}
layer {
  name: "mbox_loc"
  type: "Concat"
  bottom: "conc1_norm_mbox_loc_flat"
  bottom: "fc7_mbox_loc_flat"
  bottom: "conv6_2_mbox_loc_flat"
  bottom: "conv7_2_mbox_loc_flat"
  bottom: "conv8_2_mbox_loc_flat"
  bottom: "conv9_2_mbox_loc_flat"
  top: "mbox_loc"
  concat_param {
    axis: 1
  }
}
layer {
  name: "mbox_conf"
  type: "Concat"
  bottom: "conc1_norm_mbox_conf_flat"
  bottom: "fc7_mbox_conf_flat"
  bottom: "conv6_2_mbox_conf_flat"
  bottom: "conv7_2_mbox_conf_flat"
  bottom: "conv8_2_mbox_conf_flat"
  bottom: "conv9_2_mbox_conf_flat"
  top: "mbox_conf"
  concat_param {
    axis: 1
  }
}
layer {
  name: "mbox_priorbox"
  type: "Concat"
  bottom: "conc1_norm_mbox_priorbox"
  bottom: "fc7_mbox_priorbox"
  bottom: "conv6_2_mbox_priorbox"
  bottom: "conv7_2_mbox_priorbox"
  bottom: "conv8_2_mbox_priorbox"
  bottom: "conv9_2_mbox_priorbox"
  top: "mbox_priorbox"
  concat_param {
    axis: 2
  }
}
layer {
  name: "mbox_conf_reshape"
  type: "Reshape"
  bottom: "mbox_conf"
  top: "mbox_conf_reshape"
  reshape_param {
    shape {
      dim: 0
      dim: -1
      dim: 21
    }
  }
}
layer {
  name: "mbox_conf_softmax"
  type: "Softmax"
  bottom: "mbox_conf_reshape"
  top: "mbox_conf_softmax"
  softmax_param {
    axis: 2
  }
}
layer {
  name: "mbox_conf_flatten"
  type: "Flatten"
  bottom: "mbox_conf_softmax"
  top: "mbox_conf_flatten"
  flatten_param {
    axis: 1
  }
}
layer {
  name: "detection_out"
  type: "DetectionOutput"
  bottom: "mbox_loc"
  bottom: "mbox_conf_flatten"
  bottom: "mbox_priorbox"
  top: "detection_out"
  include {
    phase: TEST
  }
  detection_output_param {
    num_classes: 21
    share_location: true
    background_label_id: 0
    nms_param {
      nms_threshold: 0.45
      top_k: 400
    }
    save_output_param {
      output_directory: "/home/yanzhiwei/data/VOCdevkit/results/VOC2007/SSD_up_lessparam_fusion_300x300/Main"
      output_name_prefix: "comp4_det_test_"
      output_format: "VOC"
      label_map_file: "data/VOC0712/labelmap_voc.prototxt"
      name_size_file: "data/VOC0712/test_name_size.txt"
      num_test_image: 4952
    }
    code_type: CENTER_SIZE
    keep_top_k: 200
    confidence_threshold: 0.01
  }
}
layer {
  name: "detection_eval"
  type: "DetectionEvaluate"
  bottom: "detection_out"
  bottom: "label"
  top: "detection_eval"
  include {
    phase: TEST
  }
  detection_evaluate_param {
    num_classes: 21
    background_label_id: 0
    overlap_threshold: 0.5
    evaluate_difficult_gt: false
    name_size_file: "data/VOC0712/test_name_size.txt"
  }
}
I0408 15:15:49.758292 21720 layer_factory.hpp:77] Creating layer data
I0408 15:15:49.758401 21720 net.cpp:100] Creating Layer data
I0408 15:15:49.758414 21720 net.cpp:408] data -> data
I0408 15:15:49.758430 21720 net.cpp:408] data -> label
I0408 15:15:49.760282 21764 db_lmdb.cpp:35] Opened lmdb examples/VOC0712/VOC0712_test_lmdb
I0408 15:15:49.764365 21720 annotated_data_layer.cpp:62] output data size: 4,3,300,300
I0408 15:15:49.779963 21720 net.cpp:150] Setting up data
I0408 15:15:49.780004 21720 net.cpp:157] Top shape: 4 3 300 300 (1080000)
I0408 15:15:49.780014 21720 net.cpp:157] Top shape: 1 1 2 8 (16)
I0408 15:15:49.780019 21720 net.cpp:165] Memory required for data: 4320064
I0408 15:15:49.780030 21720 layer_factory.hpp:77] Creating layer data_data_0_split
I0408 15:15:49.780052 21720 net.cpp:100] Creating Layer data_data_0_split
I0408 15:15:49.780092 21720 net.cpp:434] data_data_0_split <- data
I0408 15:15:49.780107 21720 net.cpp:408] data_data_0_split -> data_data_0_split_0
I0408 15:15:49.780125 21720 net.cpp:408] data_data_0_split -> data_data_0_split_1
I0408 15:15:49.780138 21720 net.cpp:408] data_data_0_split -> data_data_0_split_2
I0408 15:15:49.780153 21720 net.cpp:408] data_data_0_split -> data_data_0_split_3
I0408 15:15:49.780164 21720 net.cpp:408] data_data_0_split -> data_data_0_split_4
I0408 15:15:49.780174 21720 net.cpp:408] data_data_0_split -> data_data_0_split_5
I0408 15:15:49.780184 21720 net.cpp:408] data_data_0_split -> data_data_0_split_6
I0408 15:15:49.780524 21720 net.cpp:150] Setting up data_data_0_split
I0408 15:15:49.780539 21720 net.cpp:157] Top shape: 4 3 300 300 (1080000)
I0408 15:15:49.780545 21720 net.cpp:157] Top shape: 4 3 300 300 (1080000)
I0408 15:15:49.780552 21720 net.cpp:157] Top shape: 4 3 300 300 (1080000)
I0408 15:15:49.780561 21720 net.cpp:157] Top shape: 4 3 300 300 (1080000)
I0408 15:15:49.780567 21720 net.cpp:157] Top shape: 4 3 300 300 (1080000)
I0408 15:15:49.780573 21720 net.cpp:157] Top shape: 4 3 300 300 (1080000)
I0408 15:15:49.780580 21720 net.cpp:157] Top shape: 4 3 300 300 (1080000)
I0408 15:15:49.780586 21720 net.cpp:165] Memory required for data: 34560064
I0408 15:15:49.780591 21720 layer_factory.hpp:77] Creating layer conv1_1
I0408 15:15:49.780613 21720 net.cpp:100] Creating Layer conv1_1
I0408 15:15:49.780622 21720 net.cpp:434] conv1_1 <- data_data_0_split_0
I0408 15:15:49.780633 21720 net.cpp:408] conv1_1 -> conv1_1
I0408 15:15:49.783751 21720 net.cpp:150] Setting up conv1_1
I0408 15:15:49.783776 21720 net.cpp:157] Top shape: 4 64 300 300 (23040000)
I0408 15:15:49.783782 21720 net.cpp:165] Memory required for data: 126720064
I0408 15:15:49.783800 21720 layer_factory.hpp:77] Creating layer relu1_1
I0408 15:15:49.783813 21720 net.cpp:100] Creating Layer relu1_1
I0408 15:15:49.783819 21720 net.cpp:434] relu1_1 <- conv1_1
I0408 15:15:49.783828 21720 net.cpp:395] relu1_1 -> conv1_1 (in-place)
I0408 15:15:49.784111 21720 net.cpp:150] Setting up relu1_1
I0408 15:15:49.784123 21720 net.cpp:157] Top shape: 4 64 300 300 (23040000)
I0408 15:15:49.784128 21720 net.cpp:165] Memory required for data: 218880064
I0408 15:15:49.784133 21720 layer_factory.hpp:77] Creating layer conv1_2
I0408 15:15:49.784152 21720 net.cpp:100] Creating Layer conv1_2
I0408 15:15:49.784157 21720 net.cpp:434] conv1_2 <- conv1_1
I0408 15:15:49.784166 21720 net.cpp:408] conv1_2 -> conv1_2
I0408 15:15:49.787091 21720 net.cpp:150] Setting up conv1_2
I0408 15:15:49.787113 21720 net.cpp:157] Top shape: 4 64 300 300 (23040000)
I0408 15:15:49.787118 21720 net.cpp:165] Memory required for data: 311040064
I0408 15:15:49.787132 21720 layer_factory.hpp:77] Creating layer relu1_2
I0408 15:15:49.787142 21720 net.cpp:100] Creating Layer relu1_2
I0408 15:15:49.787149 21720 net.cpp:434] relu1_2 <- conv1_2
I0408 15:15:49.787158 21720 net.cpp:395] relu1_2 -> conv1_2 (in-place)
I0408 15:15:49.788090 21720 net.cpp:150] Setting up relu1_2
I0408 15:15:49.788105 21720 net.cpp:157] Top shape: 4 64 300 300 (23040000)
I0408 15:15:49.788110 21720 net.cpp:165] Memory required for data: 403200064
I0408 15:15:49.788115 21720 layer_factory.hpp:77] Creating layer pool1
I0408 15:15:49.788125 21720 net.cpp:100] Creating Layer pool1
I0408 15:15:49.788131 21720 net.cpp:434] pool1 <- conv1_2
I0408 15:15:49.788141 21720 net.cpp:408] pool1 -> pool1
I0408 15:15:49.788214 21720 net.cpp:150] Setting up pool1
I0408 15:15:49.788224 21720 net.cpp:157] Top shape: 4 64 150 150 (5760000)
I0408 15:15:49.788229 21720 net.cpp:165] Memory required for data: 426240064
I0408 15:15:49.788235 21720 layer_factory.hpp:77] Creating layer conv2_1
I0408 15:15:49.788249 21720 net.cpp:100] Creating Layer conv2_1
I0408 15:15:49.788256 21720 net.cpp:434] conv2_1 <- pool1
I0408 15:15:49.788267 21720 net.cpp:408] conv2_1 -> conv2_1
I0408 15:15:49.791399 21720 net.cpp:150] Setting up conv2_1
I0408 15:15:49.791420 21720 net.cpp:157] Top shape: 4 128 150 150 (11520000)
I0408 15:15:49.791426 21720 net.cpp:165] Memory required for data: 472320064
I0408 15:15:49.791476 21720 layer_factory.hpp:77] Creating layer relu2_1
I0408 15:15:49.791491 21720 net.cpp:100] Creating Layer relu2_1
I0408 15:15:49.791496 21720 net.cpp:434] relu2_1 <- conv2_1
I0408 15:15:49.791505 21720 net.cpp:395] relu2_1 -> conv2_1 (in-place)
I0408 15:15:49.791781 21720 net.cpp:150] Setting up relu2_1
I0408 15:15:49.791798 21720 net.cpp:157] Top shape: 4 128 150 150 (11520000)
I0408 15:15:49.791803 21720 net.cpp:165] Memory required for data: 518400064
I0408 15:15:49.791808 21720 layer_factory.hpp:77] Creating layer conv2_2
I0408 15:15:49.791822 21720 net.cpp:100] Creating Layer conv2_2
I0408 15:15:49.791829 21720 net.cpp:434] conv2_2 <- conv2_1
I0408 15:15:49.791841 21720 net.cpp:408] conv2_2 -> conv2_2
I0408 15:15:49.798919 21720 net.cpp:150] Setting up conv2_2
I0408 15:15:49.798945 21720 net.cpp:157] Top shape: 4 128 150 150 (11520000)
I0408 15:15:49.798952 21720 net.cpp:165] Memory required for data: 564480064
I0408 15:15:49.798966 21720 layer_factory.hpp:77] Creating layer relu2_2
I0408 15:15:49.798990 21720 net.cpp:100] Creating Layer relu2_2
I0408 15:15:49.798996 21720 net.cpp:434] relu2_2 <- conv2_2
I0408 15:15:49.799007 21720 net.cpp:395] relu2_2 -> conv2_2 (in-place)
I0408 15:15:49.799314 21720 net.cpp:150] Setting up relu2_2
I0408 15:15:49.799327 21720 net.cpp:157] Top shape: 4 128 150 150 (11520000)
I0408 15:15:49.799331 21720 net.cpp:165] Memory required for data: 610560064
I0408 15:15:49.799338 21720 layer_factory.hpp:77] Creating layer pool2
I0408 15:15:49.799350 21720 net.cpp:100] Creating Layer pool2
I0408 15:15:49.799355 21720 net.cpp:434] pool2 <- conv2_2
I0408 15:15:49.799365 21720 net.cpp:408] pool2 -> pool2
I0408 15:15:49.799443 21720 net.cpp:150] Setting up pool2
I0408 15:15:49.799456 21720 net.cpp:157] Top shape: 4 128 75 75 (2880000)
I0408 15:15:49.799460 21720 net.cpp:165] Memory required for data: 622080064
I0408 15:15:49.799465 21720 layer_factory.hpp:77] Creating layer conv3_1
I0408 15:15:49.799480 21720 net.cpp:100] Creating Layer conv3_1
I0408 15:15:49.799485 21720 net.cpp:434] conv3_1 <- pool2
I0408 15:15:49.799494 21720 net.cpp:408] conv3_1 -> conv3_1
I0408 15:15:49.807214 21720 net.cpp:150] Setting up conv3_1
I0408 15:15:49.807236 21720 net.cpp:157] Top shape: 4 256 75 75 (5760000)
I0408 15:15:49.807241 21720 net.cpp:165] Memory required for data: 645120064
I0408 15:15:49.807260 21720 layer_factory.hpp:77] Creating layer relu3_1
I0408 15:15:49.807268 21720 net.cpp:100] Creating Layer relu3_1
I0408 15:15:49.807276 21720 net.cpp:434] relu3_1 <- conv3_1
I0408 15:15:49.807283 21720 net.cpp:395] relu3_1 -> conv3_1 (in-place)
I0408 15:15:49.808732 21720 net.cpp:150] Setting up relu3_1
I0408 15:15:49.808753 21720 net.cpp:157] Top shape: 4 256 75 75 (5760000)
I0408 15:15:49.808759 21720 net.cpp:165] Memory required for data: 668160064
I0408 15:15:49.808765 21720 layer_factory.hpp:77] Creating layer conv3_2
I0408 15:15:49.808781 21720 net.cpp:100] Creating Layer conv3_2
I0408 15:15:49.808787 21720 net.cpp:434] conv3_2 <- conv3_1
I0408 15:15:49.808800 21720 net.cpp:408] conv3_2 -> conv3_2
I0408 15:15:49.819015 21720 net.cpp:150] Setting up conv3_2
I0408 15:15:49.819041 21720 net.cpp:157] Top shape: 4 256 75 75 (5760000)
I0408 15:15:49.819046 21720 net.cpp:165] Memory required for data: 691200064
I0408 15:15:49.819058 21720 layer_factory.hpp:77] Creating layer relu3_2
I0408 15:15:49.819067 21720 net.cpp:100] Creating Layer relu3_2
I0408 15:15:49.819073 21720 net.cpp:434] relu3_2 <- conv3_2
I0408 15:15:49.819082 21720 net.cpp:395] relu3_2 -> conv3_2 (in-place)
I0408 15:15:49.820592 21720 net.cpp:150] Setting up relu3_2
I0408 15:15:49.820617 21720 net.cpp:157] Top shape: 4 256 75 75 (5760000)
I0408 15:15:49.820622 21720 net.cpp:165] Memory required for data: 714240064
I0408 15:15:49.820627 21720 layer_factory.hpp:77] Creating layer conv3_3
I0408 15:15:49.820649 21720 net.cpp:100] Creating Layer conv3_3
I0408 15:15:49.820655 21720 net.cpp:434] conv3_3 <- conv3_2
I0408 15:15:49.820665 21720 net.cpp:408] conv3_3 -> conv3_3
I0408 15:15:49.831399 21720 net.cpp:150] Setting up conv3_3
I0408 15:15:49.831424 21720 net.cpp:157] Top shape: 4 256 75 75 (5760000)
I0408 15:15:49.831430 21720 net.cpp:165] Memory required for data: 737280064
I0408 15:15:49.831441 21720 layer_factory.hpp:77] Creating layer relu3_3
I0408 15:15:49.831449 21720 net.cpp:100] Creating Layer relu3_3
I0408 15:15:49.831456 21720 net.cpp:434] relu3_3 <- conv3_3
I0408 15:15:49.831466 21720 net.cpp:395] relu3_3 -> conv3_3 (in-place)
I0408 15:15:49.831775 21720 net.cpp:150] Setting up relu3_3
I0408 15:15:49.831789 21720 net.cpp:157] Top shape: 4 256 75 75 (5760000)
I0408 15:15:49.831795 21720 net.cpp:165] Memory required for data: 760320064
I0408 15:15:49.831800 21720 layer_factory.hpp:77] Creating layer pool3
I0408 15:15:49.831813 21720 net.cpp:100] Creating Layer pool3
I0408 15:15:49.831818 21720 net.cpp:434] pool3 <- conv3_3
I0408 15:15:49.831827 21720 net.cpp:408] pool3 -> pool3
I0408 15:15:49.831910 21720 net.cpp:150] Setting up pool3
I0408 15:15:49.831921 21720 net.cpp:157] Top shape: 4 256 38 38 (1478656)
I0408 15:15:49.831926 21720 net.cpp:165] Memory required for data: 766234688
I0408 15:15:49.831933 21720 layer_factory.hpp:77] Creating layer conv4_1
I0408 15:15:49.831946 21720 net.cpp:100] Creating Layer conv4_1
I0408 15:15:49.831951 21720 net.cpp:434] conv4_1 <- pool3
I0408 15:15:49.831962 21720 net.cpp:408] conv4_1 -> conv4_1
I0408 15:15:49.848629 21720 net.cpp:150] Setting up conv4_1
I0408 15:15:49.848654 21720 net.cpp:157] Top shape: 4 512 38 38 (2957312)
I0408 15:15:49.848660 21720 net.cpp:165] Memory required for data: 778063936
I0408 15:15:49.848670 21720 layer_factory.hpp:77] Creating layer relu4_1
I0408 15:15:49.848681 21720 net.cpp:100] Creating Layer relu4_1
I0408 15:15:49.848687 21720 net.cpp:434] relu4_1 <- conv4_1
I0408 15:15:49.848697 21720 net.cpp:395] relu4_1 -> conv4_1 (in-place)
I0408 15:15:49.849006 21720 net.cpp:150] Setting up relu4_1
I0408 15:15:49.849021 21720 net.cpp:157] Top shape: 4 512 38 38 (2957312)
I0408 15:15:49.849026 21720 net.cpp:165] Memory required for data: 789893184
I0408 15:15:49.849031 21720 layer_factory.hpp:77] Creating layer conv4_2
I0408 15:15:49.849048 21720 net.cpp:100] Creating Layer conv4_2
I0408 15:15:49.849056 21720 net.cpp:434] conv4_2 <- conv4_1
I0408 15:15:49.849064 21720 net.cpp:408] conv4_2 -> conv4_2
I0408 15:15:49.877687 21720 net.cpp:150] Setting up conv4_2
I0408 15:15:49.877717 21720 net.cpp:157] Top shape: 4 512 38 38 (2957312)
I0408 15:15:49.877723 21720 net.cpp:165] Memory required for data: 801722432
I0408 15:15:49.877744 21720 layer_factory.hpp:77] Creating layer relu4_2
I0408 15:15:49.877756 21720 net.cpp:100] Creating Layer relu4_2
I0408 15:15:49.877763 21720 net.cpp:434] relu4_2 <- conv4_2
I0408 15:15:49.877774 21720 net.cpp:395] relu4_2 -> conv4_2 (in-place)
I0408 15:15:49.878072 21720 net.cpp:150] Setting up relu4_2
I0408 15:15:49.878087 21720 net.cpp:157] Top shape: 4 512 38 38 (2957312)
I0408 15:15:49.878093 21720 net.cpp:165] Memory required for data: 813551680
I0408 15:15:49.878098 21720 layer_factory.hpp:77] Creating layer conv4_3
I0408 15:15:49.878115 21720 net.cpp:100] Creating Layer conv4_3
I0408 15:15:49.878123 21720 net.cpp:434] conv4_3 <- conv4_2
I0408 15:15:49.878132 21720 net.cpp:408] conv4_3 -> conv4_3
I0408 15:15:49.906354 21720 net.cpp:150] Setting up conv4_3
I0408 15:15:49.906385 21720 net.cpp:157] Top shape: 4 512 38 38 (2957312)
I0408 15:15:49.906391 21720 net.cpp:165] Memory required for data: 825380928
I0408 15:15:49.906404 21720 layer_factory.hpp:77] Creating layer relu4_3
I0408 15:15:49.906417 21720 net.cpp:100] Creating Layer relu4_3
I0408 15:15:49.906424 21720 net.cpp:434] relu4_3 <- conv4_3
I0408 15:15:49.906435 21720 net.cpp:395] relu4_3 -> conv4_3 (in-place)
I0408 15:15:49.906733 21720 net.cpp:150] Setting up relu4_3
I0408 15:15:49.906750 21720 net.cpp:157] Top shape: 4 512 38 38 (2957312)
I0408 15:15:49.906755 21720 net.cpp:165] Memory required for data: 837210176
I0408 15:15:49.906760 21720 layer_factory.hpp:77] Creating layer conv4_3_relu4_3_0_split
I0408 15:15:49.906770 21720 net.cpp:100] Creating Layer conv4_3_relu4_3_0_split
I0408 15:15:49.906800 21720 net.cpp:434] conv4_3_relu4_3_0_split <- conv4_3
I0408 15:15:49.906810 21720 net.cpp:408] conv4_3_relu4_3_0_split -> conv4_3_relu4_3_0_split_0
I0408 15:15:49.906823 21720 net.cpp:408] conv4_3_relu4_3_0_split -> conv4_3_relu4_3_0_split_1
I0408 15:15:49.906909 21720 net.cpp:150] Setting up conv4_3_relu4_3_0_split
I0408 15:15:49.906922 21720 net.cpp:157] Top shape: 4 512 38 38 (2957312)
I0408 15:15:49.906929 21720 net.cpp:157] Top shape: 4 512 38 38 (2957312)
I0408 15:15:49.906932 21720 net.cpp:165] Memory required for data: 860868672
I0408 15:15:49.906937 21720 layer_factory.hpp:77] Creating layer pool4
I0408 15:15:49.906951 21720 net.cpp:100] Creating Layer pool4
I0408 15:15:49.906956 21720 net.cpp:434] pool4 <- conv4_3_relu4_3_0_split_0
I0408 15:15:49.906965 21720 net.cpp:408] pool4 -> pool4
I0408 15:15:49.907037 21720 net.cpp:150] Setting up pool4
I0408 15:15:49.907048 21720 net.cpp:157] Top shape: 4 512 19 19 (739328)
I0408 15:15:49.907054 21720 net.cpp:165] Memory required for data: 863825984
I0408 15:15:49.907058 21720 layer_factory.hpp:77] Creating layer conv5_1
I0408 15:15:49.907076 21720 net.cpp:100] Creating Layer conv5_1
I0408 15:15:49.907083 21720 net.cpp:434] conv5_1 <- pool4
I0408 15:15:49.907095 21720 net.cpp:408] conv5_1 -> conv5_1
I0408 15:15:49.936817 21720 net.cpp:150] Setting up conv5_1
I0408 15:15:49.936861 21720 net.cpp:157] Top shape: 4 512 19 19 (739328)
I0408 15:15:49.936867 21720 net.cpp:165] Memory required for data: 866783296
I0408 15:15:49.936887 21720 layer_factory.hpp:77] Creating layer relu5_1
I0408 15:15:49.936903 21720 net.cpp:100] Creating Layer relu5_1
I0408 15:15:49.936911 21720 net.cpp:434] relu5_1 <- conv5_1
I0408 15:15:49.936926 21720 net.cpp:395] relu5_1 -> conv5_1 (in-place)
I0408 15:15:49.939079 21720 net.cpp:150] Setting up relu5_1
I0408 15:15:49.939103 21720 net.cpp:157] Top shape: 4 512 19 19 (739328)
I0408 15:15:49.939110 21720 net.cpp:165] Memory required for data: 869740608
I0408 15:15:49.939116 21720 layer_factory.hpp:77] Creating layer conv5_2
I0408 15:15:49.939138 21720 net.cpp:100] Creating Layer conv5_2
I0408 15:15:49.939146 21720 net.cpp:434] conv5_2 <- conv5_1
I0408 15:15:49.939159 21720 net.cpp:408] conv5_2 -> conv5_2
I0408 15:15:49.966455 21720 net.cpp:150] Setting up conv5_2
I0408 15:15:49.966498 21720 net.cpp:157] Top shape: 4 512 19 19 (739328)
I0408 15:15:49.966503 21720 net.cpp:165] Memory required for data: 872697920
I0408 15:15:49.966521 21720 layer_factory.hpp:77] Creating layer relu5_2
I0408 15:15:49.966536 21720 net.cpp:100] Creating Layer relu5_2
I0408 15:15:49.966547 21720 net.cpp:434] relu5_2 <- conv5_2
I0408 15:15:49.966558 21720 net.cpp:395] relu5_2 -> conv5_2 (in-place)
I0408 15:15:49.968240 21720 net.cpp:150] Setting up relu5_2
I0408 15:15:49.968263 21720 net.cpp:157] Top shape: 4 512 19 19 (739328)
I0408 15:15:49.968269 21720 net.cpp:165] Memory required for data: 875655232
I0408 15:15:49.968276 21720 layer_factory.hpp:77] Creating layer conv5_3
I0408 15:15:49.968298 21720 net.cpp:100] Creating Layer conv5_3
I0408 15:15:49.968304 21720 net.cpp:434] conv5_3 <- conv5_2
I0408 15:15:49.968318 21720 net.cpp:408] conv5_3 -> conv5_3
I0408 15:15:49.996471 21720 net.cpp:150] Setting up conv5_3
I0408 15:15:49.996501 21720 net.cpp:157] Top shape: 4 512 19 19 (739328)
I0408 15:15:49.996507 21720 net.cpp:165] Memory required for data: 878612544
I0408 15:15:49.996521 21720 layer_factory.hpp:77] Creating layer relu5_3
I0408 15:15:49.996546 21720 net.cpp:100] Creating Layer relu5_3
I0408 15:15:49.996553 21720 net.cpp:434] relu5_3 <- conv5_3
I0408 15:15:49.996562 21720 net.cpp:395] relu5_3 -> conv5_3 (in-place)
I0408 15:15:49.996856 21720 net.cpp:150] Setting up relu5_3
I0408 15:15:49.996872 21720 net.cpp:157] Top shape: 4 512 19 19 (739328)
I0408 15:15:49.996877 21720 net.cpp:165] Memory required for data: 881569856
I0408 15:15:49.996882 21720 layer_factory.hpp:77] Creating layer conv5_3_relu5_3_0_split
I0408 15:15:49.996892 21720 net.cpp:100] Creating Layer conv5_3_relu5_3_0_split
I0408 15:15:49.996922 21720 net.cpp:434] conv5_3_relu5_3_0_split <- conv5_3
I0408 15:15:49.996934 21720 net.cpp:408] conv5_3_relu5_3_0_split -> conv5_3_relu5_3_0_split_0
I0408 15:15:49.996945 21720 net.cpp:408] conv5_3_relu5_3_0_split -> conv5_3_relu5_3_0_split_1
I0408 15:15:49.997025 21720 net.cpp:150] Setting up conv5_3_relu5_3_0_split
I0408 15:15:49.997036 21720 net.cpp:157] Top shape: 4 512 19 19 (739328)
I0408 15:15:49.997042 21720 net.cpp:157] Top shape: 4 512 19 19 (739328)
I0408 15:15:49.997047 21720 net.cpp:165] Memory required for data: 887484480
I0408 15:15:49.997053 21720 layer_factory.hpp:77] Creating layer pool5
I0408 15:15:49.997066 21720 net.cpp:100] Creating Layer pool5
I0408 15:15:49.997071 21720 net.cpp:434] pool5 <- conv5_3_relu5_3_0_split_0
I0408 15:15:49.997081 21720 net.cpp:408] pool5 -> pool5
I0408 15:15:49.997150 21720 net.cpp:150] Setting up pool5
I0408 15:15:49.997160 21720 net.cpp:157] Top shape: 4 512 19 19 (739328)
I0408 15:15:49.997165 21720 net.cpp:165] Memory required for data: 890441792
I0408 15:15:49.997169 21720 layer_factory.hpp:77] Creating layer fc6
I0408 15:15:49.997189 21720 net.cpp:100] Creating Layer fc6
I0408 15:15:49.997198 21720 net.cpp:434] fc6 <- pool5
I0408 15:15:49.997210 21720 net.cpp:408] fc6 -> fc6
I0408 15:15:50.052676 21720 net.cpp:150] Setting up fc6
I0408 15:15:50.052716 21720 net.cpp:157] Top shape: 4 1024 19 19 (1478656)
I0408 15:15:50.052721 21720 net.cpp:165] Memory required for data: 896356416
I0408 15:15:50.052736 21720 layer_factory.hpp:77] Creating layer relu6
I0408 15:15:50.052749 21720 net.cpp:100] Creating Layer relu6
I0408 15:15:50.052757 21720 net.cpp:434] relu6 <- fc6
I0408 15:15:50.052770 21720 net.cpp:395] relu6 -> fc6 (in-place)
I0408 15:15:50.053174 21720 net.cpp:150] Setting up relu6
I0408 15:15:50.053187 21720 net.cpp:157] Top shape: 4 1024 19 19 (1478656)
I0408 15:15:50.053194 21720 net.cpp:165] Memory required for data: 902271040
I0408 15:15:50.053200 21720 layer_factory.hpp:77] Creating layer fc7
I0408 15:15:50.053216 21720 net.cpp:100] Creating Layer fc7
I0408 15:15:50.053225 21720 net.cpp:434] fc7 <- fc6
I0408 15:15:50.053234 21720 net.cpp:408] fc7 -> fc7
I0408 15:15:50.067773 21720 net.cpp:150] Setting up fc7
I0408 15:15:50.067797 21720 net.cpp:157] Top shape: 4 1024 19 19 (1478656)
I0408 15:15:50.067803 21720 net.cpp:165] Memory required for data: 908185664
I0408 15:15:50.067816 21720 layer_factory.hpp:77] Creating layer relu7
I0408 15:15:50.067826 21720 net.cpp:100] Creating Layer relu7
I0408 15:15:50.067831 21720 net.cpp:434] relu7 <- fc7
I0408 15:15:50.067842 21720 net.cpp:395] relu7 -> fc7 (in-place)
I0408 15:15:50.068128 21720 net.cpp:150] Setting up relu7
I0408 15:15:50.068145 21720 net.cpp:157] Top shape: 4 1024 19 19 (1478656)
I0408 15:15:50.068150 21720 net.cpp:165] Memory required for data: 914100288
I0408 15:15:50.068155 21720 layer_factory.hpp:77] Creating layer fc7_relu7_0_split
I0408 15:15:50.068164 21720 net.cpp:100] Creating Layer fc7_relu7_0_split
I0408 15:15:50.068171 21720 net.cpp:434] fc7_relu7_0_split <- fc7
I0408 15:15:50.068181 21720 net.cpp:408] fc7_relu7_0_split -> fc7_relu7_0_split_0
I0408 15:15:50.068192 21720 net.cpp:408] fc7_relu7_0_split -> fc7_relu7_0_split_1
I0408 15:15:50.068202 21720 net.cpp:408] fc7_relu7_0_split -> fc7_relu7_0_split_2
I0408 15:15:50.068212 21720 net.cpp:408] fc7_relu7_0_split -> fc7_relu7_0_split_3
I0408 15:15:50.068338 21720 net.cpp:150] Setting up fc7_relu7_0_split
I0408 15:15:50.068352 21720 net.cpp:157] Top shape: 4 1024 19 19 (1478656)
I0408 15:15:50.068359 21720 net.cpp:157] Top shape: 4 1024 19 19 (1478656)
I0408 15:15:50.068365 21720 net.cpp:157] Top shape: 4 1024 19 19 (1478656)
I0408 15:15:50.068372 21720 net.cpp:157] Top shape: 4 1024 19 19 (1478656)
I0408 15:15:50.068375 21720 net.cpp:165] Memory required for data: 937758784
I0408 15:15:50.068382 21720 layer_factory.hpp:77] Creating layer conv6_1
I0408 15:15:50.068398 21720 net.cpp:100] Creating Layer conv6_1
I0408 15:15:50.068405 21720 net.cpp:434] conv6_1 <- fc7_relu7_0_split_0
I0408 15:15:50.068418 21720 net.cpp:408] conv6_1 -> conv6_1
I0408 15:15:50.075037 21720 net.cpp:150] Setting up conv6_1
I0408 15:15:50.075063 21720 net.cpp:157] Top shape: 4 256 19 19 (369664)
I0408 15:15:50.075069 21720 net.cpp:165] Memory required for data: 939237440
I0408 15:15:50.075080 21720 layer_factory.hpp:77] Creating layer conv6_1_relu
I0408 15:15:50.075093 21720 net.cpp:100] Creating Layer conv6_1_relu
I0408 15:15:50.075268 21720 net.cpp:434] conv6_1_relu <- conv6_1
I0408 15:15:50.075278 21720 net.cpp:395] conv6_1_relu -> conv6_1 (in-place)
I0408 15:15:50.076788 21720 net.cpp:150] Setting up conv6_1_relu
I0408 15:15:50.076808 21720 net.cpp:157] Top shape: 4 256 19 19 (369664)
I0408 15:15:50.076813 21720 net.cpp:165] Memory required for data: 940716096
I0408 15:15:50.076819 21720 layer_factory.hpp:77] Creating layer conv6_2
I0408 15:15:50.076836 21720 net.cpp:100] Creating Layer conv6_2
I0408 15:15:50.076843 21720 net.cpp:434] conv6_2 <- conv6_1
I0408 15:15:50.076855 21720 net.cpp:408] conv6_2 -> conv6_2
I0408 15:15:50.095770 21720 net.cpp:150] Setting up conv6_2
I0408 15:15:50.095796 21720 net.cpp:157] Top shape: 4 512 10 10 (204800)
I0408 15:15:50.095803 21720 net.cpp:165] Memory required for data: 941535296
I0408 15:15:50.095825 21720 layer_factory.hpp:77] Creating layer conv6_2_relu
I0408 15:15:50.095835 21720 net.cpp:100] Creating Layer conv6_2_relu
I0408 15:15:50.095841 21720 net.cpp:434] conv6_2_relu <- conv6_2
I0408 15:15:50.095854 21720 net.cpp:395] conv6_2_relu -> conv6_2 (in-place)
I0408 15:15:50.097379 21720 net.cpp:150] Setting up conv6_2_relu
I0408 15:15:50.097399 21720 net.cpp:157] Top shape: 4 512 10 10 (204800)
I0408 15:15:50.097405 21720 net.cpp:165] Memory required for data: 942354496
I0408 15:15:50.097411 21720 layer_factory.hpp:77] Creating layer conv6_2_conv6_2_relu_0_split
I0408 15:15:50.097422 21720 net.cpp:100] Creating Layer conv6_2_conv6_2_relu_0_split
I0408 15:15:50.097429 21720 net.cpp:434] conv6_2_conv6_2_relu_0_split <- conv6_2
I0408 15:15:50.097440 21720 net.cpp:408] conv6_2_conv6_2_relu_0_split -> conv6_2_conv6_2_relu_0_split_0
I0408 15:15:50.097453 21720 net.cpp:408] conv6_2_conv6_2_relu_0_split -> conv6_2_conv6_2_relu_0_split_1
I0408 15:15:50.097465 21720 net.cpp:408] conv6_2_conv6_2_relu_0_split -> conv6_2_conv6_2_relu_0_split_2
I0408 15:15:50.097478 21720 net.cpp:408] conv6_2_conv6_2_relu_0_split -> conv6_2_conv6_2_relu_0_split_3
I0408 15:15:50.097611 21720 net.cpp:150] Setting up conv6_2_conv6_2_relu_0_split
I0408 15:15:50.097623 21720 net.cpp:157] Top shape: 4 512 10 10 (204800)
I0408 15:15:50.097630 21720 net.cpp:157] Top shape: 4 512 10 10 (204800)
I0408 15:15:50.097635 21720 net.cpp:157] Top shape: 4 512 10 10 (204800)
I0408 15:15:50.097641 21720 net.cpp:157] Top shape: 4 512 10 10 (204800)
I0408 15:15:50.097646 21720 net.cpp:165] Memory required for data: 945631296
I0408 15:15:50.097651 21720 layer_factory.hpp:77] Creating layer conv7_1
I0408 15:15:50.097667 21720 net.cpp:100] Creating Layer conv7_1
I0408 15:15:50.097674 21720 net.cpp:434] conv7_1 <- conv6_2_conv6_2_relu_0_split_0
I0408 15:15:50.097688 21720 net.cpp:408] conv7_1 -> conv7_1
I0408 15:15:50.101708 21720 net.cpp:150] Setting up conv7_1
I0408 15:15:50.101735 21720 net.cpp:157] Top shape: 4 128 10 10 (51200)
I0408 15:15:50.101742 21720 net.cpp:165] Memory required for data: 945836096
I0408 15:15:50.101752 21720 layer_factory.hpp:77] Creating layer conv7_1_relu
I0408 15:15:50.101763 21720 net.cpp:100] Creating Layer conv7_1_relu
I0408 15:15:50.101768 21720 net.cpp:434] conv7_1_relu <- conv7_1
I0408 15:15:50.101779 21720 net.cpp:395] conv7_1_relu -> conv7_1 (in-place)
I0408 15:15:50.102077 21720 net.cpp:150] Setting up conv7_1_relu
I0408 15:15:50.102090 21720 net.cpp:157] Top shape: 4 128 10 10 (51200)
I0408 15:15:50.102094 21720 net.cpp:165] Memory required for data: 946040896
I0408 15:15:50.102100 21720 layer_factory.hpp:77] Creating layer conv7_2
I0408 15:15:50.102116 21720 net.cpp:100] Creating Layer conv7_2
I0408 15:15:50.102121 21720 net.cpp:434] conv7_2 <- conv7_1
I0408 15:15:50.102135 21720 net.cpp:408] conv7_2 -> conv7_2
I0408 15:15:50.108979 21720 net.cpp:150] Setting up conv7_2
I0408 15:15:50.109021 21720 net.cpp:157] Top shape: 4 256 5 5 (25600)
I0408 15:15:50.109027 21720 net.cpp:165] Memory required for data: 946143296
I0408 15:15:50.109038 21720 layer_factory.hpp:77] Creating layer conv7_2_relu
I0408 15:15:50.109047 21720 net.cpp:100] Creating Layer conv7_2_relu
I0408 15:15:50.109055 21720 net.cpp:434] conv7_2_relu <- conv7_2
I0408 15:15:50.109064 21720 net.cpp:395] conv7_2_relu -> conv7_2 (in-place)
I0408 15:15:50.109364 21720 net.cpp:150] Setting up conv7_2_relu
I0408 15:15:50.109377 21720 net.cpp:157] Top shape: 4 256 5 5 (25600)
I0408 15:15:50.109383 21720 net.cpp:165] Memory required for data: 946245696
I0408 15:15:50.109388 21720 layer_factory.hpp:77] Creating layer conv7_2_conv7_2_relu_0_split
I0408 15:15:50.109398 21720 net.cpp:100] Creating Layer conv7_2_conv7_2_relu_0_split
I0408 15:15:50.109405 21720 net.cpp:434] conv7_2_conv7_2_relu_0_split <- conv7_2
I0408 15:15:50.109416 21720 net.cpp:408] conv7_2_conv7_2_relu_0_split -> conv7_2_conv7_2_relu_0_split_0
I0408 15:15:50.109427 21720 net.cpp:408] conv7_2_conv7_2_relu_0_split -> conv7_2_conv7_2_relu_0_split_1
I0408 15:15:50.109437 21720 net.cpp:408] conv7_2_conv7_2_relu_0_split -> conv7_2_conv7_2_relu_0_split_2
I0408 15:15:50.109447 21720 net.cpp:408] conv7_2_conv7_2_relu_0_split -> conv7_2_conv7_2_relu_0_split_3
I0408 15:15:50.109578 21720 net.cpp:150] Setting up conv7_2_conv7_2_relu_0_split
I0408 15:15:50.109588 21720 net.cpp:157] Top shape: 4 256 5 5 (25600)
I0408 15:15:50.109594 21720 net.cpp:157] Top shape: 4 256 5 5 (25600)
I0408 15:15:50.109601 21720 net.cpp:157] Top shape: 4 256 5 5 (25600)
I0408 15:15:50.109607 21720 net.cpp:157] Top shape: 4 256 5 5 (25600)
I0408 15:15:50.109611 21720 net.cpp:165] Memory required for data: 946655296
I0408 15:15:50.109616 21720 layer_factory.hpp:77] Creating layer conv8_1
I0408 15:15:50.109632 21720 net.cpp:100] Creating Layer conv8_1
I0408 15:15:50.109642 21720 net.cpp:434] conv8_1 <- conv7_2_conv7_2_relu_0_split_0
I0408 15:15:50.109654 21720 net.cpp:408] conv8_1 -> conv8_1
I0408 15:15:50.112596 21720 net.cpp:150] Setting up conv8_1
I0408 15:15:50.112617 21720 net.cpp:157] Top shape: 4 128 5 5 (12800)
I0408 15:15:50.112623 21720 net.cpp:165] Memory required for data: 946706496
I0408 15:15:50.112633 21720 layer_factory.hpp:77] Creating layer conv8_1_relu
I0408 15:15:50.112643 21720 net.cpp:100] Creating Layer conv8_1_relu
I0408 15:15:50.112648 21720 net.cpp:434] conv8_1_relu <- conv8_1
I0408 15:15:50.112659 21720 net.cpp:395] conv8_1_relu -> conv8_1 (in-place)
I0408 15:15:50.112948 21720 net.cpp:150] Setting up conv8_1_relu
I0408 15:15:50.112963 21720 net.cpp:157] Top shape: 4 128 5 5 (12800)
I0408 15:15:50.112968 21720 net.cpp:165] Memory required for data: 946757696
I0408 15:15:50.112974 21720 layer_factory.hpp:77] Creating layer conv8_2
I0408 15:15:50.112989 21720 net.cpp:100] Creating Layer conv8_2
I0408 15:15:50.112994 21720 net.cpp:434] conv8_2 <- conv8_1
I0408 15:15:50.113003 21720 net.cpp:408] conv8_2 -> conv8_2
I0408 15:15:50.121697 21720 net.cpp:150] Setting up conv8_2
I0408 15:15:50.121728 21720 net.cpp:157] Top shape: 4 256 3 3 (9216)
I0408 15:15:50.121736 21720 net.cpp:165] Memory required for data: 946794560
I0408 15:15:50.121748 21720 layer_factory.hpp:77] Creating layer conv8_2_relu
I0408 15:15:50.121764 21720 net.cpp:100] Creating Layer conv8_2_relu
I0408 15:15:50.121773 21720 net.cpp:434] conv8_2_relu <- conv8_2
I0408 15:15:50.121783 21720 net.cpp:395] conv8_2_relu -> conv8_2 (in-place)
I0408 15:15:50.122141 21720 net.cpp:150] Setting up conv8_2_relu
I0408 15:15:50.122159 21720 net.cpp:157] Top shape: 4 256 3 3 (9216)
I0408 15:15:50.122165 21720 net.cpp:165] Memory required for data: 946831424
I0408 15:15:50.122171 21720 layer_factory.hpp:77] Creating layer conv8_2_conv8_2_relu_0_split
I0408 15:15:50.122181 21720 net.cpp:100] Creating Layer conv8_2_conv8_2_relu_0_split
I0408 15:15:50.122189 21720 net.cpp:434] conv8_2_conv8_2_relu_0_split <- conv8_2
I0408 15:15:50.122205 21720 net.cpp:408] conv8_2_conv8_2_relu_0_split -> conv8_2_conv8_2_relu_0_split_0
I0408 15:15:50.122246 21720 net.cpp:408] conv8_2_conv8_2_relu_0_split -> conv8_2_conv8_2_relu_0_split_1
I0408 15:15:50.122258 21720 net.cpp:408] conv8_2_conv8_2_relu_0_split -> conv8_2_conv8_2_relu_0_split_2
I0408 15:15:50.122272 21720 net.cpp:408] conv8_2_conv8_2_relu_0_split -> conv8_2_conv8_2_relu_0_split_3
I0408 15:15:50.122436 21720 net.cpp:150] Setting up conv8_2_conv8_2_relu_0_split
I0408 15:15:50.122448 21720 net.cpp:157] Top shape: 4 256 3 3 (9216)
I0408 15:15:50.122457 21720 net.cpp:157] Top shape: 4 256 3 3 (9216)
I0408 15:15:50.122463 21720 net.cpp:157] Top shape: 4 256 3 3 (9216)
I0408 15:15:50.122472 21720 net.cpp:157] Top shape: 4 256 3 3 (9216)
I0408 15:15:50.122478 21720 net.cpp:165] Memory required for data: 946978880
I0408 15:15:50.122483 21720 layer_factory.hpp:77] Creating layer conv9_1
I0408 15:15:50.122501 21720 net.cpp:100] Creating Layer conv9_1
I0408 15:15:50.122511 21720 net.cpp:434] conv9_1 <- conv8_2_conv8_2_relu_0_split_0
I0408 15:15:50.122525 21720 net.cpp:408] conv9_1 -> conv9_1
I0408 15:15:50.128878 21720 net.cpp:150] Setting up conv9_1
I0408 15:15:50.128911 21720 net.cpp:157] Top shape: 4 128 3 3 (4608)
I0408 15:15:50.128919 21720 net.cpp:165] Memory required for data: 946997312
I0408 15:15:50.128934 21720 layer_factory.hpp:77] Creating layer conv9_1_relu
I0408 15:15:50.128947 21720 net.cpp:100] Creating Layer conv9_1_relu
I0408 15:15:50.128955 21720 net.cpp:434] conv9_1_relu <- conv9_1
I0408 15:15:50.128971 21720 net.cpp:395] conv9_1_relu -> conv9_1 (in-place)
I0408 15:15:50.131076 21720 net.cpp:150] Setting up conv9_1_relu
I0408 15:15:50.131104 21720 net.cpp:157] Top shape: 4 128 3 3 (4608)
I0408 15:15:50.131111 21720 net.cpp:165] Memory required for data: 947015744
I0408 15:15:50.131121 21720 layer_factory.hpp:77] Creating layer conv9_2
I0408 15:15:50.131146 21720 net.cpp:100] Creating Layer conv9_2
I0408 15:15:50.131155 21720 net.cpp:434] conv9_2 <- conv9_1
I0408 15:15:50.131170 21720 net.cpp:408] conv9_2 -> conv9_2
I0408 15:15:50.139137 21720 net.cpp:150] Setting up conv9_2
I0408 15:15:50.139183 21720 net.cpp:157] Top shape: 4 256 1 1 (1024)
I0408 15:15:50.139189 21720 net.cpp:165] Memory required for data: 947019840
I0408 15:15:50.139202 21720 layer_factory.hpp:77] Creating layer conv9_2_relu
I0408 15:15:50.139215 21720 net.cpp:100] Creating Layer conv9_2_relu
I0408 15:15:50.139222 21720 net.cpp:434] conv9_2_relu <- conv9_2
I0408 15:15:50.139235 21720 net.cpp:395] conv9_2_relu -> conv9_2 (in-place)
I0408 15:15:50.141233 21720 net.cpp:150] Setting up conv9_2_relu
I0408 15:15:50.141260 21720 net.cpp:157] Top shape: 4 256 1 1 (1024)
I0408 15:15:50.141266 21720 net.cpp:165] Memory required for data: 947023936
I0408 15:15:50.141273 21720 layer_factory.hpp:77] Creating layer conv9_2_conv9_2_relu_0_split
I0408 15:15:50.141288 21720 net.cpp:100] Creating Layer conv9_2_conv9_2_relu_0_split
I0408 15:15:50.141297 21720 net.cpp:434] conv9_2_conv9_2_relu_0_split <- conv9_2
I0408 15:15:50.141309 21720 net.cpp:408] conv9_2_conv9_2_relu_0_split -> conv9_2_conv9_2_relu_0_split_0
I0408 15:15:50.141330 21720 net.cpp:408] conv9_2_conv9_2_relu_0_split -> conv9_2_conv9_2_relu_0_split_1
I0408 15:15:50.141345 21720 net.cpp:408] conv9_2_conv9_2_relu_0_split -> conv9_2_conv9_2_relu_0_split_2
I0408 15:15:50.141487 21720 net.cpp:150] Setting up conv9_2_conv9_2_relu_0_split
I0408 15:15:50.141504 21720 net.cpp:157] Top shape: 4 256 1 1 (1024)
I0408 15:15:50.141511 21720 net.cpp:157] Top shape: 4 256 1 1 (1024)
I0408 15:15:50.141520 21720 net.cpp:157] Top shape: 4 256 1 1 (1024)
I0408 15:15:50.141526 21720 net.cpp:165] Memory required for data: 947036224
I0408 15:15:50.141532 21720 layer_factory.hpp:77] Creating layer Deconvolution1
I0408 15:15:50.141546 21720 net.cpp:100] Creating Layer Deconvolution1
I0408 15:15:50.141556 21720 net.cpp:434] Deconvolution1 <- conv5_3_relu5_3_0_split_1
I0408 15:15:50.141571 21720 net.cpp:408] Deconvolution1 -> Deconvolution1
I0408 15:15:50.214359 21720 net.cpp:150] Setting up Deconvolution1
I0408 15:15:50.214385 21720 net.cpp:157] Top shape: 4 512 38 38 (2957312)
I0408 15:15:50.214412 21720 net.cpp:165] Memory required for data: 958865472
I0408 15:15:50.214424 21720 layer_factory.hpp:77] Creating layer Convolution1
I0408 15:15:50.214440 21720 net.cpp:100] Creating Layer Convolution1
I0408 15:15:50.214447 21720 net.cpp:434] Convolution1 <- Deconvolution1
I0408 15:15:50.214455 21720 net.cpp:408] Convolution1 -> Convolution1
I0408 15:15:50.226048 21720 net.cpp:150] Setting up Convolution1
I0408 15:15:50.226078 21720 net.cpp:157] Top shape: 4 512 38 38 (2957312)
I0408 15:15:50.226083 21720 net.cpp:165] Memory required for data: 970694720
I0408 15:15:50.226095 21720 layer_factory.hpp:77] Creating layer BatchNorm1
I0408 15:15:50.226111 21720 net.cpp:100] Creating Layer BatchNorm1
I0408 15:15:50.226117 21720 net.cpp:434] BatchNorm1 <- Convolution1
I0408 15:15:50.226125 21720 net.cpp:395] BatchNorm1 -> Convolution1 (in-place)
I0408 15:15:50.226541 21720 net.cpp:150] Setting up BatchNorm1
I0408 15:15:50.226554 21720 net.cpp:157] Top shape: 4 512 38 38 (2957312)
I0408 15:15:50.226558 21720 net.cpp:165] Memory required for data: 982523968
I0408 15:15:50.226569 21720 layer_factory.hpp:77] Creating layer up_conv5_3
I0408 15:15:50.226578 21720 net.cpp:100] Creating Layer up_conv5_3
I0408 15:15:50.226584 21720 net.cpp:434] up_conv5_3 <- Convolution1
I0408 15:15:50.226590 21720 net.cpp:395] up_conv5_3 -> Convolution1 (in-place)
I0408 15:15:50.226913 21720 net.cpp:150] Setting up up_conv5_3
I0408 15:15:50.226930 21720 net.cpp:157] Top shape: 4 512 38 38 (2957312)
I0408 15:15:50.226936 21720 net.cpp:165] Memory required for data: 994353216
I0408 15:15:50.226941 21720 layer_factory.hpp:77] Creating layer Convolution2
I0408 15:15:50.226972 21720 net.cpp:100] Creating Layer Convolution2
I0408 15:15:50.226979 21720 net.cpp:434] Convolution2 <- conv4_3_relu4_3_0_split_1
I0408 15:15:50.226989 21720 net.cpp:408] Convolution2 -> Convolution2
I0408 15:15:50.237380 21720 net.cpp:150] Setting up Convolution2
I0408 15:15:50.237408 21720 net.cpp:157] Top shape: 4 512 38 38 (2957312)
I0408 15:15:50.237413 21720 net.cpp:165] Memory required for data: 1006182464
I0408 15:15:50.237426 21720 layer_factory.hpp:77] Creating layer BatchNorm2
I0408 15:15:50.237437 21720 net.cpp:100] Creating Layer BatchNorm2
I0408 15:15:50.237442 21720 net.cpp:434] BatchNorm2 <- Convolution2
I0408 15:15:50.237450 21720 net.cpp:395] BatchNorm2 -> Convolution2 (in-place)
I0408 15:15:50.237864 21720 net.cpp:150] Setting up BatchNorm2
I0408 15:15:50.237875 21720 net.cpp:157] Top shape: 4 512 38 38 (2957312)
I0408 15:15:50.237880 21720 net.cpp:165] Memory required for data: 1018011712
I0408 15:15:50.237891 21720 layer_factory.hpp:77] Creating layer conv4_3_conv
I0408 15:15:50.237900 21720 net.cpp:100] Creating Layer conv4_3_conv
I0408 15:15:50.237905 21720 net.cpp:434] conv4_3_conv <- Convolution2
I0408 15:15:50.237911 21720 net.cpp:395] conv4_3_conv -> Convolution2 (in-place)
I0408 15:15:50.238224 21720 net.cpp:150] Setting up conv4_3_conv
I0408 15:15:50.238237 21720 net.cpp:157] Top shape: 4 512 38 38 (2957312)
I0408 15:15:50.238242 21720 net.cpp:165] Memory required for data: 1029840960
I0408 15:15:50.238247 21720 layer_factory.hpp:77] Creating layer Concat1
I0408 15:15:50.238255 21720 net.cpp:100] Creating Layer Concat1
I0408 15:15:50.238262 21720 net.cpp:434] Concat1 <- Convolution1
I0408 15:15:50.238268 21720 net.cpp:434] Concat1 <- Convolution2
I0408 15:15:50.238278 21720 net.cpp:408] Concat1 -> Concat1
I0408 15:15:50.238332 21720 net.cpp:150] Setting up Concat1
I0408 15:15:50.238344 21720 net.cpp:157] Top shape: 4 1024 38 38 (5914624)
I0408 15:15:50.238348 21720 net.cpp:165] Memory required for data: 1053499456
I0408 15:15:50.238353 21720 layer_factory.hpp:77] Creating layer Convolution3
I0408 15:15:50.238363 21720 net.cpp:100] Creating Layer Convolution3
I0408 15:15:50.238369 21720 net.cpp:434] Convolution3 <- Concat1
I0408 15:15:50.238379 21720 net.cpp:408] Convolution3 -> Convolution3
I0408 15:15:50.243969 21720 net.cpp:150] Setting up Convolution3
I0408 15:15:50.243995 21720 net.cpp:157] Top shape: 4 512 38 38 (2957312)
I0408 15:15:50.244002 21720 net.cpp:165] Memory required for data: 1065328704
I0408 15:15:50.244036 21720 layer_factory.hpp:77] Creating layer conc1
I0408 15:15:50.244047 21720 net.cpp:100] Creating Layer conc1
I0408 15:15:50.244055 21720 net.cpp:434] conc1 <- Convolution3
I0408 15:15:50.244067 21720 net.cpp:395] conc1 -> Convolution3 (in-place)
I0408 15:15:50.244383 21720 net.cpp:150] Setting up conc1
I0408 15:15:50.244397 21720 net.cpp:157] Top shape: 4 512 38 38 (2957312)
I0408 15:15:50.244401 21720 net.cpp:165] Memory required for data: 1077157952
I0408 15:15:50.244408 21720 layer_factory.hpp:77] Creating layer conc1_norm
I0408 15:15:50.244418 21720 net.cpp:100] Creating Layer conc1_norm
I0408 15:15:50.244423 21720 net.cpp:434] conc1_norm <- Convolution3
I0408 15:15:50.244434 21720 net.cpp:408] conc1_norm -> conc1_norm
I0408 15:15:50.244768 21720 net.cpp:150] Setting up conc1_norm
I0408 15:15:50.244779 21720 net.cpp:157] Top shape: 4 512 38 38 (2957312)
I0408 15:15:50.244784 21720 net.cpp:165] Memory required for data: 1088987200
I0408 15:15:50.244791 21720 layer_factory.hpp:77] Creating layer conc1_norm_conc1_norm_0_split
I0408 15:15:50.244801 21720 net.cpp:100] Creating Layer conc1_norm_conc1_norm_0_split
I0408 15:15:50.244807 21720 net.cpp:434] conc1_norm_conc1_norm_0_split <- conc1_norm
I0408 15:15:50.244817 21720 net.cpp:408] conc1_norm_conc1_norm_0_split -> conc1_norm_conc1_norm_0_split_0
I0408 15:15:50.244827 21720 net.cpp:408] conc1_norm_conc1_norm_0_split -> conc1_norm_conc1_norm_0_split_1
I0408 15:15:50.244841 21720 net.cpp:408] conc1_norm_conc1_norm_0_split -> conc1_norm_conc1_norm_0_split_2
I0408 15:15:50.244932 21720 net.cpp:150] Setting up conc1_norm_conc1_norm_0_split
I0408 15:15:50.244942 21720 net.cpp:157] Top shape: 4 512 38 38 (2957312)
I0408 15:15:50.244948 21720 net.cpp:157] Top shape: 4 512 38 38 (2957312)
I0408 15:15:50.244956 21720 net.cpp:157] Top shape: 4 512 38 38 (2957312)
I0408 15:15:50.244961 21720 net.cpp:165] Memory required for data: 1124474944
I0408 15:15:50.244964 21720 layer_factory.hpp:77] Creating layer conc1_norm_mbox_loc
I0408 15:15:50.244982 21720 net.cpp:100] Creating Layer conc1_norm_mbox_loc
I0408 15:15:50.244987 21720 net.cpp:434] conc1_norm_mbox_loc <- conc1_norm_conc1_norm_0_split_0
I0408 15:15:50.244997 21720 net.cpp:408] conc1_norm_mbox_loc -> conc1_norm_mbox_loc
I0408 15:15:50.250777 21720 net.cpp:150] Setting up conc1_norm_mbox_loc
I0408 15:15:50.250799 21720 net.cpp:157] Top shape: 4 16 38 38 (92416)
I0408 15:15:50.250807 21720 net.cpp:165] Memory required for data: 1124844608
I0408 15:15:50.250818 21720 layer_factory.hpp:77] Creating layer conc1_norm_mbox_loc_perm
I0408 15:15:50.250829 21720 net.cpp:100] Creating Layer conc1_norm_mbox_loc_perm
I0408 15:15:50.250835 21720 net.cpp:434] conc1_norm_mbox_loc_perm <- conc1_norm_mbox_loc
I0408 15:15:50.250857 21720 net.cpp:408] conc1_norm_mbox_loc_perm -> conc1_norm_mbox_loc_perm
I0408 15:15:50.251080 21720 net.cpp:150] Setting up conc1_norm_mbox_loc_perm
I0408 15:15:50.251091 21720 net.cpp:157] Top shape: 4 38 38 16 (92416)
I0408 15:15:50.251096 21720 net.cpp:165] Memory required for data: 1125214272
I0408 15:15:50.251101 21720 layer_factory.hpp:77] Creating layer conc1_norm_mbox_loc_flat
I0408 15:15:50.251113 21720 net.cpp:100] Creating Layer conc1_norm_mbox_loc_flat
I0408 15:15:50.251119 21720 net.cpp:434] conc1_norm_mbox_loc_flat <- conc1_norm_mbox_loc_perm
I0408 15:15:50.251127 21720 net.cpp:408] conc1_norm_mbox_loc_flat -> conc1_norm_mbox_loc_flat
I0408 15:15:50.251175 21720 net.cpp:150] Setting up conc1_norm_mbox_loc_flat
I0408 15:15:50.251186 21720 net.cpp:157] Top shape: 4 23104 (92416)
I0408 15:15:50.251190 21720 net.cpp:165] Memory required for data: 1125583936
I0408 15:15:50.251195 21720 layer_factory.hpp:77] Creating layer conc1_norm_mbox_conf
I0408 15:15:50.251211 21720 net.cpp:100] Creating Layer conc1_norm_mbox_conf
I0408 15:15:50.251219 21720 net.cpp:434] conc1_norm_mbox_conf <- conc1_norm_conc1_norm_0_split_1
I0408 15:15:50.251230 21720 net.cpp:408] conc1_norm_mbox_conf -> conc1_norm_mbox_conf
I0408 15:15:50.260773 21720 net.cpp:150] Setting up conc1_norm_mbox_conf
I0408 15:15:50.260819 21720 net.cpp:157] Top shape: 4 84 38 38 (485184)
I0408 15:15:50.260825 21720 net.cpp:165] Memory required for data: 1127524672
I0408 15:15:50.260860 21720 layer_factory.hpp:77] Creating layer conc1_norm_mbox_conf_perm
I0408 15:15:50.260874 21720 net.cpp:100] Creating Layer conc1_norm_mbox_conf_perm
I0408 15:15:50.260880 21720 net.cpp:434] conc1_norm_mbox_conf_perm <- conc1_norm_mbox_conf
I0408 15:15:50.260892 21720 net.cpp:408] conc1_norm_mbox_conf_perm -> conc1_norm_mbox_conf_perm
I0408 15:15:50.261126 21720 net.cpp:150] Setting up conc1_norm_mbox_conf_perm
I0408 15:15:50.261138 21720 net.cpp:157] Top shape: 4 38 38 84 (485184)
I0408 15:15:50.261144 21720 net.cpp:165] Memory required for data: 1129465408
I0408 15:15:50.261149 21720 layer_factory.hpp:77] Creating layer conc1_norm_mbox_conf_flat
I0408 15:15:50.261160 21720 net.cpp:100] Creating Layer conc1_norm_mbox_conf_flat
I0408 15:15:50.261167 21720 net.cpp:434] conc1_norm_mbox_conf_flat <- conc1_norm_mbox_conf_perm
I0408 15:15:50.261175 21720 net.cpp:408] conc1_norm_mbox_conf_flat -> conc1_norm_mbox_conf_flat
I0408 15:15:50.261224 21720 net.cpp:150] Setting up conc1_norm_mbox_conf_flat
I0408 15:15:50.261234 21720 net.cpp:157] Top shape: 4 121296 (485184)
I0408 15:15:50.261238 21720 net.cpp:165] Memory required for data: 1131406144
I0408 15:15:50.261245 21720 layer_factory.hpp:77] Creating layer conc1_norm_mbox_priorbox
I0408 15:15:50.261256 21720 net.cpp:100] Creating Layer conc1_norm_mbox_priorbox
I0408 15:15:50.261262 21720 net.cpp:434] conc1_norm_mbox_priorbox <- conc1_norm_conc1_norm_0_split_2
I0408 15:15:50.261270 21720 net.cpp:434] conc1_norm_mbox_priorbox <- data_data_0_split_1
I0408 15:15:50.261281 21720 net.cpp:408] conc1_norm_mbox_priorbox -> conc1_norm_mbox_priorbox
I0408 15:15:50.261328 21720 net.cpp:150] Setting up conc1_norm_mbox_priorbox
I0408 15:15:50.261339 21720 net.cpp:157] Top shape: 1 2 23104 (46208)
I0408 15:15:50.261343 21720 net.cpp:165] Memory required for data: 1131590976
I0408 15:15:50.261349 21720 layer_factory.hpp:77] Creating layer fc7_mbox_loc
I0408 15:15:50.261365 21720 net.cpp:100] Creating Layer fc7_mbox_loc
I0408 15:15:50.261373 21720 net.cpp:434] fc7_mbox_loc <- fc7_relu7_0_split_1
I0408 15:15:50.261382 21720 net.cpp:408] fc7_mbox_loc -> fc7_mbox_loc
I0408 15:15:50.267611 21720 net.cpp:150] Setting up fc7_mbox_loc
I0408 15:15:50.267637 21720 net.cpp:157] Top shape: 4 24 19 19 (34656)
I0408 15:15:50.267642 21720 net.cpp:165] Memory required for data: 1131729600
I0408 15:15:50.267652 21720 layer_factory.hpp:77] Creating layer fc7_mbox_loc_perm
I0408 15:15:50.267663 21720 net.cpp:100] Creating Layer fc7_mbox_loc_perm
I0408 15:15:50.267670 21720 net.cpp:434] fc7_mbox_loc_perm <- fc7_mbox_loc
I0408 15:15:50.267680 21720 net.cpp:408] fc7_mbox_loc_perm -> fc7_mbox_loc_perm
I0408 15:15:50.267901 21720 net.cpp:150] Setting up fc7_mbox_loc_perm
I0408 15:15:50.267916 21720 net.cpp:157] Top shape: 4 19 19 24 (34656)
I0408 15:15:50.267920 21720 net.cpp:165] Memory required for data: 1131868224
I0408 15:15:50.267925 21720 layer_factory.hpp:77] Creating layer fc7_mbox_loc_flat
I0408 15:15:50.267935 21720 net.cpp:100] Creating Layer fc7_mbox_loc_flat
I0408 15:15:50.267940 21720 net.cpp:434] fc7_mbox_loc_flat <- fc7_mbox_loc_perm
I0408 15:15:50.267951 21720 net.cpp:408] fc7_mbox_loc_flat -> fc7_mbox_loc_flat
I0408 15:15:50.267997 21720 net.cpp:150] Setting up fc7_mbox_loc_flat
I0408 15:15:50.268008 21720 net.cpp:157] Top shape: 4 8664 (34656)
I0408 15:15:50.268013 21720 net.cpp:165] Memory required for data: 1132006848
I0408 15:15:50.268018 21720 layer_factory.hpp:77] Creating layer fc7_mbox_conf
I0408 15:15:50.268033 21720 net.cpp:100] Creating Layer fc7_mbox_conf
I0408 15:15:50.268039 21720 net.cpp:434] fc7_mbox_conf <- fc7_relu7_0_split_2
I0408 15:15:50.268049 21720 net.cpp:408] fc7_mbox_conf -> fc7_mbox_conf
I0408 15:15:50.284852 21720 net.cpp:150] Setting up fc7_mbox_conf
I0408 15:15:50.284878 21720 net.cpp:157] Top shape: 4 126 19 19 (181944)
I0408 15:15:50.284883 21720 net.cpp:165] Memory required for data: 1132734624
I0408 15:15:50.284914 21720 layer_factory.hpp:77] Creating layer fc7_mbox_conf_perm
I0408 15:15:50.284927 21720 net.cpp:100] Creating Layer fc7_mbox_conf_perm
I0408 15:15:50.284934 21720 net.cpp:434] fc7_mbox_conf_perm <- fc7_mbox_conf
I0408 15:15:50.284943 21720 net.cpp:408] fc7_mbox_conf_perm -> fc7_mbox_conf_perm
I0408 15:15:50.285168 21720 net.cpp:150] Setting up fc7_mbox_conf_perm
I0408 15:15:50.285181 21720 net.cpp:157] Top shape: 4 19 19 126 (181944)
I0408 15:15:50.285185 21720 net.cpp:165] Memory required for data: 1133462400
I0408 15:15:50.285190 21720 layer_factory.hpp:77] Creating layer fc7_mbox_conf_flat
I0408 15:15:50.285202 21720 net.cpp:100] Creating Layer fc7_mbox_conf_flat
I0408 15:15:50.285207 21720 net.cpp:434] fc7_mbox_conf_flat <- fc7_mbox_conf_perm
I0408 15:15:50.285215 21720 net.cpp:408] fc7_mbox_conf_flat -> fc7_mbox_conf_flat
I0408 15:15:50.285264 21720 net.cpp:150] Setting up fc7_mbox_conf_flat
I0408 15:15:50.285275 21720 net.cpp:157] Top shape: 4 45486 (181944)
I0408 15:15:50.285279 21720 net.cpp:165] Memory required for data: 1134190176
I0408 15:15:50.285284 21720 layer_factory.hpp:77] Creating layer fc7_mbox_priorbox
I0408 15:15:50.285297 21720 net.cpp:100] Creating Layer fc7_mbox_priorbox
I0408 15:15:50.285303 21720 net.cpp:434] fc7_mbox_priorbox <- fc7_relu7_0_split_3
I0408 15:15:50.285311 21720 net.cpp:434] fc7_mbox_priorbox <- data_data_0_split_2
I0408 15:15:50.285318 21720 net.cpp:408] fc7_mbox_priorbox -> fc7_mbox_priorbox
I0408 15:15:50.285369 21720 net.cpp:150] Setting up fc7_mbox_priorbox
I0408 15:15:50.285382 21720 net.cpp:157] Top shape: 1 2 8664 (17328)
I0408 15:15:50.285385 21720 net.cpp:165] Memory required for data: 1134259488
I0408 15:15:50.285390 21720 layer_factory.hpp:77] Creating layer conv6_2_mbox_loc
I0408 15:15:50.285409 21720 net.cpp:100] Creating Layer conv6_2_mbox_loc
I0408 15:15:50.285418 21720 net.cpp:434] conv6_2_mbox_loc <- conv6_2_conv6_2_relu_0_split_1
I0408 15:15:50.285429 21720 net.cpp:408] conv6_2_mbox_loc -> conv6_2_mbox_loc
I0408 15:15:50.290359 21720 net.cpp:150] Setting up conv6_2_mbox_loc
I0408 15:15:50.290380 21720 net.cpp:157] Top shape: 4 24 10 10 (9600)
I0408 15:15:50.290387 21720 net.cpp:165] Memory required for data: 1134297888
I0408 15:15:50.290397 21720 layer_factory.hpp:77] Creating layer conv6_2_mbox_loc_perm
I0408 15:15:50.290411 21720 net.cpp:100] Creating Layer conv6_2_mbox_loc_perm
I0408 15:15:50.290417 21720 net.cpp:434] conv6_2_mbox_loc_perm <- conv6_2_mbox_loc
I0408 15:15:50.290429 21720 net.cpp:408] conv6_2_mbox_loc_perm -> conv6_2_mbox_loc_perm
I0408 15:15:50.290655 21720 net.cpp:150] Setting up conv6_2_mbox_loc_perm
I0408 15:15:50.290670 21720 net.cpp:157] Top shape: 4 10 10 24 (9600)
I0408 15:15:50.290674 21720 net.cpp:165] Memory required for data: 1134336288
I0408 15:15:50.290680 21720 layer_factory.hpp:77] Creating layer conv6_2_mbox_loc_flat
I0408 15:15:50.290689 21720 net.cpp:100] Creating Layer conv6_2_mbox_loc_flat
I0408 15:15:50.290694 21720 net.cpp:434] conv6_2_mbox_loc_flat <- conv6_2_mbox_loc_perm
I0408 15:15:50.290704 21720 net.cpp:408] conv6_2_mbox_loc_flat -> conv6_2_mbox_loc_flat
I0408 15:15:50.290751 21720 net.cpp:150] Setting up conv6_2_mbox_loc_flat
I0408 15:15:50.290765 21720 net.cpp:157] Top shape: 4 2400 (9600)
I0408 15:15:50.290769 21720 net.cpp:165] Memory required for data: 1134374688
I0408 15:15:50.290773 21720 layer_factory.hpp:77] Creating layer conv6_2_mbox_conf
I0408 15:15:50.290791 21720 net.cpp:100] Creating Layer conv6_2_mbox_conf
I0408 15:15:50.290796 21720 net.cpp:434] conv6_2_mbox_conf <- conv6_2_conv6_2_relu_0_split_2
I0408 15:15:50.290805 21720 net.cpp:408] conv6_2_mbox_conf -> conv6_2_mbox_conf
I0408 15:15:50.302748 21720 net.cpp:150] Setting up conv6_2_mbox_conf
I0408 15:15:50.302774 21720 net.cpp:157] Top shape: 4 126 10 10 (50400)
I0408 15:15:50.302783 21720 net.cpp:165] Memory required for data: 1134576288
I0408 15:15:50.302793 21720 layer_factory.hpp:77] Creating layer conv6_2_mbox_conf_perm
I0408 15:15:50.302805 21720 net.cpp:100] Creating Layer conv6_2_mbox_conf_perm
I0408 15:15:50.302832 21720 net.cpp:434] conv6_2_mbox_conf_perm <- conv6_2_mbox_conf
I0408 15:15:50.302845 21720 net.cpp:408] conv6_2_mbox_conf_perm -> conv6_2_mbox_conf_perm
I0408 15:15:50.303109 21720 net.cpp:150] Setting up conv6_2_mbox_conf_perm
I0408 15:15:50.303122 21720 net.cpp:157] Top shape: 4 10 10 126 (50400)
I0408 15:15:50.303128 21720 net.cpp:165] Memory required for data: 1134777888
I0408 15:15:50.303133 21720 layer_factory.hpp:77] Creating layer conv6_2_mbox_conf_flat
I0408 15:15:50.303144 21720 net.cpp:100] Creating Layer conv6_2_mbox_conf_flat
I0408 15:15:50.303150 21720 net.cpp:434] conv6_2_mbox_conf_flat <- conv6_2_mbox_conf_perm
I0408 15:15:50.303161 21720 net.cpp:408] conv6_2_mbox_conf_flat -> conv6_2_mbox_conf_flat
I0408 15:15:50.303208 21720 net.cpp:150] Setting up conv6_2_mbox_conf_flat
I0408 15:15:50.303217 21720 net.cpp:157] Top shape: 4 12600 (50400)
I0408 15:15:50.303221 21720 net.cpp:165] Memory required for data: 1134979488
I0408 15:15:50.303227 21720 layer_factory.hpp:77] Creating layer conv6_2_mbox_priorbox
I0408 15:15:50.303241 21720 net.cpp:100] Creating Layer conv6_2_mbox_priorbox
I0408 15:15:50.303246 21720 net.cpp:434] conv6_2_mbox_priorbox <- conv6_2_conv6_2_relu_0_split_3
I0408 15:15:50.303253 21720 net.cpp:434] conv6_2_mbox_priorbox <- data_data_0_split_3
I0408 15:15:50.303266 21720 net.cpp:408] conv6_2_mbox_priorbox -> conv6_2_mbox_priorbox
I0408 15:15:50.303318 21720 net.cpp:150] Setting up conv6_2_mbox_priorbox
I0408 15:15:50.303328 21720 net.cpp:157] Top shape: 1 2 2400 (4800)
I0408 15:15:50.303331 21720 net.cpp:165] Memory required for data: 1134998688
I0408 15:15:50.303337 21720 layer_factory.hpp:77] Creating layer conv7_2_mbox_loc
I0408 15:15:50.303355 21720 net.cpp:100] Creating Layer conv7_2_mbox_loc
I0408 15:15:50.303364 21720 net.cpp:434] conv7_2_mbox_loc <- conv7_2_conv7_2_relu_0_split_1
I0408 15:15:50.303373 21720 net.cpp:408] conv7_2_mbox_loc -> conv7_2_mbox_loc
I0408 15:15:50.305358 21720 net.cpp:150] Setting up conv7_2_mbox_loc
I0408 15:15:50.305375 21720 net.cpp:157] Top shape: 4 24 5 5 (2400)
I0408 15:15:50.305380 21720 net.cpp:165] Memory required for data: 1135008288
I0408 15:15:50.305390 21720 layer_factory.hpp:77] Creating layer conv7_2_mbox_loc_perm
I0408 15:15:50.305403 21720 net.cpp:100] Creating Layer conv7_2_mbox_loc_perm
I0408 15:15:50.305409 21720 net.cpp:434] conv7_2_mbox_loc_perm <- conv7_2_mbox_loc
I0408 15:15:50.305423 21720 net.cpp:408] conv7_2_mbox_loc_perm -> conv7_2_mbox_loc_perm
I0408 15:15:50.305639 21720 net.cpp:150] Setting up conv7_2_mbox_loc_perm
I0408 15:15:50.305650 21720 net.cpp:157] Top shape: 4 5 5 24 (2400)
I0408 15:15:50.305655 21720 net.cpp:165] Memory required for data: 1135017888
I0408 15:15:50.305660 21720 layer_factory.hpp:77] Creating layer conv7_2_mbox_loc_flat
I0408 15:15:50.305667 21720 net.cpp:100] Creating Layer conv7_2_mbox_loc_flat
I0408 15:15:50.305673 21720 net.cpp:434] conv7_2_mbox_loc_flat <- conv7_2_mbox_loc_perm
I0408 15:15:50.305683 21720 net.cpp:408] conv7_2_mbox_loc_flat -> conv7_2_mbox_loc_flat
I0408 15:15:50.305729 21720 net.cpp:150] Setting up conv7_2_mbox_loc_flat
I0408 15:15:50.305739 21720 net.cpp:157] Top shape: 4 600 (2400)
I0408 15:15:50.305745 21720 net.cpp:165] Memory required for data: 1135027488
I0408 15:15:50.305749 21720 layer_factory.hpp:77] Creating layer conv7_2_mbox_conf
I0408 15:15:50.305765 21720 net.cpp:100] Creating Layer conv7_2_mbox_conf
I0408 15:15:50.305770 21720 net.cpp:434] conv7_2_mbox_conf <- conv7_2_conv7_2_relu_0_split_2
I0408 15:15:50.305783 21720 net.cpp:408] conv7_2_mbox_conf -> conv7_2_mbox_conf
I0408 15:15:50.313938 21720 net.cpp:150] Setting up conv7_2_mbox_conf
I0408 15:15:50.313961 21720 net.cpp:157] Top shape: 4 126 5 5 (12600)
I0408 15:15:50.313966 21720 net.cpp:165] Memory required for data: 1135077888
I0408 15:15:50.313978 21720 layer_factory.hpp:77] Creating layer conv7_2_mbox_conf_perm
I0408 15:15:50.313992 21720 net.cpp:100] Creating Layer conv7_2_mbox_conf_perm
I0408 15:15:50.314000 21720 net.cpp:434] conv7_2_mbox_conf_perm <- conv7_2_mbox_conf
I0408 15:15:50.314028 21720 net.cpp:408] conv7_2_mbox_conf_perm -> conv7_2_mbox_conf_perm
I0408 15:15:50.314267 21720 net.cpp:150] Setting up conv7_2_mbox_conf_perm
I0408 15:15:50.314280 21720 net.cpp:157] Top shape: 4 5 5 126 (12600)
I0408 15:15:50.314283 21720 net.cpp:165] Memory required for data: 1135128288
I0408 15:15:50.314288 21720 layer_factory.hpp:77] Creating layer conv7_2_mbox_conf_flat
I0408 15:15:50.314301 21720 net.cpp:100] Creating Layer conv7_2_mbox_conf_flat
I0408 15:15:50.314306 21720 net.cpp:434] conv7_2_mbox_conf_flat <- conv7_2_mbox_conf_perm
I0408 15:15:50.314314 21720 net.cpp:408] conv7_2_mbox_conf_flat -> conv7_2_mbox_conf_flat
I0408 15:15:50.314364 21720 net.cpp:150] Setting up conv7_2_mbox_conf_flat
I0408 15:15:50.314374 21720 net.cpp:157] Top shape: 4 3150 (12600)
I0408 15:15:50.314379 21720 net.cpp:165] Memory required for data: 1135178688
I0408 15:15:50.314383 21720 layer_factory.hpp:77] Creating layer conv7_2_mbox_priorbox
I0408 15:15:50.314395 21720 net.cpp:100] Creating Layer conv7_2_mbox_priorbox
I0408 15:15:50.314402 21720 net.cpp:434] conv7_2_mbox_priorbox <- conv7_2_conv7_2_relu_0_split_3
I0408 15:15:50.314409 21720 net.cpp:434] conv7_2_mbox_priorbox <- data_data_0_split_4
I0408 15:15:50.314419 21720 net.cpp:408] conv7_2_mbox_priorbox -> conv7_2_mbox_priorbox
I0408 15:15:50.314468 21720 net.cpp:150] Setting up conv7_2_mbox_priorbox
I0408 15:15:50.314478 21720 net.cpp:157] Top shape: 1 2 600 (1200)
I0408 15:15:50.314483 21720 net.cpp:165] Memory required for data: 1135183488
I0408 15:15:50.314487 21720 layer_factory.hpp:77] Creating layer conv8_2_mbox_loc
I0408 15:15:50.314503 21720 net.cpp:100] Creating Layer conv8_2_mbox_loc
I0408 15:15:50.314512 21720 net.cpp:434] conv8_2_mbox_loc <- conv8_2_conv8_2_relu_0_split_1
I0408 15:15:50.314523 21720 net.cpp:408] conv8_2_mbox_loc -> conv8_2_mbox_loc
I0408 15:15:50.318873 21720 net.cpp:150] Setting up conv8_2_mbox_loc
I0408 15:15:50.318894 21720 net.cpp:157] Top shape: 4 16 3 3 (576)
I0408 15:15:50.318900 21720 net.cpp:165] Memory required for data: 1135185792
I0408 15:15:50.318912 21720 layer_factory.hpp:77] Creating layer conv8_2_mbox_loc_perm
I0408 15:15:50.318924 21720 net.cpp:100] Creating Layer conv8_2_mbox_loc_perm
I0408 15:15:50.318930 21720 net.cpp:434] conv8_2_mbox_loc_perm <- conv8_2_mbox_loc
I0408 15:15:50.318943 21720 net.cpp:408] conv8_2_mbox_loc_perm -> conv8_2_mbox_loc_perm
I0408 15:15:50.319176 21720 net.cpp:150] Setting up conv8_2_mbox_loc_perm
I0408 15:15:50.319187 21720 net.cpp:157] Top shape: 4 3 3 16 (576)
I0408 15:15:50.319192 21720 net.cpp:165] Memory required for data: 1135188096
I0408 15:15:50.319198 21720 layer_factory.hpp:77] Creating layer conv8_2_mbox_loc_flat
I0408 15:15:50.319206 21720 net.cpp:100] Creating Layer conv8_2_mbox_loc_flat
I0408 15:15:50.319211 21720 net.cpp:434] conv8_2_mbox_loc_flat <- conv8_2_mbox_loc_perm
I0408 15:15:50.319221 21720 net.cpp:408] conv8_2_mbox_loc_flat -> conv8_2_mbox_loc_flat
I0408 15:15:50.319272 21720 net.cpp:150] Setting up conv8_2_mbox_loc_flat
I0408 15:15:50.319281 21720 net.cpp:157] Top shape: 4 144 (576)
I0408 15:15:50.319285 21720 net.cpp:165] Memory required for data: 1135190400
I0408 15:15:50.319290 21720 layer_factory.hpp:77] Creating layer conv8_2_mbox_conf
I0408 15:15:50.319306 21720 net.cpp:100] Creating Layer conv8_2_mbox_conf
I0408 15:15:50.319313 21720 net.cpp:434] conv8_2_mbox_conf <- conv8_2_conv8_2_relu_0_split_2
I0408 15:15:50.319324 21720 net.cpp:408] conv8_2_mbox_conf -> conv8_2_mbox_conf
I0408 15:15:50.324995 21720 net.cpp:150] Setting up conv8_2_mbox_conf
I0408 15:15:50.325017 21720 net.cpp:157] Top shape: 4 84 3 3 (3024)
I0408 15:15:50.325022 21720 net.cpp:165] Memory required for data: 1135202496
I0408 15:15:50.325033 21720 layer_factory.hpp:77] Creating layer conv8_2_mbox_conf_perm
I0408 15:15:50.325047 21720 net.cpp:100] Creating Layer conv8_2_mbox_conf_perm
I0408 15:15:50.325053 21720 net.cpp:434] conv8_2_mbox_conf_perm <- conv8_2_mbox_conf
I0408 15:15:50.325062 21720 net.cpp:408] conv8_2_mbox_conf_perm -> conv8_2_mbox_conf_perm
I0408 15:15:50.325304 21720 net.cpp:150] Setting up conv8_2_mbox_conf_perm
I0408 15:15:50.325316 21720 net.cpp:157] Top shape: 4 3 3 84 (3024)
I0408 15:15:50.325322 21720 net.cpp:165] Memory required for data: 1135214592
I0408 15:15:50.325327 21720 layer_factory.hpp:77] Creating layer conv8_2_mbox_conf_flat
I0408 15:15:50.325338 21720 net.cpp:100] Creating Layer conv8_2_mbox_conf_flat
I0408 15:15:50.325345 21720 net.cpp:434] conv8_2_mbox_conf_flat <- conv8_2_mbox_conf_perm
I0408 15:15:50.325353 21720 net.cpp:408] conv8_2_mbox_conf_flat -> conv8_2_mbox_conf_flat
I0408 15:15:50.325404 21720 net.cpp:150] Setting up conv8_2_mbox_conf_flat
I0408 15:15:50.325414 21720 net.cpp:157] Top shape: 4 756 (3024)
I0408 15:15:50.325418 21720 net.cpp:165] Memory required for data: 1135226688
I0408 15:15:50.325424 21720 layer_factory.hpp:77] Creating layer conv8_2_mbox_priorbox
I0408 15:15:50.325436 21720 net.cpp:100] Creating Layer conv8_2_mbox_priorbox
I0408 15:15:50.325443 21720 net.cpp:434] conv8_2_mbox_priorbox <- conv8_2_conv8_2_relu_0_split_3
I0408 15:15:50.325449 21720 net.cpp:434] conv8_2_mbox_priorbox <- data_data_0_split_5
I0408 15:15:50.325459 21720 net.cpp:408] conv8_2_mbox_priorbox -> conv8_2_mbox_priorbox
I0408 15:15:50.325510 21720 net.cpp:150] Setting up conv8_2_mbox_priorbox
I0408 15:15:50.325520 21720 net.cpp:157] Top shape: 1 2 144 (288)
I0408 15:15:50.325525 21720 net.cpp:165] Memory required for data: 1135227840
I0408 15:15:50.325531 21720 layer_factory.hpp:77] Creating layer conv9_2_mbox_loc
I0408 15:15:50.325546 21720 net.cpp:100] Creating Layer conv9_2_mbox_loc
I0408 15:15:50.325552 21720 net.cpp:434] conv9_2_mbox_loc <- conv9_2_conv9_2_relu_0_split_0
I0408 15:15:50.325565 21720 net.cpp:408] conv9_2_mbox_loc -> conv9_2_mbox_loc
I0408 15:15:50.328853 21720 net.cpp:150] Setting up conv9_2_mbox_loc
I0408 15:15:50.328874 21720 net.cpp:157] Top shape: 4 16 1 1 (64)
I0408 15:15:50.328879 21720 net.cpp:165] Memory required for data: 1135228096
I0408 15:15:50.328891 21720 layer_factory.hpp:77] Creating layer conv9_2_mbox_loc_perm
I0408 15:15:50.328904 21720 net.cpp:100] Creating Layer conv9_2_mbox_loc_perm
I0408 15:15:50.328910 21720 net.cpp:434] conv9_2_mbox_loc_perm <- conv9_2_mbox_loc
I0408 15:15:50.328922 21720 net.cpp:408] conv9_2_mbox_loc_perm -> conv9_2_mbox_loc_perm
I0408 15:15:50.329133 21720 net.cpp:150] Setting up conv9_2_mbox_loc_perm
I0408 15:15:50.329147 21720 net.cpp:157] Top shape: 4 1 1 16 (64)
I0408 15:15:50.329152 21720 net.cpp:165] Memory required for data: 1135228352
I0408 15:15:50.329156 21720 layer_factory.hpp:77] Creating layer conv9_2_mbox_loc_flat
I0408 15:15:50.329165 21720 net.cpp:100] Creating Layer conv9_2_mbox_loc_flat
I0408 15:15:50.329171 21720 net.cpp:434] conv9_2_mbox_loc_flat <- conv9_2_mbox_loc_perm
I0408 15:15:50.329180 21720 net.cpp:408] conv9_2_mbox_loc_flat -> conv9_2_mbox_loc_flat
I0408 15:15:50.329231 21720 net.cpp:150] Setting up conv9_2_mbox_loc_flat
I0408 15:15:50.329242 21720 net.cpp:157] Top shape: 4 16 (64)
I0408 15:15:50.329248 21720 net.cpp:165] Memory required for data: 1135228608
I0408 15:15:50.329253 21720 layer_factory.hpp:77] Creating layer conv9_2_mbox_conf
I0408 15:15:50.329268 21720 net.cpp:100] Creating Layer conv9_2_mbox_conf
I0408 15:15:50.329277 21720 net.cpp:434] conv9_2_mbox_conf <- conv9_2_conv9_2_relu_0_split_1
I0408 15:15:50.329288 21720 net.cpp:408] conv9_2_mbox_conf -> conv9_2_mbox_conf
I0408 15:15:50.335114 21720 net.cpp:150] Setting up conv9_2_mbox_conf
I0408 15:15:50.335136 21720 net.cpp:157] Top shape: 4 84 1 1 (336)
I0408 15:15:50.335141 21720 net.cpp:165] Memory required for data: 1135229952
I0408 15:15:50.335153 21720 layer_factory.hpp:77] Creating layer conv9_2_mbox_conf_perm
I0408 15:15:50.335166 21720 net.cpp:100] Creating Layer conv9_2_mbox_conf_perm
I0408 15:15:50.335172 21720 net.cpp:434] conv9_2_mbox_conf_perm <- conv9_2_mbox_conf
I0408 15:15:50.335181 21720 net.cpp:408] conv9_2_mbox_conf_perm -> conv9_2_mbox_conf_perm
I0408 15:15:50.335407 21720 net.cpp:150] Setting up conv9_2_mbox_conf_perm
I0408 15:15:50.335419 21720 net.cpp:157] Top shape: 4 1 1 84 (336)
I0408 15:15:50.335440 21720 net.cpp:165] Memory required for data: 1135231296
I0408 15:15:50.335445 21720 layer_factory.hpp:77] Creating layer conv9_2_mbox_conf_flat
I0408 15:15:50.335458 21720 net.cpp:100] Creating Layer conv9_2_mbox_conf_flat
I0408 15:15:50.335464 21720 net.cpp:434] conv9_2_mbox_conf_flat <- conv9_2_mbox_conf_perm
I0408 15:15:50.335471 21720 net.cpp:408] conv9_2_mbox_conf_flat -> conv9_2_mbox_conf_flat
I0408 15:15:50.335525 21720 net.cpp:150] Setting up conv9_2_mbox_conf_flat
I0408 15:15:50.335536 21720 net.cpp:157] Top shape: 4 84 (336)
I0408 15:15:50.335541 21720 net.cpp:165] Memory required for data: 1135232640
I0408 15:15:50.335546 21720 layer_factory.hpp:77] Creating layer conv9_2_mbox_priorbox
I0408 15:15:50.335557 21720 net.cpp:100] Creating Layer conv9_2_mbox_priorbox
I0408 15:15:50.335564 21720 net.cpp:434] conv9_2_mbox_priorbox <- conv9_2_conv9_2_relu_0_split_2
I0408 15:15:50.335572 21720 net.cpp:434] conv9_2_mbox_priorbox <- data_data_0_split_6
I0408 15:15:50.335580 21720 net.cpp:408] conv9_2_mbox_priorbox -> conv9_2_mbox_priorbox
I0408 15:15:50.335633 21720 net.cpp:150] Setting up conv9_2_mbox_priorbox
I0408 15:15:50.335644 21720 net.cpp:157] Top shape: 1 2 16 (32)
I0408 15:15:50.335647 21720 net.cpp:165] Memory required for data: 1135232768
I0408 15:15:50.335652 21720 layer_factory.hpp:77] Creating layer mbox_loc
I0408 15:15:50.335664 21720 net.cpp:100] Creating Layer mbox_loc
I0408 15:15:50.335672 21720 net.cpp:434] mbox_loc <- conc1_norm_mbox_loc_flat
I0408 15:15:50.335680 21720 net.cpp:434] mbox_loc <- fc7_mbox_loc_flat
I0408 15:15:50.335687 21720 net.cpp:434] mbox_loc <- conv6_2_mbox_loc_flat
I0408 15:15:50.335693 21720 net.cpp:434] mbox_loc <- conv7_2_mbox_loc_flat
I0408 15:15:50.335700 21720 net.cpp:434] mbox_loc <- conv8_2_mbox_loc_flat
I0408 15:15:50.335706 21720 net.cpp:434] mbox_loc <- conv9_2_mbox_loc_flat
I0408 15:15:50.335713 21720 net.cpp:408] mbox_loc -> mbox_loc
I0408 15:15:50.335767 21720 net.cpp:150] Setting up mbox_loc
I0408 15:15:50.335777 21720 net.cpp:157] Top shape: 4 34928 (139712)
I0408 15:15:50.335783 21720 net.cpp:165] Memory required for data: 1135791616
I0408 15:15:50.335788 21720 layer_factory.hpp:77] Creating layer mbox_conf
I0408 15:15:50.335795 21720 net.cpp:100] Creating Layer mbox_conf
I0408 15:15:50.335803 21720 net.cpp:434] mbox_conf <- conc1_norm_mbox_conf_flat
I0408 15:15:50.335809 21720 net.cpp:434] mbox_conf <- fc7_mbox_conf_flat
I0408 15:15:50.335816 21720 net.cpp:434] mbox_conf <- conv6_2_mbox_conf_flat
I0408 15:15:50.335822 21720 net.cpp:434] mbox_conf <- conv7_2_mbox_conf_flat
I0408 15:15:50.335829 21720 net.cpp:434] mbox_conf <- conv8_2_mbox_conf_flat
I0408 15:15:50.335834 21720 net.cpp:434] mbox_conf <- conv9_2_mbox_conf_flat
I0408 15:15:50.335842 21720 net.cpp:408] mbox_conf -> mbox_conf
I0408 15:15:50.335889 21720 net.cpp:150] Setting up mbox_conf
I0408 15:15:50.335901 21720 net.cpp:157] Top shape: 4 183372 (733488)
I0408 15:15:50.335904 21720 net.cpp:165] Memory required for data: 1138725568
I0408 15:15:50.335909 21720 layer_factory.hpp:77] Creating layer mbox_priorbox
I0408 15:15:50.335916 21720 net.cpp:100] Creating Layer mbox_priorbox
I0408 15:15:50.335923 21720 net.cpp:434] mbox_priorbox <- conc1_norm_mbox_priorbox
I0408 15:15:50.335930 21720 net.cpp:434] mbox_priorbox <- fc7_mbox_priorbox
I0408 15:15:50.335937 21720 net.cpp:434] mbox_priorbox <- conv6_2_mbox_priorbox
I0408 15:15:50.335942 21720 net.cpp:434] mbox_priorbox <- conv7_2_mbox_priorbox
I0408 15:15:50.335948 21720 net.cpp:434] mbox_priorbox <- conv8_2_mbox_priorbox
I0408 15:15:50.335954 21720 net.cpp:434] mbox_priorbox <- conv9_2_mbox_priorbox
I0408 15:15:50.335961 21720 net.cpp:408] mbox_priorbox -> mbox_priorbox
I0408 15:15:50.336005 21720 net.cpp:150] Setting up mbox_priorbox
I0408 15:15:50.336015 21720 net.cpp:157] Top shape: 1 2 34928 (69856)
I0408 15:15:50.336020 21720 net.cpp:165] Memory required for data: 1139004992
I0408 15:15:50.336025 21720 layer_factory.hpp:77] Creating layer mbox_conf_reshape
I0408 15:15:50.336041 21720 net.cpp:100] Creating Layer mbox_conf_reshape
I0408 15:15:50.336058 21720 net.cpp:434] mbox_conf_reshape <- mbox_conf
I0408 15:15:50.336067 21720 net.cpp:408] mbox_conf_reshape -> mbox_conf_reshape
I0408 15:15:50.336130 21720 net.cpp:150] Setting up mbox_conf_reshape
I0408 15:15:50.336141 21720 net.cpp:157] Top shape: 4 8732 21 (733488)
I0408 15:15:50.336148 21720 net.cpp:165] Memory required for data: 1141938944
I0408 15:15:50.336153 21720 layer_factory.hpp:77] Creating layer mbox_conf_softmax
I0408 15:15:50.336164 21720 net.cpp:100] Creating Layer mbox_conf_softmax
I0408 15:15:50.336170 21720 net.cpp:434] mbox_conf_softmax <- mbox_conf_reshape
I0408 15:15:50.336179 21720 net.cpp:408] mbox_conf_softmax -> mbox_conf_softmax
I0408 15:15:50.336623 21720 net.cpp:150] Setting up mbox_conf_softmax
I0408 15:15:50.336642 21720 net.cpp:157] Top shape: 4 8732 21 (733488)
I0408 15:15:50.336647 21720 net.cpp:165] Memory required for data: 1144872896
I0408 15:15:50.336653 21720 layer_factory.hpp:77] Creating layer mbox_conf_flatten
I0408 15:15:50.336661 21720 net.cpp:100] Creating Layer mbox_conf_flatten
I0408 15:15:50.336666 21720 net.cpp:434] mbox_conf_flatten <- mbox_conf_softmax
I0408 15:15:50.336676 21720 net.cpp:408] mbox_conf_flatten -> mbox_conf_flatten
I0408 15:15:50.336725 21720 net.cpp:150] Setting up mbox_conf_flatten
I0408 15:15:50.336735 21720 net.cpp:157] Top shape: 4 183372 (733488)
I0408 15:15:50.336740 21720 net.cpp:165] Memory required for data: 1147806848
I0408 15:15:50.336745 21720 layer_factory.hpp:77] Creating layer detection_out
I0408 15:15:50.336769 21720 net.cpp:100] Creating Layer detection_out
I0408 15:15:50.336776 21720 net.cpp:434] detection_out <- mbox_loc
I0408 15:15:50.336783 21720 net.cpp:434] detection_out <- mbox_conf_flatten
I0408 15:15:50.336789 21720 net.cpp:434] detection_out <- mbox_priorbox
I0408 15:15:50.336799 21720 net.cpp:408] detection_out -> detection_out
W0408 15:15:50.336854 21720 detection_output_layer.cpp:49] Failed to create directory: /home/yanzhiwei/data/VOCdevkit/results/VOC2007/SSD_up_lessparam_fusion_300x300/Main
I0408 15:15:50.339563 21720 net.cpp:150] Setting up detection_out
I0408 15:15:50.339582 21720 net.cpp:157] Top shape: 1 1 1 7 (7)
I0408 15:15:50.339588 21720 net.cpp:165] Memory required for data: 1147806876
I0408 15:15:50.339593 21720 layer_factory.hpp:77] Creating layer detection_eval
I0408 15:15:50.339606 21720 net.cpp:100] Creating Layer detection_eval
I0408 15:15:50.339612 21720 net.cpp:434] detection_eval <- detection_out
I0408 15:15:50.339619 21720 net.cpp:434] detection_eval <- label
I0408 15:15:50.339628 21720 net.cpp:408] detection_eval -> detection_eval
I0408 15:15:50.341279 21720 net.cpp:150] Setting up detection_eval
I0408 15:15:50.341291 21720 net.cpp:157] Top shape: 1 1 21 5 (105)
I0408 15:15:50.341297 21720 net.cpp:165] Memory required for data: 1147807296
I0408 15:15:50.341302 21720 net.cpp:228] detection_eval does not need backward computation.
I0408 15:15:50.341310 21720 net.cpp:228] detection_out does not need backward computation.
I0408 15:15:50.341316 21720 net.cpp:228] mbox_conf_flatten does not need backward computation.
I0408 15:15:50.341322 21720 net.cpp:228] mbox_conf_softmax does not need backward computation.
…
