…
      sampler {
        min_scale: 0.3
        max_scale: 1
        min_aspect_ratio: 0.5
        max_aspect_ratio: 2
      }
      sample_constraint {
        min_jaccard_overlap: 0.9
      }
      max_sample: 1
      max_trials: 50
    }
    batch_sampler {
      sampler {
        min_scale: 0.3
        max_scale: 1
        min_aspect_ratio: 0.5
        max_aspect_ratio: 2
      }
      sample_constraint {
        max_jaccard_overlap: 1
      }
      max_sample: 1
      max_trials: 50
    }
    label_map_file: "data/VOC0712/labelmap_voc.prototxt"
  }
}
layer {
  name: "conv1_1"
  type: "Convolution"
  bottom: "data"
  top: "conv1_1"
  param {
    lr_mult: 1
    decay_mult: 1
  }
  param {
    lr_mult: 2
    decay_mult: 0
  }
  convolution_param {
    num_output: 64
    pad: 1
    kernel_size: 3
    weight_filler {
      type: "xavier"
    }
    bias_filler {
      type: "constant"
      value: 0
    }
  }
}
layer {
  name: "relu1_1"
  type: "ReLU"
  bottom: "conv1_1"
  top: "conv1_1"
}
layer {
  name: "conv1_2"
  type: "Convolution"
  bottom: "conv1_1"
  top: "conv1_2"
  param {
    lr_mult: 1
    decay_mult: 1
  }
  param {
    lr_mult: 2
    decay_mult: 0
  }
  convolution_param {
    num_output: 64
    pad: 1
    kernel_size: 3
    weight_filler {
      type: "xavier"
    }
    bias_filler {
      type: "constant"
      value: 0
    }
  }
}
layer {
  name: "relu1_2"
  type: "ReLU"
  bottom: "conv1_2"
  top: "conv1_2"
}
layer {
  name: "pool1"
  type: "Pooling"
  bottom: "conv1_2"
  top: "pool1"
  pooling_param {
    pool: MAX
    kernel_size: 2
    stride: 2
  }
}
layer {
  name: "conv2_1"
  type: "Convolution"
  bottom: "pool1"
  top: "conv2_1"
  param {
    lr_mult: 1
    decay_mult: 1
  }
  param {
    lr_mult: 2
    decay_mult: 0
  }
  convolution_param {
    num_output: 128
    pad: 1
    kernel_size: 3
    weight_filler {
      type: "xavier"
    }
    bias_filler {
      type: "constant"
      value: 0
    }
  }
}
layer {
  name: "relu2_1"
  type: "ReLU"
  bottom: "conv2_1"
  top: "conv2_1"
}
layer {
  name: "conv2_2"
  type: "Convolution"
  bottom: "conv2_1"
  top: "conv2_2"
  param {
    lr_mult: 1
    decay_mult: 1
  }
  param {
    lr_mult: 2
    decay_mult: 0
  }
  convolution_param {
    num_output: 128
    pad: 1
    kernel_size: 3
    weight_filler {
      type: "xavier"
    }
    bias_filler {
      type: "constant"
      value: 0
    }
  }
}
layer {
  name: "relu2_2"
  type: "ReLU"
  bottom: "conv2_2"
  top: "conv2_2"
}
layer {
  name: "pool2"
  type: "Pooling"
  bottom: "conv2_2"
  top: "pool2"
  pooling_param {
    pool: MAX
    kernel_size: 2
    stride: 2
  }
}
layer {
  name: "conv3_1"
  type: "Convolution"
  bottom: "pool2"
  top: "conv3_1"
  param {
    lr_mult: 1
    decay_mult: 1
  }
  param {
    lr_mult: 2
    decay_mult: 0
  }
  convolution_param {
    num_output: 256
    pad: 1
    kernel_size: 3
    weight_filler {
      type: "xavier"
    }
    bias_filler {
      type: "constant"
      value: 0
    }
  }
}
layer {
  name: "relu3_1"
  type: "ReLU"
  bottom: "conv3_1"
  top: "conv3_1"
}
layer {
  name: "conv3_2"
  type: "Convolution"
  bottom: "conv3_1"
  top: "conv3_2"
  param {
    lr_mult: 1
    decay_mult: 1
  }
  param {
    lr_mult: 2
    decay_mult: 0
  }
  convolution_param {
    num_output: 256
    pad: 1
    kernel_size: 3
    weight_filler {
      type: "xavier"
    }
    bias_filler {
      type: "constant"
      value: 0
    }
  }
}
layer {
  name: "relu3_2"
  type: "ReLU"
  bottom: "conv3_2"
  top: "conv3_2"
}
layer {
  name: "conv3_3"
  type: "Convolution"
  bottom: "conv3_2"
  top: "conv3_3"
  param {
    lr_mult: 1
    decay_mult: 1
  }
  param {
    lr_mult: 2
    decay_mult: 0
  }
  convolution_param {
    num_output: 256
    pad: 1
    kernel_size: 3
    weight_filler {
      type: "xavier"
    }
    bias_filler {
      type: "constant"
      value: 0
    }
  }
}
layer {
  name: "relu3_3"
  type: "ReLU"
  bottom: "conv3_3"
  top: "conv3_3"
}
layer {
  name: "pool3"
  type: "Pooling"
  bottom: "conv3_3"
  top: "pool3"
  pooling_param {
    pool: MAX
    kernel_size: 2
    stride: 2
  }
}
layer {
  name: "conv4_1"
  type: "Convolution"
  bottom: "pool3"
  top: "conv4_1"
  param {
    lr_mult: 1
    decay_mult: 1
  }
  param {
    lr_mult: 2
    decay_mult: 0
  }
  convolution_param {
    num_output: 512
    pad: 1
    kernel_size: 3
    weight_filler {
      type: "xavier"
    }
    bias_filler {
      type: "constant"
      value: 0
    }
  }
}
layer {
  name: "relu4_1"
  type: "ReLU"
  bottom: "conv4_1"
  top: "conv4_1"
}
layer {
  name: "conv4_2"
  type: "Convolution"
  bottom: "conv4_1"
  top: "conv4_2"
  param {
    lr_mult: 1
    decay_mult: 1
  }
  param {
    lr_mult: 2
    decay_mult: 0
  }
  convolution_param {
    num_output: 512
    pad: 1
    kernel_size: 3
    weight_filler {
      type: "xavier"
    }
    bias_filler {
      type: "constant"
      value: 0
    }
  }
}
layer {
  name: "relu4_2"
  type: "ReLU"
  bottom: "conv4_2"
  top: "conv4_2"
}
layer {
  name: "conv4_3"
  type: "Convolution"
  bottom: "conv4_2"
  top: "conv4_3"
  param {
    lr_mult: 1
    decay_mult: 1
  }
  param {
    lr_mult: 2
    decay_mult: 0
  }
  convolution_param {
    num_output: 512
    pad: 1
    kernel_size: 3
    weight_filler {
      type: "xavier"
    }
    bias_filler {
      type: "constant"
      value: 0
    }
  }
}
layer {
  name: "relu4_3"
  type: "ReLU"
  bottom: "conv4_3"
  top: "conv4_3"
}
layer {
  name: "pool4"
  type: "Pooling"
  bottom: "conv4_3"
  top: "pool4"
  pooling_param {
    pool: MAX
    kernel_size: 2
    stride: 2
  }
}
layer {
  name: "conv5_1"
  type: "Convolution"
  bottom: "pool4"
  top: "conv5_1"
  param {
    lr_mult: 1
    decay_mult: 1
  }
  param {
    lr_mult: 2
    decay_mult: 0
  }
  convolution_param {
    num_output: 512
    pad: 1
    kernel_size: 3
    weight_filler {
      type: "xavier"
    }
    bias_filler {
      type: "constant"
      value: 0
    }
    dilation: 1
  }
}
layer {
  name: "relu5_1"
  type: "ReLU"
  bottom: "conv5_1"
  top: "conv5_1"
}
layer {
  name: "conv5_2"
  type: "Convolution"
  bottom: "conv5_1"
  top: "conv5_2"
  param {
    lr_mult: 1
    decay_mult: 1
  }
  param {
    lr_mult: 2
    decay_mult: 0
  }
  convolution_param {
    num_output: 512
    pad: 1
    kernel_size: 3
    weight_filler {
      type: "xavier"
    }
    bias_filler {
      type: "constant"
      value: 0
    }
    dilation: 1
  }
}
layer {
  name: "relu5_2"
  type: "ReLU"
  bottom: "conv5_2"
  top: "conv5_2"
}
layer {
  name: "conv5_3"
  type: "Convolution"
  bottom: "conv5_2"
  top: "conv5_3"
  param {
    lr_mult: 1
    decay_mult: 1
  }
  param {
    lr_mult: 2
    decay_mult: 0
  }
  convolution_param {
    num_output: 512
    pad: 1
    kernel_size: 3
    weight_filler {
      type: "xavier"
    }
    bias_filler {
      type: "constant"
      value: 0
    }
    dilation: 1
  }
}
layer {
  name: "relu5_3"
  type: "ReLU"
  bottom: "conv5_3"
  top: "conv5_3"
}
layer {
  name: "pool5"
  type: "Pooling"
  bottom: "conv5_3"
  top: "pool5"
  pooling_param {
    pool: MAX
    kernel_size: 3
    stride: 1
    pad: 1
  }
}
layer {
  name: "fc6"
  type: "Convolution"
  bottom: "pool5"
  top: "fc6"
  param {
    lr_mult: 1
    decay_mult: 1
  }
  param {
    lr_mult: 2
    decay_mult: 0
  }
  convolution_param {
    num_output: 1024
    pad: 6
    kernel_size: 3
    weight_filler {
      type: "xavier"
    }
    bias_filler {
      type: "constant"
      value: 0
    }
    dilation: 6
  }
}
layer {
  name: "relu6"
  type: "ReLU"
  bottom: "fc6"
  top: "fc6"
}
layer {
  name: "fc7"
  type: "Convolution"
  bottom: "fc6"
  top: "fc7"
  param {
    lr_mult: 1
    decay_mult: 1
  }
  param {
    lr_mult: 2
    decay_mult: 0
  }
  convolution_param {
    num_output: 1024
    kernel_size: 1
    weight_filler {
      type: "xavier"
    }
    bias_filler {
      type: "constant"
      value: 0
    }
  }
}
layer {
  name: "relu7"
  type: "ReLU"
  bottom: "fc7"
  top: "fc7"
}
layer {
  name: "conv6_1"
  type: "Convolution"
  bottom: "fc7"
  top: "conv6_1"
  param {
    lr_mult: 1
    decay_mult: 1
  }
  param {
    lr_mult: 2
    decay_mult: 0
  }
  convolution_param {
    num_output: 256
    pad: 0
    kernel_size: 1
    stride: 1
    weight_filler {
      type: "xavier"
    }
    bias_filler {
      type: "constant"
      value: 0
    }
  }
}
layer {
  name: "conv6_1_relu"
  type: "ReLU"
  bottom: "conv6_1"
  top: "conv6_1"
}
layer {
  name: "conv6_2"
  type: "Convolution"
  bottom: "conv6_1"
  top: "conv6_2"
  param {
    lr_mult: 1
    decay_mult: 1
  }
  param {
    lr_mult: 2
    decay_mult: 0
  }
  convolution_param {
    num_output: 512
    pad: 1
    kernel_size: 3
    stride: 2
    weight_filler {
      type: "xavier"
    }
    bias_filler {
      type: "constant"
      value: 0
    }
  }
}
layer {
  name: "conv6_2_relu"
  type: "ReLU"
  bottom: "conv6_2"
  top: "conv6_2"
}
layer {
  name: "conv7_1"
  type: "Convolution"
  bottom: "conv6_2"
  top: "conv7_1"
  param {
    lr_mult: 1
    decay_mult: 1
  }
  param {
    lr_mult: 2
    decay_mult: 0
  }
  convolution_param {
    num_output: 128
    pad: 0
    kernel_size: 1
    stride: 1
    weight_filler {
      type: "xavier"
    }
    bias_filler {
      type: "constant"
      value: 0
    }
  }
}
layer {
  name: "conv7_1_relu"
  type: "ReLU"
  bottom: "conv7_1"
  top: "conv7_1"
}
layer {
  name: "conv7_2"
  type: "Convolution"
  bottom: "conv7_1"
  top: "conv7_2"
  param {
    lr_mult: 1
    decay_mult: 1
  }
  param {
    lr_mult: 2
    decay_mult: 0
  }
  convolution_param {
    num_output: 256
    pad: 1
    kernel_size: 3
    stride: 2
    weight_filler {
      type: "xavier"
    }
    bias_filler {
      type: "constant"
      value: 0
    }
  }
}
layer {
  name: "conv7_2_relu"
  type: "ReLU"
  bottom: "conv7_2"
  top: "conv7_2"
}
layer {
  name: "conv8_1"
  type: "Convolution"
  bottom: "conv7_2"
  top: "conv8_1"
  param {
    lr_mult: 1
    decay_mult: 1
  }
  param {
    lr_mult: 2
    decay_mult: 0
  }
  convolution_param {
    num_output: 128
    pad: 0
    kernel_size: 1
    stride: 1
    weight_filler {
      type: "xavier"
    }
    bias_filler {
      type: "constant"
      value: 0
    }
  }
}
layer {
  name: "conv8_1_relu"
  type: "ReLU"
  bottom: "conv8_1"
  top: "conv8_1"
}
layer {
  name: "conv8_2"
  type: "Convolution"
  bottom: "conv8_1"
  top: "conv8_2"
  param {
    lr_mult: 1
    decay_mult: 1
  }
  param {
    lr_mult: 2
    decay_mult: 0
  }
  convolution_param {
    num_output: 256
    pad: 0
    kernel_size: 3
    stride: 1
    weight_filler {
      type: "xavier"
    }
    bias_filler {
      type: "constant"
      value: 0
    }
  }
}
layer {
  name: "conv8_2_relu"
  type: "ReLU"
  bottom: "conv8_2"
  top: "conv8_2"
}
layer {
  name: "conv9_1"
  type: "Convolution"
  bottom: "conv8_2"
  top: "conv9_1"
  param {
    lr_mult: 1
    decay_mult: 1
  }
  param {
    lr_mult: 2
    decay_mult: 0
  }
  convolution_param {
    num_output: 128
    pad: 0
    kernel_size: 1
    stride: 1
    weight_filler {
      type: "xavier"
    }
    bias_filler {
      type: "constant"
      value: 0
    }
  }
}
layer {
  name: "conv9_1_relu"
  type: "ReLU"
  bottom: "conv9_1"
  top: "conv9_1"
}
layer {
  name: "conv9_2"
  type: "Convolution"
  bottom: "conv9_1"
  top: "conv9_2"
  param {
    lr_mult: 1
    decay_mult: 1
  }
  param {
    lr_mult: 2
    decay_mult: 0
  }
  convolution_param {
    num_output: 256
    pad: 0
    kernel_size: 3
    stride: 1
    weight_filler {
      type: "xavier"
    }
    bias_filler {
      type: "constant"
      value: 0
    }
  }
}
layer {
  name: "conv9_2_relu"
  type: "ReLU"
  bottom: "conv9_2"
  top: "conv9_2"
}
layer {
  name: "Deconvolution1"
  type: "Deconvolution"
  bottom: "conv5_3"
  top: "Deconvolution1"
  convolution_param {
    num_output: 512
    pad: 0
    kernel_size: 2
    stride: 2
    weight_filler {
      type: "bilinear"
    }
  }
}
layer {
  name: "Convolution1"
  type: "Convolution"
  bottom: "Deconvolution1"
  top: "Convolution1"
  convolution_param {
    num_output: 512
    pad: 1
    kernel_size: 3
    stride: 1
  }
}
layer {
  name: "BatchNorm1"
  type: "BatchNorm"
  bottom: "Convolution1"
  top: "Convolution1"
}
layer {
  name: "up_conv5_3"
  type: "ReLU"
  bottom: "Convolution1"
  top: "Convolution1"
}
layer {
  name: "Convolution2"
  type: "Convolution"
  bottom: "conv4_3"
  top: "Convolution2"
  convolution_param {
    num_output: 512
    pad: 1
    kernel_size: 3
    stride: 1
  }
}
layer {
  name: "BatchNorm2"
  type: "BatchNorm"
  bottom: "Convolution2"
  top: "Convolution2"
}
layer {
  name: "conv4_3_conv"
  type: "ReLU"
  bottom: "Convolution2"
  top: "Convolution2"
}
layer {
  name: "Concat1"
  type: "Concat"
  bottom: "Convolution1"
  bottom: "Convolution2"
  top: "Concat1"
}
layer {
  name: "Convolution3"
  type: "Convolution"
  bottom: "Concat1"
  top: "Convolution3"
  convolution_param {
    num_output: 512
    kernel_size: 1
    stride: 1
  }
}
layer {
  name: "conc1"
  type: "ReLU"
  bottom: "Convolution3"
  top: "Convolution3"
}
layer {
  name: "conc1_norm"
  type: "Normalize"
  bottom: "Convolution3"
  top: "conc1_norm"
  norm_param {
    across_spatial: false
    scale_filler {
      type: "constant"
      value: 20
    }
    channel_shared: false
  }
}
layer {
  name: "conc1_norm_mbox_loc"
  type: "Convolution"
  bottom: "conc1_norm"
  top: "conc1_norm_mbox_loc"
  param {
    lr_mult: 1
    decay_mult: 1
  }
  param {
    lr_mult: 2
    decay_mult: 0
  }
  convolution_param {
    num_output: 16
    pad: 1
    kernel_size: 3
    stride: 1
    weight_filler {
      type: "xavier"
    }
    bias_filler {
      type: "constant"
      value: 0
    }
  }
}
layer {
  name: "conc1_norm_mbox_loc_perm"
  type: "Permute"
  bottom: "conc1_norm_mbox_loc"
  top: "conc1_norm_mbox_loc_perm"
  permute_param {
    order: 0
    order: 2
    order: 3
    order: 1
  }
}
layer {
  name: "conc1_norm_mbox_loc_flat"
  type: "Flatten"
  bottom: "conc1_norm_mbox_loc_perm"
  top: "conc1_norm_mbox_loc_flat"
  flatten_param {
    axis: 1
  }
}
layer {
  name: "conc1_norm_mbox_conf"
  type: "Convolution"
  bottom: "conc1_norm"
  top: "conc1_norm_mbox_conf"
  param {
    lr_mult: 1
    decay_mult: 1
  }
  param {
    lr_mult: 2
    decay_mult: 0
  }
  convolution_param {
    num_output: 84
    pad: 1
    kernel_size: 3
    stride: 1
    weight_filler {
      type: "xavier"
    }
    bias_filler {
      type: "constant"
      value: 0
    }
  }
}
layer {
  name: "conc1_norm_mbox_conf_perm"
  type: "Permute"
  bottom: "conc1_norm_mbox_conf"
  top: "conc1_norm_mbox_conf_perm"
  permute_param {
    order: 0
    order: 2
    order: 3
    order: 1
  }
}
layer {
  name: "conc1_norm_mbox_conf_flat"
  type: "Flatten"
  bottom: "conc1_norm_mbox_conf_perm"
  top: "conc1_norm_mbox_conf_flat"
  flatten_param {
    axis: 1
  }
}
layer {
  name: "conc1_norm_mbox_priorbox"
  type: "PriorBox"
  bottom: "conc1_norm"
  bottom: "data"
  top: "conc1_norm_mbox_priorbox"
  prior_box_param {
    min_size: 30
    max_size: 60
    aspect_ratio: 2
    flip: true
    clip: false
    variance: 0.1
    variance: 0.1
    variance: 0.2
    variance: 0.2
    step: 8
    offset: 0.5
  }
}
layer {
  name: "fc7_mbox_loc"
  type: "Convolution"
  bottom: "fc7"
  top: "fc7_mbox_loc"
  param {
    lr_mult: 1
    decay_mult: 1
  }
  param {
    lr_mult: 2
    decay_mult: 0
  }
  convolution_param {
    num_output: 24
    pad: 1
    kernel_size: 3
    stride: 1
    weight_filler {
      type: "xavier"
    }
    bias_filler {
      type: "constant"
      value: 0
    }
  }
}
layer {
  name: "fc7_mbox_loc_perm"
  type: "Permute"
  bottom: "fc7_mbox_loc"
  top: "fc7_mbox_loc_perm"
  permute_param {
    order: 0
    order: 2
    order: 3
    order: 1
  }
}
layer {
  name: "fc7_mbox_loc_flat"
  type: "Flatten"
  bottom: "fc7_mbox_loc_perm"
  top: "fc7_mbox_loc_flat"
  flatten_param {
    axis: 1
  }
}
layer {
  name: "fc7_mbox_conf"
  type: "Convolution"
  bottom: "fc7"
  top: "fc7_mbox_conf"
  param {
    lr_mult: 1
    decay_mult: 1
  }
  param {
    lr_mult: 2
    decay_mult: 0
  }
  convolution_param {
    num_output: 126
    pad: 1
    kernel_size: 3
    stride: 1
    weight_filler {
      type: "xavier"
    }
    bias_filler {
      type: "constant"
      value: 0
    }
  }
}
layer {
  name: "fc7_mbox_conf_perm"
  type: "Permute"
  bottom: "fc7_mbox_conf"
  top: "fc7_mbox_conf_perm"
  permute_param {
    order: 0
    order: 2
    order: 3
    order: 1
  }
}
layer {
  name: "fc7_mbox_conf_flat"
  type: "Flatten"
  bottom: "fc7_mbox_conf_perm"
  top: "fc7_mbox_conf_flat"
  flatten_param {
    axis: 1
  }
}
layer {
  name: "fc7_mbox_priorbox"
  type: "PriorBox"
  bottom: "fc7"
  bottom: "data"
  top: "fc7_mbox_priorbox"
  prior_box_param {
    min_size: 60
    max_size: 111
    aspect_ratio: 2
    aspect_ratio: 3
    flip: true
    clip: false
    variance: 0.1
    variance: 0.1
    variance: 0.2
    variance: 0.2
    step: 16
    offset: 0.5
  }
}
layer {
  name: "conv6_2_mbox_loc"
  type: "Convolution"
  bottom: "conv6_2"
  top: "conv6_2_mbox_loc"
  param {
    lr_mult: 1
    decay_mult: 1
  }
  param {
    lr_mult: 2
    decay_mult: 0
  }
  convolution_param {
    num_output: 24
    pad: 1
    kernel_size: 3
    stride: 1
    weight_filler {
      type: "xavier"
    }
    bias_filler {
      type: "constant"
      value: 0
    }
  }
}
layer {
  name: "conv6_2_mbox_loc_perm"
  type: "Permute"
  bottom: "conv6_2_mbox_loc"
  top: "conv6_2_mbox_loc_perm"
  permute_param {
    order: 0
    order: 2
    order: 3
    order: 1
  }
}
layer {
  name: "conv6_2_mbox_loc_flat"
  type: "Flatten"
  bottom: "conv6_2_mbox_loc_perm"
  top: "conv6_2_mbox_loc_flat"
  flatten_param {
    axis: 1
  }
}
layer {
  name: "conv6_2_mbox_conf"
  type: "Convolution"
  bottom: "conv6_2"
  top: "conv6_2_mbox_conf"
  param {
    lr_mult: 1
    decay_mult: 1
  }
  param {
    lr_mult: 2
    decay_mult: 0
  }
  convolution_param {
    num_output: 126
    pad: 1
    kernel_size: 3
    stride: 1
    weight_filler {
      type: "xavier"
    }
    bias_filler {
      type: "constant"
      value: 0
    }
  }
}
layer {
  name: "conv6_2_mbox_conf_perm"
  type: "Permute"
  bottom: "conv6_2_mbox_conf"
  top: "conv6_2_mbox_conf_perm"
  permute_param {
    order: 0
    order: 2
    order: 3
    order: 1
  }
}
layer {
  name: "conv6_2_mbox_conf_flat"
  type: "Flatten"
  bottom: "conv6_2_mbox_conf_perm"
  top: "conv6_2_mbox_conf_flat"
  flatten_param {
    axis: 1
  }
}
layer {
  name: "conv6_2_mbox_priorbox"
  type: "PriorBox"
  bottom: "conv6_2"
  bottom: "data"
  top: "conv6_2_mbox_priorbox"
  prior_box_param {
    min_size: 111
    max_size: 162
    aspect_ratio: 2
    aspect_ratio: 3
    flip: true
    clip: false
    variance: 0.1
    variance: 0.1
    variance: 0.2
    variance: 0.2
    step: 32
    offset: 0.5
  }
}
layer {
  name: "conv7_2_mbox_loc"
  type: "Convolution"
  bottom: "conv7_2"
  top: "conv7_2_mbox_loc"
  param {
    lr_mult: 1
    decay_mult: 1
  }
  param {
    lr_mult: 2
    decay_mult: 0
  }
  convolution_param {
    num_output: 24
    pad: 1
    kernel_size: 3
    stride: 1
    weight_filler {
      type: "xavier"
    }
    bias_filler {
      type: "constant"
      value: 0
    }
  }
}
layer {
  name: "conv7_2_mbox_loc_perm"
  type: "Permute"
  bottom: "conv7_2_mbox_loc"
  top: "conv7_2_mbox_loc_perm"
  permute_param {
    order: 0
    order: 2
    order: 3
    order: 1
  }
}
layer {
  name: "conv7_2_mbox_loc_flat"
  type: "Flatten"
  bottom: "conv7_2_mbox_loc_perm"
  top: "conv7_2_mbox_loc_flat"
  flatten_param {
    axis: 1
  }
}
layer {
  name: "conv7_2_mbox_conf"
  type: "Convolution"
  bottom: "conv7_2"
  top: "conv7_2_mbox_conf"
  param {
    lr_mult: 1
    decay_mult: 1
  }
  param {
    lr_mult: 2
    decay_mult: 0
  }
  convolution_param {
    num_output: 126
    pad: 1
    kernel_size: 3
    stride: 1
    weight_filler {
      type: "xavier"
    }
    bias_filler {
      type: "constant"
      value: 0
    }
  }
}
layer {
  name: "conv7_2_mbox_conf_perm"
  type: "Permute"
  bottom: "conv7_2_mbox_conf"
  top: "conv7_2_mbox_conf_perm"
  permute_param {
    order: 0
    order: 2
    order: 3
    order: 1
  }
}
layer {
  name: "conv7_2_mbox_conf_flat"
  type: "Flatten"
  bottom: "conv7_2_mbox_conf_perm"
  top: "conv7_2_mbox_conf_flat"
  flatten_param {
    axis: 1
  }
}
layer {
  name: "conv7_2_mbox_priorbox"
  type: "PriorBox"
  bottom: "conv7_2"
  bottom: "data"
  top: "conv7_2_mbox_priorbox"
  prior_box_param {
    min_size: 162
    max_size: 213
    aspect_ratio: 2
    aspect_ratio: 3
    flip: true
    clip: false
    variance: 0.1
    variance: 0.1
    variance: 0.2
    variance: 0.2
    step: 64
    offset: 0.5
  }
}
layer {
  name: "conv8_2_mbox_loc"
  type: "Convolution"
  bottom: "conv8_2"
  top: "conv8_2_mbox_loc"
  param {
    lr_mult: 1
    decay_mult: 1
  }
  param {
    lr_mult: 2
    decay_mult: 0
  }
  convolution_param {
    num_output: 16
    pad: 1
    kernel_size: 3
    stride: 1
    weight_filler {
      type: "xavier"
    }
    bias_filler {
      type: "constant"
      value: 0
    }
  }
}
layer {
  name: "conv8_2_mbox_loc_perm"
  type: "Permute"
  bottom: "conv8_2_mbox_loc"
  top: "conv8_2_mbox_loc_perm"
  permute_param {
    order: 0
    order: 2
    order: 3
    order: 1
  }
}
layer {
  name: "conv8_2_mbox_loc_flat"
  type: "Flatten"
  bottom: "conv8_2_mbox_loc_perm"
  top: "conv8_2_mbox_loc_flat"
  flatten_param {
    axis: 1
  }
}
layer {
  name: "conv8_2_mbox_conf"
  type: "Convolution"
  bottom: "conv8_2"
  top: "conv8_2_mbox_conf"
  param {
    lr_mult: 1
    decay_mult: 1
  }
  param {
    lr_mult: 2
    decay_mult: 0
  }
  convolution_param {
    num_output: 84
    pad: 1
    kernel_size: 3
    stride: 1
    weight_filler {
      type: "xavier"
    }
    bias_filler {
      type: "constant"
      value: 0
    }
  }
}
layer {
  name: "conv8_2_mbox_conf_perm"
  type: "Permute"
  bottom: "conv8_2_mbox_conf"
  top: "conv8_2_mbox_conf_perm"
  permute_param {
    order: 0
    order: 2
    order: 3
    order: 1
  }
}
layer {
  name: "conv8_2_mbox_conf_flat"
  type: "Flatten"
  bottom: "conv8_2_mbox_conf_perm"
  top: "conv8_2_mbox_conf_flat"
  flatten_param {
    axis: 1
  }
}
layer {
  name: "conv8_2_mbox_priorbox"
  type: "PriorBox"
  bottom: "conv8_2"
  bottom: "data"
  top: "conv8_2_mbox_priorbox"
  prior_box_param {
    min_size: 213
    max_size: 264
    aspect_ratio: 2
    flip: true
    clip: false
    variance: 0.1
    variance: 0.1
    variance: 0.2
    variance: 0.2
    step: 100
    offset: 0.5
  }
}
layer {
  name: "conv9_2_mbox_loc"
  type: "Convolution"
  bottom: "conv9_2"
  top: "conv9_2_mbox_loc"
  param {
    lr_mult: 1
    decay_mult: 1
  }
  param {
    lr_mult: 2
    decay_mult: 0
  }
  convolution_param {
    num_output: 16
    pad: 1
    kernel_size: 3
    stride: 1
    weight_filler {
      type: "xavier"
    }
    bias_filler {
      type: "constant"
      value: 0
    }
  }
}
layer {
  name: "conv9_2_mbox_loc_perm"
  type: "Permute"
  bottom: "conv9_2_mbox_loc"
  top: "conv9_2_mbox_loc_perm"
  permute_param {
    order: 0
    order: 2
    order: 3
    order: 1
  }
}
layer {
  name: "conv9_2_mbox_loc_flat"
  type: "Flatten"
  bottom: "conv9_2_mbox_loc_perm"
  top: "conv9_2_mbox_loc_flat"
  flatten_param {
    axis: 1
  }
}
layer {
  name: "conv9_2_mbox_conf"
  type: "Convolution"
  bottom: "conv9_2"
  top: "conv9_2_mbox_conf"
  param {
    lr_mult: 1
    decay_mult: 1
  }
  param {
    lr_mult: 2
    decay_mult: 0
  }
  convolution_param {
    num_output: 84
    pad: 1
    kernel_size: 3
    stride: 1
    weight_filler {
      type: "xavier"
    }
    bias_filler {
      type: "constant"
      value: 0
    }
  }
}
layer {
  name: "conv9_2_mbox_conf_perm"
  type: "Permute"
  bottom: "conv9_2_mbox_conf"
  top: "conv9_2_mbox_conf_perm"
  permute_param {
    order: 0
    order: 2
    order: 3
    order: 1
  }
}
layer {
  name: "conv9_2_mbox_conf_flat"
  type: "Flatten"
  bottom: "conv9_2_mbox_conf_perm"
  top: "conv9_2_mbox_conf_flat"
  flatten_param {
    axis: 1
  }
}
layer {
  name: "conv9_2_mbox_priorbox"
  type: "PriorBox"
  bottom: "conv9_2"
  bottom: "data"
  top: "conv9_2_mbox_priorbox"
  prior_box_param {
    min_size: 264
    max_size: 315
    aspect_ratio: 2
    flip: true
    clip: false
    variance: 0.1
    variance: 0.1
    variance: 0.2
    variance: 0.2
    step: 300
    offset: 0.5
  }
}
layer {
  name: "mbox_loc"
  type: "Concat"
  bottom: "conc1_norm_mbox_loc_flat"
  bottom: "fc7_mbox_loc_flat"
  bottom: "conv6_2_mbox_loc_flat"
  bottom: "conv7_2_mbox_loc_flat"
  bottom: "conv8_2_mbox_loc_flat"
  bottom: "conv9_2_mbox_loc_flat"
  top: "mbox_loc"
  concat_param {
    axis: 1
  }
}
layer {
  name: "mbox_conf"
  type: "Concat"
  bottom: "conc1_norm_mbox_conf_flat"
  bottom: "fc7_mbox_conf_flat"
  bottom: "conv6_2_mbox_conf_flat"
  bottom: "conv7_2_mbox_conf_flat"
  bottom: "conv8_2_mbox_conf_flat"
  bottom: "conv9_2_mbox_conf_flat"
  top: "mbox_conf"
  concat_param {
    axis: 1
  }
}
layer {
  name: "mbox_priorbox"
  type: "Concat"
  bottom: "conc1_norm_mbox_priorbox"
  bottom: "fc7_mbox_priorbox"
  bottom: "conv6_2_mbox_priorbox"
  bottom: "conv7_2_mbox_priorbox"
  bottom: "conv8_2_mbox_priorbox"
  bottom: "conv9_2_mbox_priorbox"
  top: "mbox_priorbox"
  concat_param {
    axis: 2
  }
}
layer {
  name: "mbox_loss"
  type: "MultiBoxLoss"
  bottom: "mbox_loc"
  bottom: "mbox_conf"
  bottom: "mbox_priorbox"
  bottom: "label"
  top: "mbox_loss"
  include {
    phase: TRAIN
  }
  propagate_down: true
  propagate_down: true
  propagate_down: false
  propagate_down: false
  loss_param {
    normalization: VALID
  }
  multibox_loss_param {
    loc_loss_type: SMOOTH_L1
    conf_loss_type: SOFTMAX
    loc_weight: 1
    num_classes: 21
    share_location: true
    match_type: PER_PREDICTION
    overlap_threshold: 0.5
    use_prior_for_matching: true
    background_label_id: 0
    use_difficult_gt: true
    neg_pos_ratio: 3
    neg_overlap: 0.5
    code_type: CENTER_SIZE
    ignore_cross_boundary_bbox: false
    mining_type: MAX_NEGATIVE
  }
}
I0405 21:15:02.961169  9520 layer_factory.hpp:77] Creating layer data
I0405 21:15:02.961887  9520 net.cpp:100] Creating Layer data
I0405 21:15:02.961913  9520 net.cpp:408] data -> data
I0405 21:15:02.961990  9520 net.cpp:408] data -> label
I0405 21:15:02.965312  9547 db_lmdb.cpp:35] Opened lmdb examples/VOC0712/VOC0712_trainval_lmdb
I0405 21:15:02.988917  9520 annotated_data_layer.cpp:62] output data size: 32,3,300,300
I0405 21:15:03.083243  9520 net.cpp:150] Setting up data
I0405 21:15:03.083307  9520 net.cpp:157] Top shape: 32 3 300 300 (8640000)
I0405 21:15:03.083319  9520 net.cpp:157] Top shape: 1 1 1 8 (8)
I0405 21:15:03.083324  9520 net.cpp:165] Memory required for data: 34560032
I0405 21:15:03.083353  9520 layer_factory.hpp:77] Creating layer data_data_0_split
I0405 21:15:03.083387  9520 net.cpp:100] Creating Layer data_data_0_split
I0405 21:15:03.083400  9520 net.cpp:434] data_data_0_split <- data
I0405 21:15:03.083429  9520 net.cpp:408] data_data_0_split -> data_data_0_split_0
I0405 21:15:03.083454  9520 net.cpp:408] data_data_0_split -> data_data_0_split_1
I0405 21:15:03.083487  9520 net.cpp:408] data_data_0_split -> data_data_0_split_2
I0405 21:15:03.083506  9520 net.cpp:408] data_data_0_split -> data_data_0_split_3
I0405 21:15:03.083518  9520 net.cpp:408] data_data_0_split -> data_data_0_split_4
I0405 21:15:03.083528  9520 net.cpp:408] data_data_0_split -> data_data_0_split_5
I0405 21:15:03.083537  9520 net.cpp:408] data_data_0_split -> data_data_0_split_6
I0405 21:15:03.083717  9520 net.cpp:150] Setting up data_data_0_split
I0405 21:15:03.083732  9520 net.cpp:157] Top shape: 32 3 300 300 (8640000)
I0405 21:15:03.083739  9520 net.cpp:157] Top shape: 32 3 300 300 (8640000)
I0405 21:15:03.083745  9520 net.cpp:157] Top shape: 32 3 300 300 (8640000)
I0405 21:15:03.083752  9520 net.cpp:157] Top shape: 32 3 300 300 (8640000)
I0405 21:15:03.083760  9520 net.cpp:157] Top shape: 32 3 300 300 (8640000)
I0405 21:15:03.083765  9520 net.cpp:157] Top shape: 32 3 300 300 (8640000)
I0405 21:15:03.083772  9520 net.cpp:157] Top shape: 32 3 300 300 (8640000)
I0405 21:15:03.083778  9520 net.cpp:165] Memory required for data: 276480032
I0405 21:15:03.083783  9520 layer_factory.hpp:77] Creating layer conv1_1
I0405 21:15:03.083817  9520 net.cpp:100] Creating Layer conv1_1
I0405 21:15:03.083824  9520 net.cpp:434] conv1_1 <- data_data_0_split_0
I0405 21:15:03.083837  9520 net.cpp:408] conv1_1 -> conv1_1
I0405 21:15:03.545838  9520 net.cpp:150] Setting up conv1_1
I0405 21:15:03.545941  9520 net.cpp:157] Top shape: 32 64 300 300 (184320000)
I0405 21:15:03.545948  9520 net.cpp:165] Memory required for data: 1013760032
I0405 21:15:03.546023  9520 layer_factory.hpp:77] Creating layer relu1_1
I0405 21:15:03.546114  9520 net.cpp:100] Creating Layer relu1_1
I0405 21:15:03.546131  9520 net.cpp:434] relu1_1 <- conv1_1
I0405 21:15:03.546145  9520 net.cpp:395] relu1_1 -> conv1_1 (in-place)
I0405 21:15:03.546463  9520 net.cpp:150] Setting up relu1_1
I0405 21:15:03.546476  9520 net.cpp:157] Top shape: 32 64 300 300 (184320000)
I0405 21:15:03.546481  9520 net.cpp:165] Memory required for data: 1751040032
I0405 21:15:03.546486  9520 layer_factory.hpp:77] Creating layer conv1_2
I0405 21:15:03.546548  9520 net.cpp:100] Creating Layer conv1_2
I0405 21:15:03.546555  9520 net.cpp:434] conv1_2 <- conv1_1
I0405 21:15:03.546612  9520 net.cpp:408] conv1_2 -> conv1_2
I0405 21:15:03.550757  9520 net.cpp:150] Setting up conv1_2
I0405 21:15:03.550789  9520 net.cpp:157] Top shape: 32 64 300 300 (184320000)
I0405 21:15:03.550796  9520 net.cpp:165] Memory required for data: 2488320032
I0405 21:15:03.550812  9520 layer_factory.hpp:77] Creating layer relu1_2
I0405 21:15:03.550824  9520 net.cpp:100] Creating Layer relu1_2
I0405 21:15:03.550830  9520 net.cpp:434] relu1_2 <- conv1_2
I0405 21:15:03.550839  9520 net.cpp:395] relu1_2 -> conv1_2 (in-place)
I0405 21:15:03.552119  9520 net.cpp:150] Setting up relu1_2
I0405 21:15:03.552141  9520 net.cpp:157] Top shape: 32 64 300 300 (184320000)
I0405 21:15:03.552148  9520 net.cpp:165] Memory required for data: 3225600032
I0405 21:15:03.552153  9520 layer_factory.hpp:77] Creating layer pool1
I0405 21:15:03.552171  9520 net.cpp:100] Creating Layer pool1
I0405 21:15:03.552176  9520 net.cpp:434] pool1 <- conv1_2
I0405 21:15:03.552187  9520 net.cpp:408] pool1 -> pool1
I0405 21:15:03.552280  9520 net.cpp:150] Setting up pool1
I0405 21:15:03.552290  9520 net.cpp:157] Top shape: 32 64 150 150 (46080000)
I0405 21:15:03.552295  9520 net.cpp:165] Memory required for data: 3409920032
I0405 21:15:03.552301  9520 layer_factory.hpp:77] Creating layer conv2_1
I0405 21:15:03.552317  9520 net.cpp:100] Creating Layer conv2_1
I0405 21:15:03.552322  9520 net.cpp:434] conv2_1 <- pool1
I0405 21:15:03.552332  9520 net.cpp:408] conv2_1 -> conv2_1
I0405 21:15:03.557314  9520 net.cpp:150] Setting up conv2_1
I0405 21:15:03.557354  9520 net.cpp:157] Top shape: 32 128 150 150 (92160000)
I0405 21:15:03.557360  9520 net.cpp:165] Memory required for data: 3778560032
I0405 21:15:03.557382  9520 layer_factory.hpp:77] Creating layer relu2_1
I0405 21:15:03.557401  9520 net.cpp:100] Creating Layer relu2_1
I0405 21:15:03.557409  9520 net.cpp:434] relu2_1 <- conv2_1
I0405 21:15:03.557418  9520 net.cpp:395] relu2_1 -> conv2_1 (in-place)
I0405 21:15:03.558738  9520 net.cpp:150] Setting up relu2_1
I0405 21:15:03.558761  9520 net.cpp:157] Top shape: 32 128 150 150 (92160000)
I0405 21:15:03.558768  9520 net.cpp:165] Memory required for data: 4147200032
I0405 21:15:03.558773  9520 layer_factory.hpp:77] Creating layer conv2_2
I0405 21:15:03.558801  9520 net.cpp:100] Creating Layer conv2_2
I0405 21:15:03.558809  9520 net.cpp:434] conv2_2 <- conv2_1
I0405 21:15:03.558821  9520 net.cpp:408] conv2_2 -> conv2_2
I0405 21:15:03.563372  9520 net.cpp:150] Setting up conv2_2
I0405 21:15:03.563401  9520 net.cpp:157] Top shape: 32 128 150 150 (92160000)
I0405 21:15:03.563407  9520 net.cpp:165] Memory required for data: 4515840032
I0405 21:15:03.563421  9520 layer_factory.hpp:77] Creating layer relu2_2
I0405 21:15:03.563431  9520 net.cpp:100] Creating Layer relu2_2
I0405 21:15:03.563438  9520 net.cpp:434] relu2_2 <- conv2_2
I0405 21:15:03.563448  9520 net.cpp:395] relu2_2 -> conv2_2 (in-place)
I0405 21:15:03.563699  9520 net.cpp:150] Setting up relu2_2
I0405 21:15:03.563714  9520 net.cpp:157] Top shape: 32 128 150 150 (92160000)
I0405 21:15:03.563719  9520 net.cpp:165] Memory required for data: 4884480032
I0405 21:15:03.563724  9520 layer_factory.hpp:77] Creating layer pool2
I0405 21:15:03.563740  9520 net.cpp:100] Creating Layer pool2
I0405 21:15:03.563745  9520 net.cpp:434] pool2 <- conv2_2
I0405 21:15:03.563752  9520 net.cpp:408] pool2 -> pool2
I0405 21:15:03.563822  9520 net.cpp:150] Setting up pool2
I0405 21:15:03.563832  9520 net.cpp:157] Top shape: 32 128 75 75 (23040000)
I0405 21:15:03.563838  9520 net.cpp:165] Memory required for data: 4976640032
I0405 21:15:03.563843  9520 layer_factory.hpp:77] Creating layer conv3_1
I0405 21:15:03.563858  9520 net.cpp:100] Creating Layer conv3_1
I0405 21:15:03.563863  9520 net.cpp:434] conv3_1 <- pool2
I0405 21:15:03.563872  9520 net.cpp:408] conv3_1 -> conv3_1
I0405 21:15:03.577039  9520 net.cpp:150] Setting up conv3_1
I0405 21:15:03.577112  9520 net.cpp:157] Top shape: 32 256 75 75 (46080000)
I0405 21:15:03.577118  9520 net.cpp:165] Memory required for data: 5160960032
I0405 21:15:03.577172  9520 layer_factory.hpp:77] Creating layer relu3_1
I0405 21:15:03.577247  9520 net.cpp:100] Creating Layer relu3_1
I0405 21:15:03.577260  9520 net.cpp:434] relu3_1 <- conv3_1
I0405 21:15:03.577275  9520 net.cpp:395] relu3_1 -> conv3_1 (in-place)
I0405 21:15:03.577641  9520 net.cpp:150] Setting up relu3_1
I0405 21:15:03.577656  9520 net.cpp:157] Top shape: 32 256 75 75 (46080000)
I0405 21:15:03.577661  9520 net.cpp:165] Memory required for data: 5345280032
I0405 21:15:03.577667  9520 layer_factory.hpp:77] Creating layer conv3_2
I0405 21:15:03.577694  9520 net.cpp:100] Creating Layer conv3_2
I0405 21:15:03.577699  9520 net.cpp:434] conv3_2 <- conv3_1
I0405 21:15:03.577713  9520 net.cpp:408] conv3_2 -> conv3_2
I0405 21:15:03.588490  9520 net.cpp:150] Setting up conv3_2
I0405 21:15:03.588562  9520 net.cpp:157] Top shape: 32 256 75 75 (46080000)
I0405 21:15:03.588570  9520 net.cpp:165] Memory required for data: 5529600032
I0405 21:15:03.588594  9520 layer_factory.hpp:77] Creating layer relu3_2
I0405 21:15:03.588618  9520 net.cpp:100] Creating Layer relu3_2
I0405 21:15:03.588627  9520 net.cpp:434] relu3_2 <- conv3_2
I0405 21:15:03.588644  9520 net.cpp:395] relu3_2 -> conv3_2 (in-place)
I0405 21:15:03.588943  9520 net.cpp:150] Setting up relu3_2
I0405 21:15:03.588959  9520 net.cpp:157] Top shape: 32 256 75 75 (46080000)
I0405 21:15:03.588964  9520 net.cpp:165] Memory required for data: 5713920032
I0405 21:15:03.588975  9520 layer_factory.hpp:77] Creating layer conv3_3
I0405 21:15:03.589010  9520 net.cpp:100] Creating Layer conv3_3
I0405 21:15:03.589016  9520 net.cpp:434] conv3_3 <- conv3_2
I0405 21:15:03.589026  9520 net.cpp:408] conv3_3 -> conv3_3
I0405 21:15:03.600458  9520 net.cpp:150] Setting up conv3_3
I0405 21:15:03.600528  9520 net.cpp:157] Top shape: 32 256 75 75 (46080000)
I0405 21:15:03.600535  9520 net.cpp:165] Memory required for data: 5898240032
I0405 21:15:03.600563  9520 layer_factory.hpp:77] Creating layer relu3_3
I0405 21:15:03.600589  9520 net.cpp:100] Creating Layer relu3_3
I0405 21:15:03.600600  9520 net.cpp:434] relu3_3 <- conv3_3
I0405 21:15:03.600615  9520 net.cpp:395] relu3_3 -> conv3_3 (in-place)
I0405 21:15:03.600914  9520 net.cpp:150] Setting up relu3_3
I0405 21:15:03.600929  9520 net.cpp:157] Top shape: 32 256 75 75 (46080000)
I0405 21:15:03.600935  9520 net.cpp:165] Memory required for data: 6082560032
I0405 21:15:03.600940  9520 layer_factory.hpp:77] Creating layer pool3
I0405 21:15:03.600952  9520 net.cpp:100] Creating Layer pool3
I0405 21:15:03.600958  9520 net.cpp:434] pool3 <- conv3_3
I0405 21:15:03.600970  9520 net.cpp:408] pool3 -> pool3
I0405 21:15:03.601043  9520 net.cpp:150] Setting up pool3
I0405 21:15:03.601054  9520 net.cpp:157] Top shape: 32 256 38 38 (11829248)
I0405 21:15:03.601059  9520 net.cpp:165] Memory required for data: 6129877024
I0405 21:15:03.601065  9520 layer_factory.hpp:77] Creating layer conv4_1
I0405 21:15:03.601096  9520 net.cpp:100] Creating Layer conv4_1
I0405 21:15:03.601104  9520 net.cpp:434] conv4_1 <- pool3
I0405 21:15:03.601112  9520 net.cpp:408] conv4_1 -> conv4_1
I0405 21:15:03.621881  9520 net.cpp:150] Setting up conv4_1
I0405 21:15:03.621940  9520 net.cpp:157] Top shape: 32 512 38 38 (23658496)
I0405 21:15:03.621948  9520 net.cpp:165] Memory required for data: 6224511008
I0405 21:15:03.621969  9520 layer_factory.hpp:77] Creating layer relu4_1
I0405 21:15:03.621999  9520 net.cpp:100] Creating Layer relu4_1
I0405 21:15:03.622009  9520 net.cpp:434] relu4_1 <- conv4_1
I0405 21:15:03.622023  9520 net.cpp:395] relu4_1 -> conv4_1 (in-place)
I0405 21:15:03.623387  9520 net.cpp:150] Setting up relu4_1
I0405 21:15:03.623412  9520 net.cpp:157] Top shape: 32 512 38 38 (23658496)
I0405 21:15:03.623417  9520 net.cpp:165] Memory required for data: 6319144992
I0405 21:15:03.623423  9520 layer_factory.hpp:77] Creating layer conv4_2
I0405 21:15:03.623450  9520 net.cpp:100] Creating Layer conv4_2
I0405 21:15:03.623456  9520 net.cpp:434] conv4_2 <- conv4_1
I0405 21:15:03.623467  9520 net.cpp:408] conv4_2 -> conv4_2
I0405 21:15:03.651453  9520 net.cpp:150] Setting up conv4_2
I0405 21:15:03.651577  9520 net.cpp:157] Top shape: 32 512 38 38 (23658496)
I0405 21:15:03.651585  9520 net.cpp:165] Memory required for data: 6413778976
I0405 21:15:03.651618  9520 layer_factory.hpp:77] Creating layer relu4_2
I0405 21:15:03.651649  9520 net.cpp:100] Creating Layer relu4_2
I0405 21:15:03.651661  9520 net.cpp:434] relu4_2 <- conv4_2
I0405 21:15:03.651676  9520 net.cpp:395] relu4_2 -> conv4_2 (in-place)
I0405 21:15:03.653326  9520 net.cpp:150] Setting up relu4_2
I0405 21:15:03.653347  9520 net.cpp:157] Top shape: 32 512 38 38 (23658496)
I0405 21:15:03.653352  9520 net.cpp:165] Memory required for data: 6508412960
I0405 21:15:03.653367  9520 layer_factory.hpp:77] Creating layer conv4_3
I0405 21:15:03.653389  9520 net.cpp:100] Creating Layer conv4_3
I0405 21:15:03.653395  9520 net.cpp:434] conv4_3 <- conv4_2
I0405 21:15:03.653409  9520 net.cpp:408] conv4_3 -> conv4_3
I0405 21:15:03.682531  9520 net.cpp:150] Setting up conv4_3
I0405 21:15:03.682587  9520 net.cpp:157] Top shape: 32 512 38 38 (23658496)
I0405 21:15:03.682593  9520 net.cpp:165] Memory required for data: 6603046944
I0405 21:15:03.682615  9520 layer_factory.hpp:77] Creating layer relu4_3
I0405 21:15:03.682636  9520 net.cpp:100] Creating Layer relu4_3
I0405 21:15:03.682644  9520 net.cpp:434] relu4_3 <- conv4_3
I0405 21:15:03.682662  9520 net.cpp:395] relu4_3 -> conv4_3 (in-place)
I0405 21:15:03.682971  9520 net.cpp:150] Setting up relu4_3
I0405 21:15:03.682986  9520 net.cpp:157] Top shape: 32 512 38 38 (23658496)
I0405 21:15:03.682991  9520 net.cpp:165] Memory required for data: 6697680928
I0405 21:15:03.682997  9520 layer_factory.hpp:77] Creating layer conv4_3_relu4_3_0_split
I0405 21:15:03.683044  9520 net.cpp:100] Creating Layer conv4_3_relu4_3_0_split
I0405 21:15:03.683053  9520 net.cpp:434] conv4_3_relu4_3_0_split <- conv4_3
I0405 21:15:03.683063  9520 net.cpp:408] conv4_3_relu4_3_0_split -> conv4_3_relu4_3_0_split_0
I0405 21:15:03.683075  9520 net.cpp:408] conv4_3_relu4_3_0_split -> conv4_3_relu4_3_0_split_1
I0405 21:15:03.683137  9520 net.cpp:150] Setting up conv4_3_relu4_3_0_split
I0405 21:15:03.683149  9520 net.cpp:157] Top shape: 32 512 38 38 (23658496)
I0405 21:15:03.683156  9520 net.cpp:157] Top shape: 32 512 38 38 (23658496)
I0405 21:15:03.683161  9520 net.cpp:165] Memory required for data: 6886948896
I0405 21:15:03.683166  9520 layer_factory.hpp:77] Creating layer pool4
I0405 21:15:03.683183  9520 net.cpp:100] Creating Layer pool4
I0405 21:15:03.683192  9520 net.cpp:434] pool4 <- conv4_3_relu4_3_0_split_0
I0405 21:15:03.683199  9520 net.cpp:408] pool4 -> pool4
I0405 21:15:03.683276  9520 net.cpp:150] Setting up pool4
I0405 21:15:03.683288  9520 net.cpp:157] Top shape: 32 512 19 19 (5914624)
I0405 21:15:03.683292  9520 net.cpp:165] Memory required for data: 6910607392
I0405 21:15:03.683297  9520 layer_factory.hpp:77] Creating layer conv5_1
I0405 21:15:03.683317  9520 net.cpp:100] Creating Layer conv5_1
I0405 21:15:03.683326  9520 net.cpp:434] conv5_1 <- pool4
I0405 21:15:03.683336  9520 net.cpp:408] conv5_1 -> conv5_1
I0405 21:15:03.717658  9520 net.cpp:150] Setting up conv5_1
I0405 21:15:03.717720  9520 net.cpp:157] Top shape: 32 512 19 19 (5914624)
I0405 21:15:03.717727  9520 net.cpp:165] Memory required for data: 6934265888
I0405 21:15:03.717751  9520 layer_factory.hpp:77] Creating layer relu5_1
I0405 21:15:03.717772  9520 net.cpp:100] Creating Layer relu5_1
I0405 21:15:03.717782  9520 net.cpp:434] relu5_1 <- conv5_1
I0405 21:15:03.717799  9520 net.cpp:395] relu5_1 -> conv5_1 (in-place)
I0405 21:15:03.718106  9520 net.cpp:150] Setting up relu5_1
I0405 21:15:03.718120  9520 net.cpp:157] Top shape: 32 512 19 19 (5914624)
I0405 21:15:03.718125  9520 net.cpp:165] Memory required for data: 6957924384
I0405 21:15:03.718133  9520 layer_factory.hpp:77] Creating layer conv5_2
I0405 21:15:03.718160  9520 net.cpp:100] Creating Layer conv5_2
I0405 21:15:03.718166  9520 net.cpp:434] conv5_2 <- conv5_1
I0405 21:15:03.718178  9520 net.cpp:408] conv5_2 -> conv5_2
I0405 21:15:03.747094  9520 net.cpp:150] Setting up conv5_2
I0405 21:15:03.747162  9520 net.cpp:157] Top shape: 32 512 19 19 (5914624)
I0405 21:15:03.747225  9520 net.cpp:165] Memory required for data: 6981582880
I0405 21:15:03.747247  9520 layer_factory.hpp:77] Creating layer relu5_2
I0405 21:15:03.747270  9520 net.cpp:100] Creating Layer relu5_2
I0405 21:15:03.747279  9520 net.cpp:434] relu5_2 <- conv5_2
I0405 21:15:03.747292  9520 net.cpp:395] relu5_2 -> conv5_2 (in-place)
I0405 21:15:03.747581  9520 net.cpp:150] Setting up relu5_2
I0405 21:15:03.747596  9520 net.cpp:157] Top shape: 32 512 19 19 (5914624)
I0405 21:15:03.747601  9520 net.cpp:165] Memory required for data: 7005241376
I0405 21:15:03.747606  9520 layer_factory.hpp:77] Creating layer conv5_3
I0405 21:15:03.747627  9520 net.cpp:100] Creating Layer conv5_3
I0405 21:15:03.747632  9520 net.cpp:434] conv5_3 <- conv5_2
I0405 21:15:03.747644  9520 net.cpp:408] conv5_3 -> conv5_3
I0405 21:15:03.780227  9520 net.cpp:150] Setting up conv5_3
I0405 21:15:03.780300  9520 net.cpp:157] Top shape: 32 512 19 19 (5914624)
I0405 21:15:03.780308  9520 net.cpp:165] Memory required for data: 7028899872
I0405 21:15:03.780336  9520 layer_factory.hpp:77] Creating layer relu5_3
I0405 21:15:03.780386  9520 net.cpp:100] Creating Layer relu5_3
I0405 21:15:03.780396  9520 net.cpp:434] relu5_3 <- conv5_3
I0405 21:15:03.780411  9520 net.cpp:395] relu5_3 -> conv5_3 (in-place)
I0405 21:15:03.780705  9520 net.cpp:150] Setting up relu5_3
I0405 21:15:03.780720  9520 net.cpp:157] Top shape: 32 512 19 19 (5914624)
I0405 21:15:03.780725  9520 net.cpp:165] Memory required for data: 7052558368
I0405 21:15:03.780731  9520 layer_factory.hpp:77] Creating layer conv5_3_relu5_3_0_split
I0405 21:15:03.780741  9520 net.cpp:100] Creating Layer conv5_3_relu5_3_0_split
I0405 21:15:03.780747  9520 net.cpp:434] conv5_3_relu5_3_0_split <- conv5_3
I0405 21:15:03.780758  9520 net.cpp:408] conv5_3_relu5_3_0_split -> conv5_3_relu5_3_0_split_0
I0405 21:15:03.780771  9520 net.cpp:408] conv5_3_relu5_3_0_split -> conv5_3_relu5_3_0_split_1
I0405 21:15:03.780839  9520 net.cpp:150] Setting up conv5_3_relu5_3_0_split
I0405 21:15:03.780850  9520 net.cpp:157] Top shape: 32 512 19 19 (5914624)
I0405 21:15:03.780856  9520 net.cpp:157] Top shape: 32 512 19 19 (5914624)
I0405 21:15:03.780861  9520 net.cpp:165] Memory required for data: 7099875360
I0405 21:15:03.780866  9520 layer_factory.hpp:77] Creating layer pool5
I0405 21:15:03.780879  9520 net.cpp:100] Creating Layer pool5
I0405 21:15:03.780886  9520 net.cpp:434] pool5 <- conv5_3_relu5_3_0_split_0
I0405 21:15:03.780895  9520 net.cpp:408] pool5 -> pool5
I0405 21:15:03.780961  9520 net.cpp:150] Setting up pool5
I0405 21:15:03.780972  9520 net.cpp:157] Top shape: 32 512 19 19 (5914624)
I0405 21:15:03.780977  9520 net.cpp:165] Memory required for data: 7123533856
I0405 21:15:03.780982  9520 layer_factory.hpp:77] Creating layer fc6
I0405 21:15:03.781013  9520 net.cpp:100] Creating Layer fc6
I0405 21:15:03.781019  9520 net.cpp:434] fc6 <- pool5
I0405 21:15:03.781033  9520 net.cpp:408] fc6 -> fc6
I0405 21:15:03.834327  9520 net.cpp:150] Setting up fc6
I0405 21:15:03.834398  9520 net.cpp:157] Top shape: 32 1024 19 19 (11829248)
I0405 21:15:03.834404  9520 net.cpp:165] Memory required for data: 7170850848
I0405 21:15:03.834425  9520 layer_factory.hpp:77] Creating layer relu6
I0405 21:15:03.834455  9520 net.cpp:100] Creating Layer relu6
I0405 21:15:03.834468  9520 net.cpp:434] relu6 <- fc6
I0405 21:15:03.834489  9520 net.cpp:395] relu6 -> fc6 (in-place)
I0405 21:15:03.836339  9520 net.cpp:150] Setting up relu6
I0405 21:15:03.836364  9520 net.cpp:157] Top shape: 32 1024 19 19 (11829248)
I0405 21:15:03.836370  9520 net.cpp:165] Memory required for data: 7218167840
I0405 21:15:03.836375  9520 layer_factory.hpp:77] Creating layer fc7
I0405 21:15:03.836407  9520 net.cpp:100] Creating Layer fc7
I0405 21:15:03.836414  9520 net.cpp:434] fc7 <- fc6
I0405 21:15:03.836424  9520 net.cpp:408] fc7 -> fc7
I0405 21:15:03.851377  9520 net.cpp:150] Setting up fc7
I0405 21:15:03.851441  9520 net.cpp:157] Top shape: 32 1024 19 19 (11829248)
I0405 21:15:03.851449  9520 net.cpp:165] Memory required for data: 7265484832
I0405 21:15:03.851542  9520 layer_factory.hpp:77] Creating layer relu7
I0405 21:15:03.851565  9520 net.cpp:100] Creating Layer relu7
I0405 21:15:03.851574  9520 net.cpp:434] relu7 <- fc7
I0405 21:15:03.851588  9520 net.cpp:395] relu7 -> fc7 (in-place)
I0405 21:15:03.851897  9520 net.cpp:150] Setting up relu7
I0405 21:15:03.851912  9520 net.cpp:157] Top shape: 32 1024 19 19 (11829248)
I0405 21:15:03.851917  9520 net.cpp:165] Memory required for data: 7312801824
I0405 21:15:03.851929  9520 layer_factory.hpp:77] Creating layer fc7_relu7_0_split
I0405 21:15:03.851941  9520 net.cpp:100] Creating Layer fc7_relu7_0_split
I0405 21:15:03.851948  9520 net.cpp:434] fc7_relu7_0_split <- fc7
I0405 21:15:03.851955  9520 net.cpp:408] fc7_relu7_0_split -> fc7_relu7_0_split_0
I0405 21:15:03.851970  9520 net.cpp:408] fc7_relu7_0_split -> fc7_relu7_0_split_1
I0405 21:15:03.851980  9520 net.cpp:408] fc7_relu7_0_split -> fc7_relu7_0_split_2
I0405 21:15:03.851989  9520 net.cpp:408] fc7_relu7_0_split -> fc7_relu7_0_split_3
I0405 21:15:03.852090  9520 net.cpp:150] Setting up fc7_relu7_0_split
I0405 21:15:03.852102  9520 net.cpp:157] Top shape: 32 1024 19 19 (11829248)
I0405 21:15:03.852108  9520 net.cpp:157] Top shape: 32 1024 19 19 (11829248)
I0405 21:15:03.852114  9520 net.cpp:157] Top shape: 32 1024 19 19 (11829248)
I0405 21:15:03.852119  9520 net.cpp:157] Top shape: 32 1024 19 19 (11829248)
I0405 21:15:03.852125  9520 net.cpp:165] Memory required for data: 7502069792
I0405 21:15:03.852130  9520 layer_factory.hpp:77] Creating layer conv6_1
I0405 21:15:03.852154  9520 net.cpp:100] Creating Layer conv6_1
I0405 21:15:03.852160  9520 net.cpp:434] conv6_1 <- fc7_relu7_0_split_0
I0405 21:15:03.852171  9520 net.cpp:408] conv6_1 -> conv6_1
I0405 21:15:03.860455  9520 net.cpp:150] Setting up conv6_1
I0405 21:15:03.860515  9520 net.cpp:157] Top shape: 32 256 19 19 (2957312)
I0405 21:15:03.860522  9520 net.cpp:165] Memory required for data: 7513899040
I0405 21:15:03.860548  9520 layer_factory.hpp:77] Creating layer conv6_1_relu
I0405 21:15:03.860568  9520 net.cpp:100] Creating Layer conv6_1_relu
I0405 21:15:03.860575  9520 net.cpp:434] conv6_1_relu <- conv6_1
I0405 21:15:03.860589  9520 net.cpp:395] conv6_1_relu -> conv6_1 (in-place)
I0405 21:15:03.860890  9520 net.cpp:150] Setting up conv6_1_relu
I0405 21:15:03.860910  9520 net.cpp:157] Top shape: 32 256 19 19 (2957312)
I0405 21:15:03.860915  9520 net.cpp:165] Memory required for data: 7525728288
I0405 21:15:03.860927  9520 layer_factory.hpp:77] Creating layer conv6_2
I0405 21:15:03.860951  9520 net.cpp:100] Creating Layer conv6_2
I0405 21:15:03.860960  9520 net.cpp:434] conv6_2 <- conv6_1
I0405 21:15:03.860972  9520 net.cpp:408] conv6_2 -> conv6_2
I0405 21:15:03.879603  9520 net.cpp:150] Setting up conv6_2
I0405 21:15:03.879667  9520 net.cpp:157] Top shape: 32 512 10 10 (1638400)
I0405 21:15:03.879673  9520 net.cpp:165] Memory required for data: 7532281888
I0405 21:15:03.879724  9520 layer_factory.hpp:77] Creating layer conv6_2_relu
I0405 21:15:03.879747  9520 net.cpp:100] Creating Layer conv6_2_relu
I0405 21:15:03.879758  9520 net.cpp:434] conv6_2_relu <- conv6_2
I0405 21:15:03.879772  9520 net.cpp:395] conv6_2_relu -> conv6_2 (in-place)
I0405 21:15:03.880064  9520 net.cpp:150] Setting up conv6_2_relu
I0405 21:15:03.880079  9520 net.cpp:157] Top shape: 32 512 10 10 (1638400)
I0405 21:15:03.880084  9520 net.cpp:165] Memory required for data: 7538835488
I0405 21:15:03.880089  9520 layer_factory.hpp:77] Creating layer conv6_2_conv6_2_relu_0_split
I0405 21:15:03.880102  9520 net.cpp:100] Creating Layer conv6_2_conv6_2_relu_0_split
I0405 21:15:03.880108  9520 net.cpp:434] conv6_2_conv6_2_relu_0_split <- conv6_2
I0405 21:15:03.880120  9520 net.cpp:408] conv6_2_conv6_2_relu_0_split -> conv6_2_conv6_2_relu_0_split_0
I0405 21:15:03.880133  9520 net.cpp:408] conv6_2_conv6_2_relu_0_split -> conv6_2_conv6_2_relu_0_split_1
I0405 21:15:03.880143  9520 net.cpp:408] conv6_2_conv6_2_relu_0_split -> conv6_2_conv6_2_relu_0_split_2
I0405 21:15:03.880152  9520 net.cpp:408] conv6_2_conv6_2_relu_0_split -> conv6_2_conv6_2_relu_0_split_3
I0405 21:15:03.880301  9520 net.cpp:150] Setting up conv6_2_conv6_2_relu_0_split
I0405 21:15:03.880313  9520 net.cpp:157] Top shape: 32 512 10 10 (1638400)
I0405 21:15:03.880321  9520 net.cpp:157] Top shape: 32 512 10 10 (1638400)
I0405 21:15:03.880326  9520 net.cpp:157] Top shape: 32 512 10 10 (1638400)
I0405 21:15:03.880333  9520 net.cpp:157] Top shape: 32 512 10 10 (1638400)
I0405 21:15:03.880337  9520 net.cpp:165] Memory required for data: 7565049888
I0405 21:15:03.880344  9520 layer_factory.hpp:77] Creating layer conv7_1
I0405 21:15:03.880369  9520 net.cpp:100] Creating Layer conv7_1
I0405 21:15:03.880378  9520 net.cpp:434] conv7_1 <- conv6_2_conv6_2_relu_0_split_0
I0405 21:15:03.880389  9520 net.cpp:408] conv7_1 -> conv7_1
I0405 21:15:03.883544  9520 net.cpp:150] Setting up conv7_1
I0405 21:15:03.883568  9520 net.cpp:157] Top shape: 32 128 10 10 (409600)
I0405 21:15:03.883574  9520 net.cpp:165] Memory required for data: 7566688288
I0405 21:15:03.883585  9520 layer_factory.hpp:77] Creating layer conv7_1_relu
I0405 21:15:03.883599  9520 net.cpp:100] Creating Layer conv7_1_relu
I0405 21:15:03.883605  9520 net.cpp:434] conv7_1_relu <- conv7_1
I0405 21:15:03.883615  9520 net.cpp:395] conv7_1_relu -> conv7_1 (in-place)
I0405 21:15:03.883884  9520 net.cpp:150] Setting up conv7_1_relu
I0405 21:15:03.883899  9520 net.cpp:157] Top shape: 32 128 10 10 (409600)
I0405 21:15:03.883904  9520 net.cpp:165] Memory required for data: 7568326688
I0405 21:15:03.883910  9520 layer_factory.hpp:77] Creating layer conv7_2
I0405 21:15:03.883930  9520 net.cpp:100] Creating Layer conv7_2
I0405 21:15:03.883935  9520 net.cpp:434] conv7_2 <- conv7_1
I0405 21:15:03.883947  9520 net.cpp:408] conv7_2 -> conv7_2
I0405 21:15:03.890627  9520 net.cpp:150] Setting up conv7_2
I0405 21:15:03.890667  9520 net.cpp:157] Top shape: 32 256 5 5 (204800)
I0405 21:15:03.890673  9520 net.cpp:165] Memory required for data: 7569145888
I0405 21:15:03.890691  9520 layer_factory.hpp:77] Creating layer conv7_2_relu
I0405 21:15:03.890707  9520 net.cpp:100] Creating Layer conv7_2_relu
I0405 21:15:03.890714  9520 net.cpp:434] conv7_2_relu <- conv7_2
I0405 21:15:03.890723  9520 net.cpp:395] conv7_2_relu -> conv7_2 (in-place)
I0405 21:15:03.891019  9520 net.cpp:150] Setting up conv7_2_relu
I0405 21:15:03.891036  9520 net.cpp:157] Top shape: 32 256 5 5 (204800)
I0405 21:15:03.891041  9520 net.cpp:165] Memory required for data: 7569965088
I0405 21:15:03.891047  9520 layer_factory.hpp:77] Creating layer conv7_2_conv7_2_relu_0_split
I0405 21:15:03.891059  9520 net.cpp:100] Creating Layer conv7_2_conv7_2_relu_0_split
I0405 21:15:03.891065  9520 net.cpp:434] conv7_2_conv7_2_relu_0_split <- conv7_2
I0405 21:15:03.891075  9520 net.cpp:408] conv7_2_conv7_2_relu_0_split -> conv7_2_conv7_2_relu_0_split_0
I0405 21:15:03.891088  9520 net.cpp:408] conv7_2_conv7_2_relu_0_split -> conv7_2_conv7_2_relu_0_split_1
I0405 21:15:03.891099  9520 net.cpp:408] conv7_2_conv7_2_relu_0_split -> conv7_2_conv7_2_relu_0_split_2
I0405 21:15:03.891110  9520 net.cpp:408] conv7_2_conv7_2_relu_0_split -> conv7_2_conv7_2_relu_0_split_3
I0405 21:15:03.891214  9520 net.cpp:150] Setting up conv7_2_conv7_2_relu_0_split
I0405 21:15:03.891225  9520 net.cpp:157] Top shape: 32 256 5 5 (204800)
I0405 21:15:03.891232  9520 net.cpp:157] Top shape: 32 256 5 5 (204800)
I0405 21:15:03.891238  9520 net.cpp:157] Top shape: 32 256 5 5 (204800)
I0405 21:15:03.891244  9520 net.cpp:157] Top shape: 32 256 5 5 (204800)
I0405 21:15:03.891249  9520 net.cpp:165] Memory required for data: 7573241888
I0405 21:15:03.891253  9520 layer_factory.hpp:77] Creating layer conv8_1
I0405 21:15:03.891276  9520 net.cpp:100] Creating Layer conv8_1
I0405 21:15:03.891284  9520 net.cpp:434] conv8_1 <- conv7_2_conv7_2_relu_0_split_0
I0405 21:15:03.891294  9520 net.cpp:408] conv8_1 -> conv8_1
I0405 21:15:03.894026  9520 net.cpp:150] Setting up conv8_1
I0405 21:15:03.894052  9520 net.cpp:157] Top shape: 32 128 5 5 (102400)
I0405 21:15:03.894057  9520 net.cpp:165] Memory required for data: 7573651488
I0405 21:15:03.894073  9520 layer_factory.hpp:77] Creating layer conv8_1_relu
I0405 21:15:03.894129  9520 net.cpp:100] Creating Layer conv8_1_relu
I0405 21:15:03.894137  9520 net.cpp:434] conv8_1_relu <- conv8_1
I0405 21:15:03.894145  9520 net.cpp:395] conv8_1_relu -> conv8_1 (in-place)
I0405 21:15:03.898905  9520 net.cpp:150] Setting up conv8_1_relu
I0405 21:15:03.898949  9520 net.cpp:157] Top shape: 32 128 5 5 (102400)
I0405 21:15:03.898957  9520 net.cpp:165] Memory required for data: 7574061088
I0405 21:15:03.898963  9520 layer_factory.hpp:77] Creating layer conv8_2
I0405 21:15:03.899001  9520 net.cpp:100] Creating Layer conv8_2
I0405 21:15:03.899008  9520 net.cpp:434] conv8_2 <- conv8_1
I0405 21:15:03.899024  9520 net.cpp:408] conv8_2 -> conv8_2
I0405 21:15:03.906179  9520 net.cpp:150] Setting up conv8_2
I0405 21:15:03.906229  9520 net.cpp:157] Top shape: 32 256 3 3 (73728)
I0405 21:15:03.906237  9520 net.cpp:165] Memory required for data: 7574356000
I0405 21:15:03.906258  9520 layer_factory.hpp:77] Creating layer conv8_2_relu
I0405 21:15:03.906277  9520 net.cpp:100] Creating Layer conv8_2_relu
I0405 21:15:03.906288  9520 net.cpp:434] conv8_2_relu <- conv8_2
I0405 21:15:03.906302  9520 net.cpp:395] conv8_2_relu -> conv8_2 (in-place)
I0405 21:15:03.906591  9520 net.cpp:150] Setting up conv8_2_relu
I0405 21:15:03.906605  9520 net.cpp:157] Top shape: 32 256 3 3 (73728)
I0405 21:15:03.906610  9520 net.cpp:165] Memory required for data: 7574650912
I0405 21:15:03.906620  9520 layer_factory.hpp:77] Creating layer conv8_2_conv8_2_relu_0_split
I0405 21:15:03.906642  9520 net.cpp:100] Creating Layer conv8_2_conv8_2_relu_0_split
I0405 21:15:03.906651  9520 net.cpp:434] conv8_2_conv8_2_relu_0_split <- conv8_2
I0405 21:15:03.906661  9520 net.cpp:408] conv8_2_conv8_2_relu_0_split -> conv8_2_conv8_2_relu_0_split_0
I0405 21:15:03.906677  9520 net.cpp:408] conv8_2_conv8_2_relu_0_split -> conv8_2_conv8_2_relu_0_split_1
I0405 21:15:03.906687  9520 net.cpp:408] conv8_2_conv8_2_relu_0_split -> conv8_2_conv8_2_relu_0_split_2
I0405 21:15:03.906697  9520 net.cpp:408] conv8_2_conv8_2_relu_0_split -> conv8_2_conv8_2_relu_0_split_3
I0405 21:15:03.906882  9520 net.cpp:150] Setting up conv8_2_conv8_2_relu_0_split
I0405 21:15:03.906895  9520 net.cpp:157] Top shape: 32 256 3 3 (73728)
I0405 21:15:03.906903  9520 net.cpp:157] Top shape: 32 256 3 3 (73728)
I0405 21:15:03.906908  9520 net.cpp:157] Top shape: 32 256 3 3 (73728)
I0405 21:15:03.906914  9520 net.cpp:157] Top shape: 32 256 3 3 (73728)
I0405 21:15:03.906919  9520 net.cpp:165] Memory required for data: 7575830560
I0405 21:15:03.906924  9520 layer_factory.hpp:77] Creating layer conv9_1
I0405 21:15:03.906951  9520 net.cpp:100] Creating Layer conv9_1
I0405 21:15:03.906960  9520 net.cpp:434] conv9_1 <- conv8_2_conv8_2_relu_0_split_0
I0405 21:15:03.906972  9520 net.cpp:408] conv9_1 -> conv9_1
I0405 21:15:03.909873  9520 net.cpp:150] Setting up conv9_1
I0405 21:15:03.909896  9520 net.cpp:157] Top shape: 32 128 3 3 (36864)
I0405 21:15:03.909901  9520 net.cpp:165] Memory required for data: 7575978016
I0405 21:15:03.909914  9520 layer_factory.hpp:77] Creating layer conv9_1_relu
I0405 21:15:03.909929  9520 net.cpp:100] Creating Layer conv9_1_relu
I0405 21:15:03.909934  9520 net.cpp:434] conv9_1_relu <- conv9_1
I0405 21:15:03.909942  9520 net.cpp:395] conv9_1_relu -> conv9_1 (in-place)
I0405 21:15:03.910228  9520 net.cpp:150] Setting up conv9_1_relu
I0405 21:15:03.910243  9520 net.cpp:157] Top shape: 32 128 3 3 (36864)
I0405 21:15:03.910248  9520 net.cpp:165] Memory required for data: 7576125472
I0405 21:15:03.910253  9520 layer_factory.hpp:77] Creating layer conv9_2
I0405 21:15:03.910274  9520 net.cpp:100] Creating Layer conv9_2
I0405 21:15:03.910279  9520 net.cpp:434] conv9_2 <- conv9_1
I0405 21:15:03.910291  9520 net.cpp:408] conv9_2 -> conv9_2
I0405 21:15:03.919796  9520 net.cpp:150] Setting up conv9_2
I0405 21:15:03.919867  9520 net.cpp:157] Top shape: 32 256 1 1 (8192)
I0405 21:15:03.919874  9520 net.cpp:165] Memory required for data: 7576158240
I0405 21:15:03.919899  9520 layer_factory.hpp:77] Creating layer conv9_2_relu
I0405 21:15:03.919960  9520 net.cpp:100] Creating Layer conv9_2_relu
I0405 21:15:03.919971  9520 net.cpp:434] conv9_2_relu <- conv9_2
I0405 21:15:03.919991  9520 net.cpp:395] conv9_2_relu -> conv9_2 (in-place)
I0405 21:15:03.920281  9520 net.cpp:150] Setting up conv9_2_relu
I0405 21:15:03.920297  9520 net.cpp:157] Top shape: 32 256 1 1 (8192)
I0405 21:15:03.920302  9520 net.cpp:165] Memory required for data: 7576191008
I0405 21:15:03.920308  9520 layer_factory.hpp:77] Creating layer conv9_2_conv9_2_relu_0_split
I0405 21:15:03.920323  9520 net.cpp:100] Creating Layer conv9_2_conv9_2_relu_0_split
I0405 21:15:03.920328  9520 net.cpp:434] conv9_2_conv9_2_relu_0_split <- conv9_2
I0405 21:15:03.920341  9520 net.cpp:408] conv9_2_conv9_2_relu_0_split -> conv9_2_conv9_2_relu_0_split_0
I0405 21:15:03.920354  9520 net.cpp:408] conv9_2_conv9_2_relu_0_split -> conv9_2_conv9_2_relu_0_split_1
I0405 21:15:03.920364  9520 net.cpp:408] conv9_2_conv9_2_relu_0_split -> conv9_2_conv9_2_relu_0_split_2
I0405 21:15:03.920459  9520 net.cpp:150] Setting up conv9_2_conv9_2_relu_0_split
I0405 21:15:03.920469  9520 net.cpp:157] Top shape: 32 256 1 1 (8192)
I0405 21:15:03.920477  9520 net.cpp:157] Top shape: 32 256 1 1 (8192)
I0405 21:15:03.920483  9520 net.cpp:157] Top shape: 32 256 1 1 (8192)
I0405 21:15:03.920487  9520 net.cpp:165] Memory required for data: 7576289312
I0405 21:15:03.920492  9520 layer_factory.hpp:77] Creating layer Deconvolution1
I0405 21:15:03.920558  9520 net.cpp:100] Creating Layer Deconvolution1
I0405 21:15:03.920567  9520 net.cpp:434] Deconvolution1 <- conv5_3_relu5_3_0_split_1
I0405 21:15:03.920577  9520 net.cpp:408] Deconvolution1 -> Deconvolution1
I0405 21:15:03.983914  9520 net.cpp:150] Setting up Deconvolution1
I0405 21:15:03.983981  9520 net.cpp:157] Top shape: 32 512 38 38 (23658496)
I0405 21:15:03.983988  9520 net.cpp:165] Memory required for data: 7670923296
I0405 21:15:03.984009  9520 layer_factory.hpp:77] Creating layer Convolution1
I0405 21:15:03.984043  9520 net.cpp:100] Creating Layer Convolution1
I0405 21:15:03.984055  9520 net.cpp:434] Convolution1 <- Deconvolution1
I0405 21:15:03.984078  9520 net.cpp:408] Convolution1 -> Convolution1
I0405 21:15:03.995985  9520 net.cpp:150] Setting up Convolution1
I0405 21:15:03.996037  9520 net.cpp:157] Top shape: 32 512 38 38 (23658496)
I0405 21:15:03.996043  9520 net.cpp:165] Memory required for data: 7765557280
I0405 21:15:03.996074  9520 layer_factory.hpp:77] Creating layer BatchNorm1
I0405 21:15:03.996098  9520 net.cpp:100] Creating Layer BatchNorm1
I0405 21:15:03.996107  9520 net.cpp:434] BatchNorm1 <- Convolution1
I0405 21:15:03.996126  9520 net.cpp:395] BatchNorm1 -> Convolution1 (in-place)
I0405 21:15:03.996510  9520 net.cpp:150] Setting up BatchNorm1
I0405 21:15:03.996523  9520 net.cpp:157] Top shape: 32 512 38 38 (23658496)
I0405 21:15:03.996528  9520 net.cpp:165] Memory required for data: 7860191264
I0405 21:15:03.996541  9520 layer_factory.hpp:77] Creating layer up_conv5_3
I0405 21:15:03.996551  9520 net.cpp:100] Creating Layer up_conv5_3
I0405 21:15:03.996556  9520 net.cpp:434] up_conv5_3 <- Convolution1
I0405 21:15:03.996565  9520 net.cpp:395] up_conv5_3 -> Convolution1 (in-place)
I0405 21:15:03.996861  9520 net.cpp:150] Setting up up_conv5_3
I0405 21:15:03.996876  9520 net.cpp:157] Top shape: 32 512 38 38 (23658496)
I0405 21:15:03.996879  9520 net.cpp:165] Memory required for data: 7954825248
I0405 21:15:03.996884  9520 layer_factory.hpp:77] Creating layer Convolution2
I0405 21:15:03.996922  9520 net.cpp:100] Creating Layer Convolution2
I0405 21:15:03.996928  9520 net.cpp:434] Convolution2 <- conv4_3_relu4_3_0_split_1
I0405 21:15:03.996937  9520 net.cpp:408] Convolution2 -> Convolution2
I0405 21:15:04.008292  9520 net.cpp:150] Setting up Convolution2
I0405 21:15:04.008368  9520 net.cpp:157] Top shape: 32 512 38 38 (23658496)
I0405 21:15:04.008374  9520 net.cpp:165] Memory required for data: 8049459232
I0405 21:15:04.008411  9520 layer_factory.hpp:77] Creating layer BatchNorm2
I0405 21:15:04.008431  9520 net.cpp:100] Creating Layer BatchNorm2
I0405 21:15:04.008484  9520 net.cpp:434] BatchNorm2 <- Convolution2
I0405 21:15:04.008499  9520 net.cpp:395] BatchNorm2 -> Convolution2 (in-place)
I0405 21:15:04.008855  9520 net.cpp:150] Setting up BatchNorm2
I0405 21:15:04.008870  9520 net.cpp:157] Top shape: 32 512 38 38 (23658496)
I0405 21:15:04.008877  9520 net.cpp:165] Memory required for data: 8144093216
I0405 21:15:04.008888  9520 layer_factory.hpp:77] Creating layer conv4_3_conv
I0405 21:15:04.008898  9520 net.cpp:100] Creating Layer conv4_3_conv
I0405 21:15:04.008903  9520 net.cpp:434] conv4_3_conv <- Convolution2
I0405 21:15:04.008910  9520 net.cpp:395] conv4_3_conv -> Convolution2 (in-place)
I0405 21:15:04.009212  9520 net.cpp:150] Setting up conv4_3_conv
I0405 21:15:04.009227  9520 net.cpp:157] Top shape: 32 512 38 38 (23658496)
I0405 21:15:04.009232  9520 net.cpp:165] Memory required for data: 8238727200
I0405 21:15:04.009238  9520 layer_factory.hpp:77] Creating layer Concat1
I0405 21:15:04.009250  9520 net.cpp:100] Creating Layer Concat1
I0405 21:15:04.009256  9520 net.cpp:434] Concat1 <- Convolution1
I0405 21:15:04.009263  9520 net.cpp:434] Concat1 <- Convolution2
I0405 21:15:04.009271  9520 net.cpp:408] Concat1 -> Concat1
I0405 21:15:04.009320  9520 net.cpp:150] Setting up Concat1
I0405 21:15:04.009331  9520 net.cpp:157] Top shape: 32 1024 38 38 (47316992)
I0405 21:15:04.009336  9520 net.cpp:165] Memory required for data: 8427995168
I0405 21:15:04.009343  9520 layer_factory.hpp:77] Creating layer Convolution3
I0405 21:15:04.009361  9520 net.cpp:100] Creating Layer Convolution3
I0405 21:15:04.009374  9520 net.cpp:434] Convolution3 <- Concat1
I0405 21:15:04.009382  9520 net.cpp:408] Convolution3 -> Convolution3
I0405 21:15:04.014451  9520 net.cpp:150] Setting up Convolution3
I0405 21:15:04.014495  9520 net.cpp:157] Top shape: 32 512 38 38 (23658496)
I0405 21:15:04.014503  9520 net.cpp:165] Memory required for data: 8522629152
I0405 21:15:04.014518  9520 layer_factory.hpp:77] Creating layer conc1
I0405 21:15:04.014538  9520 net.cpp:100] Creating Layer conc1
I0405 21:15:04.014545  9520 net.cpp:434] conc1 <- Convolution3
I0405 21:15:04.014557  9520 net.cpp:395] conc1 -> Convolution3 (in-place)
I0405 21:15:04.019626  9520 net.cpp:150] Setting up conc1
I0405 21:15:04.019675  9520 net.cpp:157] Top shape: 32 512 38 38 (23658496)
I0405 21:15:04.019680  9520 net.cpp:165] Memory required for data: 8617263136
I0405 21:15:04.019688  9520 layer_factory.hpp:77] Creating layer conc1_norm
I0405 21:15:04.019716  9520 net.cpp:100] Creating Layer conc1_norm
I0405 21:15:04.019724  9520 net.cpp:434] conc1_norm <- Convolution3
I0405 21:15:04.019738  9520 net.cpp:408] conc1_norm -> conc1_norm
I0405 21:15:04.020067  9520 net.cpp:150] Setting up conc1_norm
I0405 21:15:04.020081  9520 net.cpp:157] Top shape: 32 512 38 38 (23658496)
I0405 21:15:04.020087  9520 net.cpp:165] Memory required for data: 8711897120
I0405 21:15:04.020102  9520 layer_factory.hpp:77] Creating layer conc1_norm_conc1_norm_0_split
I0405 21:15:04.020117  9520 net.cpp:100] Creating Layer conc1_norm_conc1_norm_0_split
I0405 21:15:04.020124  9520 net.cpp:434] conc1_norm_conc1_norm_0_split <- conc1_norm
I0405 21:15:04.020136  9520 net.cpp:408] conc1_norm_conc1_norm_0_split -> conc1_norm_conc1_norm_0_split_0
I0405 21:15:04.020146  9520 net.cpp:408] conc1_norm_conc1_norm_0_split -> conc1_norm_conc1_norm_0_split_1
I0405 21:15:04.020156  9520 net.cpp:408] conc1_norm_conc1_norm_0_split -> conc1_norm_conc1_norm_0_split_2
I0405 21:15:04.020236  9520 net.cpp:150] Setting up conc1_norm_conc1_norm_0_split
I0405 21:15:04.020247  9520 net.cpp:157] Top shape: 32 512 38 38 (23658496)
I0405 21:15:04.020254  9520 net.cpp:157] Top shape: 32 512 38 38 (23658496)
I0405 21:15:04.020261  9520 net.cpp:157] Top shape: 32 512 38 38 (23658496)
I0405 21:15:04.020264  9520 net.cpp:165] Memory required for data: 8995799072
I0405 21:15:04.020270  9520 layer_factory.hpp:77] Creating layer conc1_norm_mbox_loc
I0405 21:15:04.020295  9520 net.cpp:100] Creating Layer conc1_norm_mbox_loc
I0405 21:15:04.020303  9520 net.cpp:434] conc1_norm_mbox_loc <- conc1_norm_conc1_norm_0_split_0
I0405 21:15:04.020350  9520 net.cpp:408] conc1_norm_mbox_loc -> conc1_norm_mbox_loc
I0405 21:15:04.024940  9520 net.cpp:150] Setting up conc1_norm_mbox_loc
I0405 21:15:04.024976  9520 net.cpp:157] Top shape: 32 16 38 38 (739328)
I0405 21:15:04.024986  9520 net.cpp:165] Memory required for data: 8998756384
I0405 21:15:04.025002  9520 layer_factory.hpp:77] Creating layer conc1_norm_mbox_loc_perm
I0405 21:15:04.025040  9520 net.cpp:100] Creating Layer conc1_norm_mbox_loc_perm
I0405 21:15:04.025048  9520 net.cpp:434] conc1_norm_mbox_loc_perm <- conc1_norm_mbox_loc
I0405 21:15:04.025060  9520 net.cpp:408] conc1_norm_mbox_loc_perm -> conc1_norm_mbox_loc_perm
I0405 21:15:04.025298  9520 net.cpp:150] Setting up conc1_norm_mbox_loc_perm
I0405 21:15:04.025311  9520 net.cpp:157] Top shape: 32 38 38 16 (739328)
I0405 21:15:04.025316  9520 net.cpp:165] Memory required for data: 9001713696
I0405 21:15:04.025324  9520 layer_factory.hpp:77] Creating layer conc1_norm_mbox_loc_flat
I0405 21:15:04.025338  9520 net.cpp:100] Creating Layer conc1_norm_mbox_loc_flat
I0405 21:15:04.025346  9520 net.cpp:434] conc1_norm_mbox_loc_flat <- conc1_norm_mbox_loc_perm
I0405 21:15:04.025357  9520 net.cpp:408] conc1_norm_mbox_loc_flat -> conc1_norm_mbox_loc_flat
I0405 21:15:04.025405  9520 net.cpp:150] Setting up conc1_norm_mbox_loc_flat
I0405 21:15:04.025416  9520 net.cpp:157] Top shape: 32 23104 (739328)
I0405 21:15:04.025423  9520 net.cpp:165] Memory required for data: 9004671008
I0405 21:15:04.025427  9520 layer_factory.hpp:77] Creating layer conc1_norm_mbox_conf
I0405 21:15:04.025457  9520 net.cpp:100] Creating Layer conc1_norm_mbox_conf
I0405 21:15:04.025470  9520 net.cpp:434] conc1_norm_mbox_conf <- conc1_norm_conc1_norm_0_split_1
I0405 21:15:04.025480  9520 net.cpp:408] conc1_norm_mbox_conf -> conc1_norm_mbox_conf
I0405 21:15:04.033550  9520 net.cpp:150] Setting up conc1_norm_mbox_conf
I0405 21:15:04.033607  9520 net.cpp:157] Top shape: 32 84 38 38 (3881472)
I0405 21:15:04.033613  9520 net.cpp:165] Memory required for data: 9020196896
I0405 21:15:04.033665  9520 layer_factory.hpp:77] Creating layer conc1_norm_mbox_conf_perm
I0405 21:15:04.033699  9520 net.cpp:100] Creating Layer conc1_norm_mbox_conf_perm
I0405 21:15:04.033709  9520 net.cpp:434] conc1_norm_mbox_conf_perm <- conc1_norm_mbox_conf
I0405 21:15:04.033720  9520 net.cpp:408] conc1_norm_mbox_conf_perm -> conc1_norm_mbox_conf_perm
I0405 21:15:04.033923  9520 net.cpp:150] Setting up conc1_norm_mbox_conf_perm
I0405 21:15:04.033937  9520 net.cpp:157] Top shape: 32 38 38 84 (3881472)
I0405 21:15:04.033942  9520 net.cpp:165] Memory required for data: 9035722784
I0405 21:15:04.033947  9520 layer_factory.hpp:77] Creating layer conc1_norm_mbox_conf_flat
I0405 21:15:04.033964  9520 net.cpp:100] Creating Layer conc1_norm_mbox_conf_flat
I0405 21:15:04.033969  9520 net.cpp:434] conc1_norm_mbox_conf_flat <- conc1_norm_mbox_conf_perm
I0405 21:15:04.033980  9520 net.cpp:408] conc1_norm_mbox_conf_flat -> conc1_norm_mbox_conf_flat
I0405 21:15:04.034021  9520 net.cpp:150] Setting up conc1_norm_mbox_conf_flat
I0405 21:15:04.034030  9520 net.cpp:157] Top shape: 32 121296 (3881472)
I0405 21:15:04.034035  9520 net.cpp:165] Memory required for data: 9051248672
I0405 21:15:04.034040  9520 layer_factory.hpp:77] Creating layer conc1_norm_mbox_priorbox
I0405 21:15:04.034056  9520 net.cpp:100] Creating Layer conc1_norm_mbox_priorbox
I0405 21:15:04.034066  9520 net.cpp:434] conc1_norm_mbox_priorbox <- conc1_norm_conc1_norm_0_split_2
I0405 21:15:04.034075  9520 net.cpp:434] conc1_norm_mbox_priorbox <- data_data_0_split_1
I0405 21:15:04.034086  9520 net.cpp:408] conc1_norm_mbox_priorbox -> conc1_norm_mbox_priorbox
I0405 21:15:04.034143  9520 net.cpp:150] Setting up conc1_norm_mbox_priorbox
I0405 21:15:04.034155  9520 net.cpp:157] Top shape: 1 2 23104 (46208)
I0405 21:15:04.034160  9520 net.cpp:165] Memory required for data: 9051433504
I0405 21:15:04.034165  9520 layer_factory.hpp:77] Creating layer fc7_mbox_loc
I0405 21:15:04.034188  9520 net.cpp:100] Creating Layer fc7_mbox_loc
I0405 21:15:04.034198  9520 net.cpp:434] fc7_mbox_loc <- fc7_relu7_0_split_1
I0405 21:15:04.034237  9520 net.cpp:408] fc7_mbox_loc -> fc7_mbox_loc
I0405 21:15:04.042021  9520 net.cpp:150] Setting up fc7_mbox_loc
I0405 21:15:04.042080  9520 net.cpp:157] Top shape: 32 24 19 19 (277248)
I0405 21:15:04.042088  9520 net.cpp:165] Memory required for data: 9052542496
I0405 21:15:04.042111  9520 layer_factory.hpp:77] Creating layer fc7_mbox_loc_perm
I0405 21:15:04.042140  9520 net.cpp:100] Creating Layer fc7_mbox_loc_perm
I0405 21:15:04.042148  9520 net.cpp:434] fc7_mbox_loc_perm <- fc7_mbox_loc
I0405 21:15:04.042160  9520 net.cpp:408] fc7_mbox_loc_perm -> fc7_mbox_loc_perm
I0405 21:15:04.042356  9520 net.cpp:150] Setting up fc7_mbox_loc_perm
I0405 21:15:04.042368  9520 net.cpp:157] Top shape: 32 19 19 24 (277248)
I0405 21:15:04.042373  9520 net.cpp:165] Memory required for data: 9053651488
I0405 21:15:04.042379  9520 layer_factory.hpp:77] Creating layer fc7_mbox_loc_flat
I0405 21:15:04.042394  9520 net.cpp:100] Creating Layer fc7_mbox_loc_flat
I0405 21:15:04.042399  9520 net.cpp:434] fc7_mbox_loc_flat <- fc7_mbox_loc_perm
I0405 21:15:04.042410  9520 net.cpp:408] fc7_mbox_loc_flat -> fc7_mbox_loc_flat
I0405 21:15:04.042455  9520 net.cpp:150] Setting up fc7_mbox_loc_flat
I0405 21:15:04.042466  9520 net.cpp:157] Top shape: 32 8664 (277248)
I0405 21:15:04.042471  9520 net.cpp:165] Memory required for data: 9054760480
I0405 21:15:04.042476  9520 layer_factory.hpp:77] Creating layer fc7_mbox_conf
I0405 21:15:04.042501  9520 net.cpp:100] Creating Layer fc7_mbox_conf
I0405 21:15:04.042510  9520 net.cpp:434] fc7_mbox_conf <- fc7_relu7_0_split_2
I0405 21:15:04.042522  9520 net.cpp:408] fc7_mbox_conf -> fc7_mbox_conf
I0405 21:15:04.065944  9520 net.cpp:150] Setting up fc7_mbox_conf
I0405 21:15:04.066040  9520 net.cpp:157] Top shape: 32 126 19 19 (1455552)
I0405 21:15:04.066049  9520 net.cpp:165] Memory required for data: 9060582688
I0405 21:15:04.066098  9520 layer_factory.hpp:77] Creating layer fc7_mbox_conf_perm
I0405 21:15:04.066143  9520 net.cpp:100] Creating Layer fc7_mbox_conf_perm
I0405 21:15:04.066155  9520 net.cpp:434] fc7_mbox_conf_perm <- fc7_mbox_conf
I0405 21:15:04.066174  9520 net.cpp:408] fc7_mbox_conf_perm -> fc7_mbox_conf_perm
I0405 21:15:04.066458  9520 net.cpp:150] Setting up fc7_mbox_conf_perm
I0405 21:15:04.066474  9520 net.cpp:157] Top shape: 32 19 19 126 (1455552)
I0405 21:15:04.066480  9520 net.cpp:165] Memory required for data: 9066404896
I0405 21:15:04.066485  9520 layer_factory.hpp:77] Creating layer fc7_mbox_conf_flat
I0405 21:15:04.066498  9520 net.cpp:100] Creating Layer fc7_mbox_conf_flat
I0405 21:15:04.066504  9520 net.cpp:434] fc7_mbox_conf_flat <- fc7_mbox_conf_perm
I0405 21:15:04.066515  9520 net.cpp:408] fc7_mbox_conf_flat -> fc7_mbox_conf_flat
I0405 21:15:04.066556  9520 net.cpp:150] Setting up fc7_mbox_conf_flat
I0405 21:15:04.066567  9520 net.cpp:157] Top shape: 32 45486 (1455552)
I0405 21:15:04.066571  9520 net.cpp:165] Memory required for data: 9072227104
I0405 21:15:04.066577  9520 layer_factory.hpp:77] Creating layer fc7_mbox_priorbox
I0405 21:15:04.066593  9520 net.cpp:100] Creating Layer fc7_mbox_priorbox
I0405 21:15:04.066599  9520 net.cpp:434] fc7_mbox_priorbox <- fc7_relu7_0_split_3
I0405 21:15:04.066607  9520 net.cpp:434] fc7_mbox_priorbox <- data_data_0_split_2
I0405 21:15:04.066619  9520 net.cpp:408] fc7_mbox_priorbox -> fc7_mbox_priorbox
I0405 21:15:04.066670  9520 net.cpp:150] Setting up fc7_mbox_priorbox
I0405 21:15:04.066680  9520 net.cpp:157] Top shape: 1 2 8664 (17328)
I0405 21:15:04.066685  9520 net.cpp:165] Memory required for data: 9072296416
I0405 21:15:04.066692  9520 layer_factory.hpp:77] Creating layer conv6_2_mbox_loc
I0405 21:15:04.066716  9520 net.cpp:100] Creating Layer conv6_2_mbox_loc
I0405 21:15:04.066725  9520 net.cpp:434] conv6_2_mbox_loc <- conv6_2_conv6_2_relu_0_split_1
I0405 21:15:04.066736  9520 net.cpp:408] conv6_2_mbox_loc -> conv6_2_mbox_loc
I0405 21:15:04.071830  9520 net.cpp:150] Setting up conv6_2_mbox_loc
I0405 21:15:04.071859  9520 net.cpp:157] Top shape: 32 24 10 10 (76800)
I0405 21:15:04.071905  9520 net.cpp:165] Memory required for data: 9072603616
I0405 21:15:04.071919  9520 layer_factory.hpp:77] Creating layer conv6_2_mbox_loc_perm
I0405 21:15:04.071934  9520 net.cpp:100] Creating Layer conv6_2_mbox_loc_perm
I0405 21:15:04.071940  9520 net.cpp:434] conv6_2_mbox_loc_perm <- conv6_2_mbox_loc
I0405 21:15:04.071950  9520 net.cpp:408] conv6_2_mbox_loc_perm -> conv6_2_mbox_loc_perm
I0405 21:15:04.072141  9520 net.cpp:150] Setting up conv6_2_mbox_loc_perm
I0405 21:15:04.072155  9520 net.cpp:157] Top shape: 32 10 10 24 (76800)
I0405 21:15:04.072160  9520 net.cpp:165] Memory required for data: 9072910816
I0405 21:15:04.072165  9520 layer_factory.hpp:77] Creating layer conv6_2_mbox_loc_flat
I0405 21:15:04.072175  9520 net.cpp:100] Creating Layer conv6_2_mbox_loc_flat
I0405 21:15:04.072182  9520 net.cpp:434] conv6_2_mbox_loc_flat <- conv6_2_mbox_loc_perm
I0405 21:15:04.072192  9520 net.cpp:408] conv6_2_mbox_loc_flat -> conv6_2_mbox_loc_flat
I0405 21:15:04.072233  9520 net.cpp:150] Setting up conv6_2_mbox_loc_flat
I0405 21:15:04.072243  9520 net.cpp:157] Top shape: 32 2400 (76800)
I0405 21:15:04.072248  9520 net.cpp:165] Memory required for data: 9073218016
I0405 21:15:04.072257  9520 layer_factory.hpp:77] Creating layer conv6_2_mbox_conf
I0405 21:15:04.072280  9520 net.cpp:100] Creating Layer conv6_2_mbox_conf
I0405 21:15:04.072288  9520 net.cpp:434] conv6_2_mbox_conf <- conv6_2_conv6_2_relu_0_split_2
I0405 21:15:04.072302  9520 net.cpp:408] conv6_2_mbox_conf -> conv6_2_mbox_conf
I0405 21:15:04.086030  9520 net.cpp:150] Setting up conv6_2_mbox_conf
I0405 21:15:04.086077  9520 net.cpp:157] Top shape: 32 126 10 10 (403200)
I0405 21:15:04.086083  9520 net.cpp:165] Memory required for data: 9074830816
I0405 21:15:04.086103  9520 layer_factory.hpp:77] Creating layer conv6_2_mbox_conf_perm
I0405 21:15:04.086130  9520 net.cpp:100] Creating Layer conv6_2_mbox_conf_perm
I0405 21:15:04.086138  9520 net.cpp:434] conv6_2_mbox_conf_perm <- conv6_2_mbox_conf
I0405 21:15:04.086154  9520 net.cpp:408] conv6_2_mbox_conf_perm -> conv6_2_mbox_conf_perm
I0405 21:15:04.086360  9520 net.cpp:150] Setting up conv6_2_mbox_conf_perm
I0405 21:15:04.086372  9520 net.cpp:157] Top shape: 32 10 10 126 (403200)
I0405 21:15:04.086377  9520 net.cpp:165] Memory required for data: 9076443616
I0405 21:15:04.086382  9520 layer_factory.hpp:77] Creating layer conv6_2_mbox_conf_flat
I0405 21:15:04.086395  9520 net.cpp:100] Creating Layer conv6_2_mbox_conf_flat
I0405 21:15:04.086400  9520 net.cpp:434] conv6_2_mbox_conf_flat <- conv6_2_mbox_conf_perm
I0405 21:15:04.086410  9520 net.cpp:408] conv6_2_mbox_conf_flat -> conv6_2_mbox_conf_flat
I0405 21:15:04.086452  9520 net.cpp:150] Setting up conv6_2_mbox_conf_flat
I0405 21:15:04.086463  9520 net.cpp:157] Top shape: 32 12600 (403200)
I0405 21:15:04.086468  9520 net.cpp:165] Memory required for data: 9078056416
I0405 21:15:04.086475  9520 layer_factory.hpp:77] Creating layer conv6_2_mbox_priorbox
I0405 21:15:04.086489  9520 net.cpp:100] Creating Layer conv6_2_mbox_priorbox
I0405 21:15:04.086498  9520 net.cpp:434] conv6_2_mbox_priorbox <- conv6_2_conv6_2_relu_0_split_3
I0405 21:15:04.086506  9520 net.cpp:434] conv6_2_mbox_priorbox <- data_data_0_split_3
I0405 21:15:04.086518  9520 net.cpp:408] conv6_2_mbox_priorbox -> conv6_2_mbox_priorbox
I0405 21:15:04.086572  9520 net.cpp:150] Setting up conv6_2_mbox_priorbox
I0405 21:15:04.086583  9520 net.cpp:157] Top shape: 1 2 2400 (4800)
I0405 21:15:04.086587  9520 net.cpp:165] Memory required for data: 9078075616
I0405 21:15:04.086592  9520 layer_factory.hpp:77] Creating layer conv7_2_mbox_loc
I0405 21:15:04.086617  9520 net.cpp:100] Creating Layer conv7_2_mbox_loc
I0405 21:15:04.086627  9520 net.cpp:434] conv7_2_mbox_loc <- conv7_2_conv7_2_relu_0_split_1
I0405 21:15:04.086638  9520 net.cpp:408] conv7_2_mbox_loc -> conv7_2_mbox_loc
I0405 21:15:04.092053  9520 net.cpp:150] Setting up conv7_2_mbox_loc
I0405 21:15:04.092083  9520 net.cpp:157] Top shape: 32 24 5 5 (19200)
I0405 21:15:04.092090  9520 net.cpp:165] Memory required for data: 9078152416
I0405 21:15:04.092145  9520 layer_factory.hpp:77] Creating layer conv7_2_mbox_loc_perm
I0405 21:15:04.092164  9520 net.cpp:100] Creating Layer conv7_2_mbox_loc_perm
I0405 21:15:04.092171  9520 net.cpp:434] conv7_2_mbox_loc_perm <- conv7_2_mbox_loc
I0405 21:15:04.092183  9520 net.cpp:408] conv7_2_mbox_loc_perm -> conv7_2_mbox_loc_perm
I0405 21:15:04.092372  9520 net.cpp:150] Setting up conv7_2_mbox_loc_perm
I0405 21:15:04.092384  9520 net.cpp:157] Top shape: 32 5 5 24 (19200)
I0405 21:15:04.092388  9520 net.cpp:165] Memory required for data: 9078229216
I0405 21:15:04.092397  9520 layer_factory.hpp:77] Creating layer conv7_2_mbox_loc_flat
I0405 21:15:04.092413  9520 net.cpp:100] Creating Layer conv7_2_mbox_loc_flat
I0405 21:15:04.092418  9520 net.cpp:434] conv7_2_mbox_loc_flat <- conv7_2_mbox_loc_perm
I0405 21:15:04.092427  9520 net.cpp:408] conv7_2_mbox_loc_flat -> conv7_2_mbox_loc_flat
I0405 21:15:04.092478  9520 net.cpp:150] Setting up conv7_2_mbox_loc_flat
I0405 21:15:04.092489  9520 net.cpp:157] Top shape: 32 600 (19200)
I0405 21:15:04.092492  9520 net.cpp:165] Memory required for data: 9078306016
I0405 21:15:04.092497  9520 layer_factory.hpp:77] Creating layer conv7_2_mbox_conf
I0405 21:15:04.092519  9520 net.cpp:100] Creating Layer conv7_2_mbox_conf
I0405 21:15:04.092525  9520 net.cpp:434] conv7_2_mbox_conf <- conv7_2_conv7_2_relu_0_split_2
I0405 21:15:04.092537  9520 net.cpp:408] conv7_2_mbox_conf -> conv7_2_mbox_conf
I0405 21:15:04.105198  9520 net.cpp:150] Setting up conv7_2_mbox_conf
I0405 21:15:04.105259  9520 net.cpp:157] Top shape: 32 126 5 5 (100800)
I0405 21:15:04.105265  9520 net.cpp:165] Memory required for data: 9078709216
I0405 21:15:04.105288  9520 layer_factory.hpp:77] Creating layer conv7_2_mbox_conf_perm
I0405 21:15:04.105319  9520 net.cpp:100] Creating Layer conv7_2_mbox_conf_perm
I0405 21:15:04.105332  9520 net.cpp:434] conv7_2_mbox_conf_perm <- conv7_2_mbox_conf
I0405 21:15:04.105351  9520 net.cpp:408] conv7_2_mbox_conf_perm -> conv7_2_mbox_conf_perm
I0405 21:15:04.105564  9520 net.cpp:150] Setting up conv7_2_mbox_conf_perm
I0405 21:15:04.105576  9520 net.cpp:157] Top shape: 32 5 5 126 (100800)
I0405 21:15:04.105582  9520 net.cpp:165] Memory required for data: 9079112416
I0405 21:15:04.105593  9520 layer_factory.hpp:77] Creating layer conv7_2_mbox_conf_flat
I0405 21:15:04.105605  9520 net.cpp:100] Creating Layer conv7_2_mbox_conf_flat
I0405 21:15:04.105610  9520 net.cpp:434] conv7_2_mbox_conf_flat <- conv7_2_mbox_conf_perm
I0405 21:15:04.105623  9520 net.cpp:408] conv7_2_mbox_conf_flat -> conv7_2_mbox_conf_flat
I0405 21:15:04.105666  9520 net.cpp:150] Setting up conv7_2_mbox_conf_flat
I0405 21:15:04.105676  9520 net.cpp:157] Top shape: 32 3150 (100800)
I0405 21:15:04.105681  9520 net.cpp:165] Memory required for data: 9079515616
I0405 21:15:04.105687  9520 layer_factory.hpp:77] Creating layer conv7_2_mbox_priorbox
I0405 21:15:04.105698  9520 net.cpp:100] Creating Layer conv7_2_mbox_priorbox
I0405 21:15:04.105705  9520 net.cpp:434] conv7_2_mbox_priorbox <- conv7_2_conv7_2_relu_0_split_3
I0405 21:15:04.105712  9520 net.cpp:434] conv7_2_mbox_priorbox <- data_data_0_split_4
I0405 21:15:04.105725  9520 net.cpp:408] conv7_2_mbox_priorbox -> conv7_2_mbox_priorbox
I0405 21:15:04.105777  9520 net.cpp:150] Setting up conv7_2_mbox_priorbox
I0405 21:15:04.105787  9520 net.cpp:157] Top shape: 1 2 600 (1200)
I0405 21:15:04.105792  9520 net.cpp:165] Memory required for data: 9079520416
I0405 21:15:04.105798  9520 layer_factory.hpp:77] Creating layer conv8_2_mbox_loc
I0405 21:15:04.105823  9520 net.cpp:100] Creating Layer conv8_2_mbox_loc
I0405 21:15:04.105831  9520 net.cpp:434] conv8_2_mbox_loc <- conv8_2_conv8_2_relu_0_split_1
I0405 21:15:04.105840  9520 net.cpp:408] conv8_2_mbox_loc -> conv8_2_mbox_loc
I0405 21:15:04.110028  9520 net.cpp:150] Setting up conv8_2_mbox_loc
I0405 21:15:04.110055  9520 net.cpp:157] Top shape: 32 16 3 3 (4608)
I0405 21:15:04.110061  9520 net.cpp:165] Memory required for data: 9079538848
I0405 21:15:04.110081  9520 layer_factory.hpp:77] Creating layer conv8_2_mbox_loc_perm
I0405 21:15:04.110103  9520 net.cpp:100] Creating Layer conv8_2_mbox_loc_perm
I0405 21:15:04.110153  9520 net.cpp:434] conv8_2_mbox_loc_perm <- conv8_2_mbox_loc
I0405 21:15:04.110167  9520 net.cpp:408] conv8_2_mbox_loc_perm -> conv8_2_mbox_loc_perm
I0405 21:15:04.110355  9520 net.cpp:150] Setting up conv8_2_mbox_loc_perm
I0405 21:15:04.110371  9520 net.cpp:157] Top shape: 32 3 3 16 (4608)
I0405 21:15:04.110376  9520 net.cpp:165] Memory required for data: 9079557280
I0405 21:15:04.110381  9520 layer_factory.hpp:77] Creating layer conv8_2_mbox_loc_flat
I0405 21:15:04.110394  9520 net.cpp:100] Creating Layer conv8_2_mbox_loc_flat
I0405 21:15:04.110400  9520 net.cpp:434] conv8_2_mbox_loc_flat <- conv8_2_mbox_loc_perm
I0405 21:15:04.110409  9520 net.cpp:408] conv8_2_mbox_loc_flat -> conv8_2_mbox_loc_flat
I0405 21:15:04.110451  9520 net.cpp:150] Setting up conv8_2_mbox_loc_flat
I0405 21:15:04.110463  9520 net.cpp:157] Top shape: 32 144 (4608)
I0405 21:15:04.110468  9520 net.cpp:165] Memory required for data: 9079575712
I0405 21:15:04.110473  9520 layer_factory.hpp:77] Creating layer conv8_2_mbox_conf
I0405 21:15:04.110493  9520 net.cpp:100] Creating Layer conv8_2_mbox_conf
I0405 21:15:04.110502  9520 net.cpp:434] conv8_2_mbox_conf <- conv8_2_conv8_2_relu_0_split_2
I0405 21:15:04.110512  9520 net.cpp:408] conv8_2_mbox_conf -> conv8_2_mbox_conf
I0405 21:15:04.116202  9520 net.cpp:150] Setting up conv8_2_mbox_conf
I0405 21:15:04.116242  9520 net.cpp:157] Top shape: 32 84 3 3 (24192)
I0405 21:15:04.116248  9520 net.cpp:165] Memory required for data: 9079672480
I0405 21:15:04.116273  9520 layer_factory.hpp:77] Creating layer conv8_2_mbox_conf_perm
I0405 21:15:04.116289  9520 net.cpp:100] Creating Layer conv8_2_mbox_conf_perm
I0405 21:15:04.116298  9520 net.cpp:434] conv8_2_mbox_conf_perm <- conv8_2_mbox_conf
I0405 21:15:04.116312  9520 net.cpp:408] conv8_2_mbox_conf_perm -> conv8_2_mbox_conf_perm
I0405 21:15:04.116519  9520 net.cpp:150] Setting up conv8_2_mbox_conf_perm
I0405 21:15:04.116531  9520 net.cpp:157] Top shape: 32 3 3 84 (24192)
I0405 21:15:04.116536  9520 net.cpp:165] Memory required for data: 9079769248
I0405 21:15:04.116541  9520 layer_factory.hpp:77] Creating layer conv8_2_mbox_conf_flat
I0405 21:15:04.116555  9520 net.cpp:100] Creating Layer conv8_2_mbox_conf_flat
I0405 21:15:04.116560  9520 net.cpp:434] conv8_2_mbox_conf_flat <- conv8_2_mbox_conf_perm
I0405 21:15:04.116571  9520 net.cpp:408] conv8_2_mbox_conf_flat -> conv8_2_mbox_conf_flat
I0405 21:15:04.116616  9520 net.cpp:150] Setting up conv8_2_mbox_conf_flat
I0405 21:15:04.116626  9520 net.cpp:157] Top shape: 32 756 (24192)
I0405 21:15:04.116631  9520 net.cpp:165] Memory required for data: 9079866016
I0405 21:15:04.116636  9520 layer_factory.hpp:77] Creating layer conv8_2_mbox_priorbox
I0405 21:15:04.116647  9520 net.cpp:100] Creating Layer conv8_2_mbox_priorbox
I0405 21:15:04.116654  9520 net.cpp:434] conv8_2_mbox_priorbox <- conv8_2_conv8_2_relu_0_split_3
I0405 21:15:04.116663  9520 net.cpp:434] conv8_2_mbox_priorbox <- data_data_0_split_5
I0405 21:15:04.116675  9520 net.cpp:408] conv8_2_mbox_priorbox -> conv8_2_mbox_priorbox
I0405 21:15:04.116731  9520 net.cpp:150] Setting up conv8_2_mbox_priorbox
I0405 21:15:04.116742  9520 net.cpp:157] Top shape: 1 2 144 (288)
I0405 21:15:04.116747  9520 net.cpp:165] Memory required for data: 9079867168
I0405 21:15:04.116751  9520 layer_factory.hpp:77] Creating layer conv9_2_mbox_loc
I0405 21:15:04.116773  9520 net.cpp:100] Creating Layer conv9_2_mbox_loc
I0405 21:15:04.116782  9520 net.cpp:434] conv9_2_mbox_loc <- conv9_2_conv9_2_relu_0_split_0
I0405 21:15:04.116796  9520 net.cpp:408] conv9_2_mbox_loc -> conv9_2_mbox_loc
I0405 21:15:04.122440  9520 net.cpp:150] Setting up conv9_2_mbox_loc
I0405 21:15:04.122478  9520 net.cpp:157] Top shape: 32 16 1 1 (512)
I0405 21:15:04.122484  9520 net.cpp:165] Memory required for data: 9079869216
I0405 21:15:04.122501  9520 layer_factory.hpp:77] Creating layer conv9_2_mbox_loc_perm
I0405 21:15:04.122519  9520 net.cpp:100] Creating Layer conv9_2_mbox_loc_perm
I0405 21:15:04.122526  9520 net.cpp:434] conv9_2_mbox_loc_perm <- conv9_2_mbox_loc
I0405 21:15:04.122570  9520 net.cpp:408] conv9_2_mbox_loc_perm -> conv9_2_mbox_loc_perm
I0405 21:15:04.122767  9520 net.cpp:150] Setting up conv9_2_mbox_loc_perm
I0405 21:15:04.122779  9520 net.cpp:157] Top shape: 32 1 1 16 (512)
I0405 21:15:04.122784  9520 net.cpp:165] Memory required for data: 9079871264
I0405 21:15:04.122797  9520 layer_factory.hpp:77] Creating layer conv9_2_mbox_loc_flat
I0405 21:15:04.122812  9520 net.cpp:100] Creating Layer conv9_2_mbox_loc_flat
I0405 21:15:04.122817  9520 net.cpp:434] conv9_2_mbox_loc_flat <- conv9_2_mbox_loc_perm
I0405 21:15:04.122824  9520 net.cpp:408] conv9_2_mbox_loc_flat -> conv9_2_mbox_loc_flat
I0405 21:15:04.122881  9520 net.cpp:150] Setting up conv9_2_mbox_loc_flat
I0405 21:15:04.122892  9520 net.cpp:157] Top shape: 32 16 (512)
I0405 21:15:04.122896  9520 net.cpp:165] Memory required for data: 9079873312
I0405 21:15:04.122903  9520 layer_factory.hpp:77] Creating layer conv9_2_mbox_conf
I0405 21:15:04.122931  9520 net.cpp:100] Creating Layer conv9_2_mbox_conf
I0405 21:15:04.122938  9520 net.cpp:434] conv9_2_mbox_conf <- conv9_2_conv9_2_relu_0_split_1
I0405 21:15:04.122951  9520 net.cpp:408] conv9_2_mbox_conf -> conv9_2_mbox_conf
I0405 21:15:04.127296  9520 net.cpp:150] Setting up conv9_2_mbox_conf
I0405 21:15:04.127323  9520 net.cpp:157] Top shape: 32 84 1 1 (2688)
I0405 21:15:04.127328  9520 net.cpp:165] Memory required for data: 9079884064
I0405 21:15:04.127341  9520 layer_factory.hpp:77] Creating layer conv9_2_mbox_conf_perm
I0405 21:15:04.127357  9520 net.cpp:100] Creating Layer conv9_2_mbox_conf_perm
I0405 21:15:04.127363  9520 net.cpp:434] conv9_2_mbox_conf_perm <- conv9_2_mbox_conf
I0405 21:15:04.127373  9520 net.cpp:408] conv9_2_mbox_conf_perm -> conv9_2_mbox_conf_perm
I0405 21:15:04.127565  9520 net.cpp:150] Setting up conv9_2_mbox_conf_perm
I0405 21:15:04.127578  9520 net.cpp:157] Top shape: 32 1 1 84 (2688)
I0405 21:15:04.127583  9520 net.cpp:165] Memory required for data: 9079894816
I0405 21:15:04.127588  9520 layer_factory.hpp:77] Creating layer conv9_2_mbox_conf_flat
I0405 21:15:04.127598  9520 net.cpp:100] Creating Layer conv9_2_mbox_conf_flat
I0405 21:15:04.127604  9520 net.cpp:434] conv9_2_mbox_conf_flat <- conv9_2_mbox_conf_perm
I0405 21:15:04.127614  9520 net.cpp:408] conv9_2_mbox_conf_flat -> conv9_2_mbox_conf_flat
I0405 21:15:04.127656  9520 net.cpp:150] Setting up conv9_2_mbox_conf_flat
I0405 21:15:04.127666  9520 net.cpp:157] Top shape: 32 84 (2688)
I0405 21:15:04.127671  9520 net.cpp:165] Memory required for data: 9079905568
I0405 21:15:04.127679  9520 layer_factory.hpp:77] Creating layer conv9_2_mbox_priorbox
I0405 21:15:04.127692  9520 net.cpp:100] Creating Layer conv9_2_mbox_priorbox
I0405 21:15:04.127698  9520 net.cpp:434] conv9_2_mbox_priorbox <- conv9_2_conv9_2_relu_0_split_2
I0405 21:15:04.127705  9520 net.cpp:434] conv9_2_mbox_priorbox <- data_data_0_split_6
I0405 21:15:04.127718  9520 net.cpp:408] conv9_2_mbox_priorbox -> conv9_2_mbox_priorbox
I0405 21:15:04.127769  9520 net.cpp:150] Setting up conv9_2_mbox_priorbox
I0405 21:15:04.127779  9520 net.cpp:157] Top shape: 1 2 16 (32)
I0405 21:15:04.127784  9520 net.cpp:165] Memory required for data: 9079905696
I0405 21:15:04.127789  9520 layer_factory.hpp:77] Creating layer mbox_loc
I0405 21:15:04.127800  9520 net.cpp:100] Creating Layer mbox_loc
I0405 21:15:04.127807  9520 net.cpp:434] mbox_loc <- conc1_norm_mbox_loc_flat
I0405 21:15:04.127815  9520 net.cpp:434] mbox_loc <- fc7_mbox_loc_flat
I0405 21:15:04.127823  9520 net.cpp:434] mbox_loc <- conv6_2_mbox_loc_flat
I0405 21:15:04.127830  9520 net.cpp:434] mbox_loc <- conv7_2_mbox_loc_flat
I0405 21:15:04.127836  9520 net.cpp:434] mbox_loc <- conv8_2_mbox_loc_flat
I0405 21:15:04.127842  9520 net.cpp:434] mbox_loc <- conv9_2_mbox_loc_flat
I0405 21:15:04.127854  9520 net.cpp:408] mbox_loc -> mbox_loc
I0405 21:15:04.127979  9520 net.cpp:150] Setting up mbox_loc
I0405 21:15:04.127990  9520 net.cpp:157] Top shape: 32 34928 (1117696)
I0405 21:15:04.127995  9520 net.cpp:165] Memory required for data: 9084376480
I0405 21:15:04.128023  9520 layer_factory.hpp:77] Creating layer mbox_conf
I0405 21:15:04.128036  9520 net.cpp:100] Creating Layer mbox_conf
I0405 21:15:04.128041  9520 net.cpp:434] mbox_conf <- conc1_norm_mbox_conf_flat
I0405 21:15:04.128049  9520 net.cpp:434] mbox_conf <- fc7_mbox_conf_flat
I0405 21:15:04.128057  9520 net.cpp:434] mbox_conf <- conv6_2_mbox_conf_flat
I0405 21:15:04.128064  9520 net.cpp:434] mbox_conf <- conv7_2_mbox_conf_flat
I0405 21:15:04.128070  9520 net.cpp:434] mbox_conf <- conv8_2_mbox_conf_flat
I0405 21:15:04.128077  9520 net.cpp:434] mbox_conf <- conv9_2_mbox_conf_flat
I0405 21:15:04.128088  9520 net.cpp:408] mbox_conf -> mbox_conf
I0405 21:15:04.128129  9520 net.cpp:150] Setting up mbox_conf
I0405 21:15:04.128139  9520 net.cpp:157] Top shape: 32 183372 (5867904)
I0405 21:15:04.128144  9520 net.cpp:165] Memory required for data: 9107848096
I0405 21:15:04.128150  9520 layer_factory.hpp:77] Creating layer mbox_priorbox
I0405 21:15:04.128159  9520 net.cpp:100] Creating Layer mbox_priorbox
I0405 21:15:04.128165  9520 net.cpp:434] mbox_priorbox <- conc1_norm_mbox_priorbox
I0405 21:15:04.128171  9520 net.cpp:434] mbox_priorbox <- fc7_mbox_priorbox
I0405 21:15:04.128180  9520 net.cpp:434] mbox_priorbox <- conv6_2_mbox_priorbox
I0405 21:15:04.128185  9520 net.cpp:434] mbox_priorbox <- conv7_2_mbox_priorbox
I0405 21:15:04.128190  9520 net.cpp:434] mbox_priorbox <- conv8_2_mbox_priorbox
I0405 21:15:04.128196  9520 net.cpp:434] mbox_priorbox <- conv9_2_mbox_priorbox
I0405 21:15:04.128206  9520 net.cpp:408] mbox_priorbox -> mbox_priorbox
I0405 21:15:04.128244  9520 net.cpp:150] Setting up mbox_priorbox
I0405 21:15:04.128254  9520 net.cpp:157] Top shape: 1 2 34928 (69856)
I0405 21:15:04.128259  9520 net.cpp:165] Memory required for data: 9108127520
I0405 21:15:04.128264  9520 layer_factory.hpp:77] Creating layer mbox_loss
I0405 21:15:04.128288  9520 net.cpp:100] Creating Layer mbox_loss
I0405 21:15:04.128294  9520 net.cpp:434] mbox_loss <- mbox_loc
I0405 21:15:04.128301  9520 net.cpp:434] mbox_loss <- mbox_conf
I0405 21:15:04.128309  9520 net.cpp:434] mbox_loss <- mbox_priorbox
…
state {
  phase: TEST
}
layer {
  name: "data"
  type: "AnnotatedData"
  top: "data"
  top: "label"
  include {
    phase: TEST
  }
  transform_param {
    mean_value: 104
    mean_value: 117
    mean_value: 123
    resize_param {
      prob: 1
      resize_mode: WARP
      height: 300
      width: 300
      interp_mode: LINEAR
    }
  }
  data_param {
    source: "examples/VOC0712/VOC0712_test_lmdb"
    batch_size: 4
    backend: LMDB
  }
  annotated_data_param {
    batch_sampler {
    }
    label_map_file: "data/VOC0712/labelmap_voc.prototxt"
  }
}
layer {
  name: "conv1_1"
  type: "Convolution"
  bottom: "data"
  top: "conv1_1"
  param {
    lr_mult: 1
    decay_mult: 1
  }
  param {
    lr_mult: 2
    decay_mult: 0
  }
  convolution_param {
    num_output: 64
    pad: 1
    kernel_size: 3
    weight_filler {
      type: "xavier"
    }
    bias_filler {
      type: "constant"
      value: 0
    }
  }
}
layer {
  name: "relu1_1"
  type: "ReLU"
  bottom: "conv1_1"
  top: "conv1_1"
}
layer {
  name: "conv1_2"
  type: "Convolution"
  bottom: "conv1_1"
  top: "conv1_2"
  param {
    lr_mult: 1
    decay_mult: 1
  }
  param {
    lr_mult: 2
    decay_mult: 0
  }
  convolution_param {
    num_output: 64
    pad: 1
    kernel_size: 3
    weight_filler {
      type: "xavier"
    }
    bias_filler {
      type: "constant"
      value: 0
    }
  }
}
layer {
  name: "relu1_2"
  type: "ReLU"
  bottom: "conv1_2"
  top: "conv1_2"
}
layer {
  name: "pool1"
  type: "Pooling"
  bottom: "conv1_2"
  top: "pool1"
  pooling_param {
    pool: MAX
    kernel_size: 2
    stride: 2
  }
}
layer {
  name: "conv2_1"
  type: "Convolution"
  bottom: "pool1"
  top: "conv2_1"
  param {
    lr_mult: 1
    decay_mult: 1
  }
  param {
    lr_mult: 2
    decay_mult: 0
  }
  convolution_param {
    num_output: 128
    pad: 1
    kernel_size: 3
    weight_filler {
      type: "xavier"
    }
    bias_filler {
      type: "constant"
      value: 0
    }
  }
}
layer {
  name: "relu2_1"
  type: "ReLU"
  bottom: "conv2_1"
  top: "conv2_1"
}
layer {
  name: "conv2_2"
  type: "Convolution"
  bottom: "conv2_1"
  top: "conv2_2"
  param {
    lr_mult: 1
    decay_mult: 1
  }
  param {
    lr_mult: 2
    decay_mult: 0
  }
  convolution_param {
    num_output: 128
    pad: 1
    kernel_size: 3
    weight_filler {
      type: "xavier"
    }
    bias_filler {
      type: "constant"
      value: 0
    }
  }
}
layer {
  name: "relu2_2"
  type: "ReLU"
  bottom: "conv2_2"
  top: "conv2_2"
}
layer {
  name: "pool2"
  type: "Pooling"
  bottom: "conv2_2"
  top: "pool2"
  pooling_param {
    pool: MAX
    kernel_size: 2
    stride: 2
  }
}
layer {
  name: "conv3_1"
  type: "Convolution"
  bottom: "pool2"
  top: "conv3_1"
  param {
    lr_mult: 1
    decay_mult: 1
  }
  param {
    lr_mult: 2
    decay_mult: 0
  }
  convolution_param {
    num_output: 256
    pad: 1
    kernel_size: 3
    weight_filler {
      type: "xavier"
    }
    bias_filler {
      type: "constant"
      value: 0
    }
  }
}
layer {
  name: "relu3_1"
  type: "ReLU"
  bottom: "conv3_1"
  top: "conv3_1"
}
layer {
  name: "conv3_2"
  type: "Convolution"
  bottom: "conv3_1"
  top: "conv3_2"
  param {
    lr_mult: 1
    decay_mult: 1
  }
  param {
    lr_mult: 2
    decay_mult: 0
  }
  convolution_param {
    num_output: 256
    pad: 1
    kernel_size: 3
    weight_filler {
      type: "xavier"
    }
    bias_filler {
      type: "constant"
      value: 0
    }
  }
}
layer {
  name: "relu3_2"
  type: "ReLU"
  bottom: "conv3_2"
  top: "conv3_2"
}
layer {
  name: "conv3_3"
  type: "Convolution"
  bottom: "conv3_2"
  top: "conv3_3"
  param {
    lr_mult: 1
    decay_mult: 1
  }
  param {
    lr_mult: 2
    decay_mult: 0
  }
  convolution_param {
    num_output: 256
    pad: 1
    kernel_size: 3
    weight_filler {
      type: "xavier"
    }
    bias_filler {
      type: "constant"
      value: 0
    }
  }
}
layer {
  name: "relu3_3"
  type: "ReLU"
  bottom: "conv3_3"
  top: "conv3_3"
}
layer {
  name: "pool3"
  type: "Pooling"
  bottom: "conv3_3"
  top: "pool3"
  pooling_param {
    pool: MAX
    kernel_size: 2
    stride: 2
  }
}
layer {
  name: "conv4_1"
  type: "Convolution"
  bottom: "pool3"
  top: "conv4_1"
  param {
    lr_mult: 1
    decay_mult: 1
  }
  param {
    lr_mult: 2
    decay_mult: 0
  }
  convolution_param {
    num_output: 512
    pad: 1
    kernel_size: 3
    weight_filler {
      type: "xavier"
    }
    bias_filler {
      type: "constant"
      value: 0
    }
  }
}
layer {
  name: "relu4_1"
  type: "ReLU"
  bottom: "conv4_1"
  top: "conv4_1"
}
layer {
  name: "conv4_2"
  type: "Convolution"
  bottom: "conv4_1"
  top: "conv4_2"
  param {
    lr_mult: 1
    decay_mult: 1
  }
  param {
    lr_mult: 2
    decay_mult: 0
  }
  convolution_param {
    num_output: 512
    pad: 1
    kernel_size: 3
    weight_filler {
      type: "xavier"
    }
    bias_filler {
      type: "constant"
      value: 0
    }
  }
}
layer {
  name: "relu4_2"
  type: "ReLU"
  bottom: "conv4_2"
  top: "conv4_2"
}
layer {
  name: "conv4_3"
  type: "Convolution"
  bottom: "conv4_2"
  top: "conv4_3"
  param {
    lr_mult: 1
    decay_mult: 1
  }
  param {
    lr_mult: 2
    decay_mult: 0
  }
  convolution_param {
    num_output: 512
    pad: 1
    kernel_size: 3
    weight_filler {
      type: "xavier"
    }
    bias_filler {
      type: "constant"
      value: 0
    }
  }
}
layer {
  name: "relu4_3"
  type: "ReLU"
  bottom: "conv4_3"
  top: "conv4_3"
}
layer {
  name: "pool4"
  type: "Pooling"
  bottom: "conv4_3"
  top: "pool4"
  pooling_param {
    pool: MAX
    kernel_size: 2
    stride: 2
  }
}
layer {
  name: "conv5_1"
  type: "Convolution"
  bottom: "pool4"
  top: "conv5_1"
  param {
    lr_mult: 1
    decay_mult: 1
  }
  param {
    lr_mult: 2
    decay_mult: 0
  }
  convolution_param {
    num_output: 512
    pad: 1
    kernel_size: 3
    weight_filler {
      type: "xavier"
    }
    bias_filler {
      type: "constant"
      value: 0
    }
    dilation: 1
  }
}
layer {
  name: "relu5_1"
  type: "ReLU"
  bottom: "conv5_1"
  top: "conv5_1"
}
layer {
  name: "conv5_2"
  type: "Convolution"
  bottom: "conv5_1"
  top: "conv5_2"
  param {
    lr_mult: 1
    decay_mult: 1
  }
  param {
    lr_mult: 2
    decay_mult: 0
  }
  convolution_param {
    num_output: 512
    pad: 1
    kernel_size: 3
    weight_filler {
      type: "xavier"
    }
    bias_filler {
      type: "constant"
      value: 0
    }
    dilation: 1
  }
}
layer {
  name: "relu5_2"
  type: "ReLU"
  bottom: "conv5_2"
  top: "conv5_2"
}
layer {
  name: "conv5_3"
  type: "Convolution"
  bottom: "conv5_2"
  top: "conv5_3"
  param {
    lr_mult: 1
    decay_mult: 1
  }
  param {
    lr_mult: 2
    decay_mult: 0
  }
  convolution_param {
    num_output: 512
    pad: 1
    kernel_size: 3
    weight_filler {
      type: "xavier"
    }
    bias_filler {
      type: "constant"
      value: 0
    }
    dilation: 1
  }
}
layer {
  name: "relu5_3"
  type: "ReLU"
  bottom: "conv5_3"
  top: "conv5_3"
}
layer {
  name: "pool5"
  type: "Pooling"
  bottom: "conv5_3"
  top: "pool5"
  pooling_param {
    pool: MAX
    kernel_size: 3
    stride: 1
    pad: 1
  }
}
layer {
  name: "fc6"
  type: "Convolution"
  bottom: "pool5"
  top: "fc6"
  param {
    lr_mult: 1
    decay_mult: 1
  }
  param {
    lr_mult: 2
    decay_mult: 0
  }
  convolution_param {
    num_output: 1024
    pad: 6
    kernel_size: 3
    weight_filler {
      type: "xavier"
    }
    bias_filler {
      type: "constant"
      value: 0
    }
    dilation: 6
  }
}
layer {
  name: "relu6"
  type: "ReLU"
  bottom: "fc6"
  top: "fc6"
}
layer {
  name: "fc7"
  type: "Convolution"
  bottom: "fc6"
  top: "fc7"
  param {
    lr_mult: 1
    decay_mult: 1
  }
  param {
    lr_mult: 2
    decay_mult: 0
  }
  convolution_param {
    num_output: 1024
    kernel_size: 1
    weight_filler {
      type: "xavier"
    }
    bias_filler {
      type: "constant"
      value: 0
    }
  }
}
layer {
  name: "relu7"
  type: "ReLU"
  bottom: "fc7"
  top: "fc7"
}
layer {
  name: "conv6_1"
  type: "Convolution"
  bottom: "fc7"
  top: "conv6_1"
  param {
    lr_mult: 1
    decay_mult: 1
  }
  param {
    lr_mult: 2
    decay_mult: 0
  }
  convolution_param {
    num_output: 256
    pad: 0
    kernel_size: 1
    stride: 1
    weight_filler {
      type: "xavier"
    }
    bias_filler {
      type: "constant"
      value: 0
    }
  }
}
layer {
  name: "conv6_1_relu"
  type: "ReLU"
  bottom: "conv6_1"
  top: "conv6_1"
}
layer {
  name: "conv6_2"
  type: "Convolution"
  bottom: "conv6_1"
  top: "conv6_2"
  param {
    lr_mult: 1
    decay_mult: 1
  }
  param {
    lr_mult: 2
    decay_mult: 0
  }
  convolution_param {
    num_output: 512
    pad: 1
    kernel_size: 3
    stride: 2
    weight_filler {
      type: "xavier"
    }
    bias_filler {
      type: "constant"
      value: 0
    }
  }
}
layer {
  name: "conv6_2_relu"
  type: "ReLU"
  bottom: "conv6_2"
  top: "conv6_2"
}
layer {
  name: "conv7_1"
  type: "Convolution"
  bottom: "conv6_2"
  top: "conv7_1"
  param {
    lr_mult: 1
    decay_mult: 1
  }
  param {
    lr_mult: 2
    decay_mult: 0
  }
  convolution_param {
    num_output: 128
    pad: 0
    kernel_size: 1
    stride: 1
    weight_filler {
      type: "xavier"
    }
    bias_filler {
      type: "constant"
      value: 0
    }
  }
}
layer {
  name: "conv7_1_relu"
  type: "ReLU"
  bottom: "conv7_1"
  top: "conv7_1"
}
layer {
  name: "conv7_2"
  type: "Convolution"
  bottom: "conv7_1"
  top: "conv7_2"
  param {
    lr_mult: 1
    decay_mult: 1
  }
  param {
    lr_mult: 2
    decay_mult: 0
  }
  convolution_param {
    num_output: 256
    pad: 1
    kernel_size: 3
    stride: 2
    weight_filler {
      type: "xavier"
    }
    bias_filler {
      type: "constant"
      value: 0
    }
  }
}
layer {
  name: "conv7_2_relu"
  type: "ReLU"
  bottom: "conv7_2"
  top: "conv7_2"
}
layer {
  name: "conv8_1"
  type: "Convolution"
  bottom: "conv7_2"
  top: "conv8_1"
  param {
    lr_mult: 1
    decay_mult: 1
  }
  param {
    lr_mult: 2
    decay_mult: 0
  }
  convolution_param {
    num_output: 128
    pad: 0
    kernel_size: 1
    stride: 1
    weight_filler {
      type: "xavier"
    }
    bias_filler {
      type: "constant"
      value: 0
    }
  }
}
layer {
  name: "conv8_1_relu"
  type: "ReLU"
  bottom: "conv8_1"
  top: "conv8_1"
}
layer {
  name: "conv8_2"
  type: "Convolution"
  bottom: "conv8_1"
  top: "conv8_2"
  param {
    lr_mult: 1
    decay_mult: 1
  }
  param {
    lr_mult: 2
    decay_mult: 0
  }
  convolution_param {
    num_output: 256
    pad: 0
    kernel_size: 3
    stride: 1
    weight_filler {
      type: "xavier"
    }
    bias_filler {
      type: "constant"
      value: 0
    }
  }
}
layer {
  name: "conv8_2_relu"
  type: "ReLU"
  bottom: "conv8_2"
  top: "conv8_2"
}
layer {
  name: "conv9_1"
  type: "Convolution"
  bottom: "conv8_2"
  top: "conv9_1"
  param {
    lr_mult: 1
    decay_mult: 1
  }
  param {
    lr_mult: 2
    decay_mult: 0
  }
  convolution_param {
    num_output: 128
    pad: 0
    kernel_size: 1
    stride: 1
    weight_filler {
      type: "xavier"
    }
    bias_filler {
      type: "constant"
      value: 0
    }
  }
}
layer {
  name: "conv9_1_relu"
  type: "ReLU"
  bottom: "conv9_1"
  top: "conv9_1"
}
layer {
  name: "conv9_2"
  type: "Convolution"
  bottom: "conv9_1"
  top: "conv9_2"
  param {
    lr_mult: 1
    decay_mult: 1
  }
  param {
    lr_mult: 2
    decay_mult: 0
  }
  convolution_param {
    num_output: 256
    pad: 0
    kernel_size: 3
    stride: 1
    weight_filler {
      type: "xavier"
    }
    bias_filler {
      type: "constant"
      value: 0
    }
  }
}
layer {
  name: "conv9_2_relu"
  type: "ReLU"
  bottom: "conv9_2"
  top: "conv9_2"
}
layer {
  name: "Deconvolution1"
  type: "Deconvolution"
  bottom: "conv5_3"
  top: "Deconvolution1"
  convolution_param {
    num_output: 512
    pad: 0
    kernel_size: 2
    stride: 2
    weight_filler {
      type: "bilinear"
    }
  }
}
layer {
  name: "Convolution1"
  type: "Convolution"
  bottom: "Deconvolution1"
  top: "Convolution1"
  convolution_param {
    num_output: 512
    pad: 1
    kernel_size: 3
    stride: 1
  }
}
layer {
  name: "BatchNorm1"
  type: "BatchNorm"
  bottom: "Convolution1"
  top: "Convolution1"
}
layer {
  name: "up_conv5_3"
  type: "ReLU"
  bottom: "Convolution1"
  top: "Convolution1"
}
layer {
  name: "Convolution2"
  type: "Convolution"
  bottom: "conv4_3"
  top: "Convolution2"
  convolution_param {
    num_output: 512
    pad: 1
    kernel_size: 3
    stride: 1
  }
}
layer {
  name: "BatchNorm2"
  type: "BatchNorm"
  bottom: "Convolution2"
  top: "Convolution2"
}
layer {
  name: "conv4_3_conv"
  type: "ReLU"
  bottom: "Convolution2"
  top: "Convolution2"
}
layer {
  name: "Concat1"
  type: "Concat"
  bottom: "Convolution1"
  bottom: "Convolution2"
  top: "Concat1"
}
layer {
  name: "Convolution3"
  type: "Convolution"
  bottom: "Concat1"
  top: "Convolution3"
  convolution_param {
    num_output: 512
    kernel_size: 1
    stride: 1
  }
}
layer {
  name: "conc1"
  type: "ReLU"
  bottom: "Convolution3"
  top: "Convolution3"
}
layer {
  name: "conc1_norm"
  type: "Normalize"
  bottom: "Convolution3"
  top: "conc1_norm"
  norm_param {
    across_spatial: false
    scale_filler {
      type: "constant"
      value: 20
    }
    channel_shared: false
  }
}
layer {
  name: "conc1_norm_mbox_loc"
  type: "Convolution"
  bottom: "conc1_norm"
  top: "conc1_norm_mbox_loc"
  param {
    lr_mult: 1
    decay_mult: 1
  }
  param {
    lr_mult: 2
    decay_mult: 0
  }
  convolution_param {
    num_output: 16
    pad: 1
    kernel_size: 3
    stride: 1
    weight_filler {
      type: "xavier"
    }
    bias_filler {
      type: "constant"
      value: 0
    }
  }
}
layer {
  name: "conc1_norm_mbox_loc_perm"
  type: "Permute"
  bottom: "conc1_norm_mbox_loc"
  top: "conc1_norm_mbox_loc_perm"
  permute_param {
    order: 0
    order: 2
    order: 3
    order: 1
  }
}
layer {
  name: "conc1_norm_mbox_loc_flat"
  type: "Flatten"
  bottom: "conc1_norm_mbox_loc_perm"
  top: "conc1_norm_mbox_loc_flat"
  flatten_param {
    axis: 1
  }
}
layer {
  name: "conc1_norm_mbox_conf"
  type: "Convolution"
  bottom: "conc1_norm"
  top: "conc1_norm_mbox_conf"
  param {
    lr_mult: 1
    decay_mult: 1
  }
  param {
    lr_mult: 2
    decay_mult: 0
  }
  convolution_param {
    num_output: 84
    pad: 1
    kernel_size: 3
    stride: 1
    weight_filler {
      type: "xavier"
    }
    bias_filler {
      type: "constant"
      value: 0
    }
  }
}
layer {
  name: "conc1_norm_mbox_conf_perm"
  type: "Permute"
  bottom: "conc1_norm_mbox_conf"
  top: "conc1_norm_mbox_conf_perm"
  permute_param {
    order: 0
    order: 2
    order: 3
    order: 1
  }
}
layer {
  name: "conc1_norm_mbox_conf_flat"
  type: "Flatten"
  bottom: "conc1_norm_mbox_conf_perm"
  top: "conc1_norm_mbox_conf_flat"
  flatten_param {
    axis: 1
  }
}
layer {
  name: "conc1_norm_mbox_priorbox"
  type: "PriorBox"
  bottom: "conc1_norm"
  bottom: "data"
  top: "conc1_norm_mbox_priorbox"
  prior_box_param {
    min_size: 30
    max_size: 60
    aspect_ratio: 2
    flip: true
    clip: false
    variance: 0.1
    variance: 0.1
    variance: 0.2
    variance: 0.2
    step: 8
    offset: 0.5
  }
}
layer {
  name: "fc7_mbox_loc"
  type: "Convolution"
  bottom: "fc7"
  top: "fc7_mbox_loc"
  param {
    lr_mult: 1
    decay_mult: 1
  }
  param {
    lr_mult: 2
    decay_mult: 0
  }
  convolution_param {
    num_output: 24
    pad: 1
    kernel_size: 3
    stride: 1
    weight_filler {
      type: "xavier"
    }
    bias_filler {
      type: "constant"
      value: 0
    }
  }
}
layer {
  name: "fc7_mbox_loc_perm"
  type: "Permute"
  bottom: "fc7_mbox_loc"
  top: "fc7_mbox_loc_perm"
  permute_param {
    order: 0
    order: 2
    order: 3
    order: 1
  }
}
layer {
  name: "fc7_mbox_loc_flat"
  type: "Flatten"
  bottom: "fc7_mbox_loc_perm"
  top: "fc7_mbox_loc_flat"
  flatten_param {
    axis: 1
  }
}
layer {
  name: "fc7_mbox_conf"
  type: "Convolution"
  bottom: "fc7"
  top: "fc7_mbox_conf"
  param {
    lr_mult: 1
    decay_mult: 1
  }
  param {
    lr_mult: 2
    decay_mult: 0
  }
  convolution_param {
    num_output: 126
    pad: 1
    kernel_size: 3
    stride: 1
    weight_filler {
      type: "xavier"
    }
    bias_filler {
      type: "constant"
      value: 0
    }
  }
}
layer {
  name: "fc7_mbox_conf_perm"
  type: "Permute"
  bottom: "fc7_mbox_conf"
  top: "fc7_mbox_conf_perm"
  permute_param {
    order: 0
    order: 2
    order: 3
    order: 1
  }
}
layer {
  name: "fc7_mbox_conf_flat"
  type: "Flatten"
  bottom: "fc7_mbox_conf_perm"
  top: "fc7_mbox_conf_flat"
  flatten_param {
    axis: 1
  }
}
layer {
  name: "fc7_mbox_priorbox"
  type: "PriorBox"
  bottom: "fc7"
  bottom: "data"
  top: "fc7_mbox_priorbox"
  prior_box_param {
    min_size: 60
    max_size: 111
    aspect_ratio: 2
    aspect_ratio: 3
    flip: true
    clip: false
    variance: 0.1
    variance: 0.1
    variance: 0.2
    variance: 0.2
    step: 16
    offset: 0.5
  }
}
layer {
  name: "conv6_2_mbox_loc"
  type: "Convolution"
  bottom: "conv6_2"
  top: "conv6_2_mbox_loc"
  param {
    lr_mult: 1
    decay_mult: 1
  }
  param {
    lr_mult: 2
    decay_mult: 0
  }
  convolution_param {
    num_output: 24
    pad: 1
    kernel_size: 3
    stride: 1
    weight_filler {
      type: "xavier"
    }
    bias_filler {
      type: "constant"
      value: 0
    }
  }
}
layer {
  name: "conv6_2_mbox_loc_perm"
  type: "Permute"
  bottom: "conv6_2_mbox_loc"
  top: "conv6_2_mbox_loc_perm"
  permute_param {
    order: 0
    order: 2
    order: 3
    order: 1
  }
}
layer {
  name: "conv6_2_mbox_loc_flat"
  type: "Flatten"
  bottom: "conv6_2_mbox_loc_perm"
  top: "conv6_2_mbox_loc_flat"
  flatten_param {
    axis: 1
  }
}
layer {
  name: "conv6_2_mbox_conf"
  type: "Convolution"
  bottom: "conv6_2"
  top: "conv6_2_mbox_conf"
  param {
    lr_mult: 1
    decay_mult: 1
  }
  param {
    lr_mult: 2
    decay_mult: 0
  }
  convolution_param {
    num_output: 126
    pad: 1
    kernel_size: 3
    stride: 1
    weight_filler {
      type: "xavier"
    }
    bias_filler {
      type: "constant"
      value: 0
    }
  }
}
layer {
  name: "conv6_2_mbox_conf_perm"
  type: "Permute"
  bottom: "conv6_2_mbox_conf"
  top: "conv6_2_mbox_conf_perm"
  permute_param {
    order: 0
    order: 2
    order: 3
    order: 1
  }
}
layer {
  name: "conv6_2_mbox_conf_flat"
  type: "Flatten"
  bottom: "conv6_2_mbox_conf_perm"
  top: "conv6_2_mbox_conf_flat"
  flatten_param {
    axis: 1
  }
}
layer {
  name: "conv6_2_mbox_priorbox"
  type: "PriorBox"
  bottom: "conv6_2"
  bottom: "data"
  top: "conv6_2_mbox_priorbox"
  prior_box_param {
    min_size: 111
    max_size: 162
    aspect_ratio: 2
    aspect_ratio: 3
    flip: true
    clip: false
    variance: 0.1
    variance: 0.1
    variance: 0.2
    variance: 0.2
    step: 32
    offset: 0.5
  }
}
layer {
  name: "conv7_2_mbox_loc"
  type: "Convolution"
  bottom: "conv7_2"
  top: "conv7_2_mbox_loc"
  param {
    lr_mult: 1
    decay_mult: 1
  }
  param {
    lr_mult: 2
    decay_mult: 0
  }
  convolution_param {
    num_output: 24
    pad: 1
    kernel_size: 3
    stride: 1
    weight_filler {
      type: "xavier"
    }
    bias_filler {
      type: "constant"
      value: 0
    }
  }
}
layer {
  name: "conv7_2_mbox_loc_perm"
  type: "Permute"
  bottom: "conv7_2_mbox_loc"
  top: "conv7_2_mbox_loc_perm"
  permute_param {
    order: 0
    order: 2
    order: 3
    order: 1
  }
}
layer {
  name: "conv7_2_mbox_loc_flat"
  type: "Flatten"
  bottom: "conv7_2_mbox_loc_perm"
  top: "conv7_2_mbox_loc_flat"
  flatten_param {
    axis: 1
  }
}
layer {
  name: "conv7_2_mbox_conf"
  type: "Convolution"
  bottom: "conv7_2"
  top: "conv7_2_mbox_conf"
  param {
    lr_mult: 1
    decay_mult: 1
  }
  param {
    lr_mult: 2
    decay_mult: 0
  }
  convolution_param {
    num_output: 126
    pad: 1
    kernel_size: 3
    stride: 1
    weight_filler {
      type: "xavier"
    }
    bias_filler {
      type: "constant"
      value: 0
    }
  }
}
layer {
  name: "conv7_2_mbox_conf_perm"
  type: "Permute"
  bottom: "conv7_2_mbox_conf"
  top: "conv7_2_mbox_conf_perm"
  permute_param {
    order: 0
    order: 2
    order: 3
    order: 1
  }
}
layer {
  name: "conv7_2_mbox_conf_flat"
  type: "Flatten"
  bottom: "conv7_2_mbox_conf_perm"
  top: "conv7_2_mbox_conf_flat"
  flatten_param {
    axis: 1
  }
}
layer {
  name: "conv7_2_mbox_priorbox"
  type: "PriorBox"
  bottom: "conv7_2"
  bottom: "data"
  top: "conv7_2_mbox_priorbox"
  prior_box_param {
    min_size: 162
    max_size: 213
    aspect_ratio: 2
    aspect_ratio: 3
    flip: true
    clip: false
    variance: 0.1
    variance: 0.1
    variance: 0.2
    variance: 0.2
    step: 64
    offset: 0.5
  }
}
layer {
  name: "conv8_2_mbox_loc"
  type: "Convolution"
  bottom: "conv8_2"
  top: "conv8_2_mbox_loc"
  param {
    lr_mult: 1
    decay_mult: 1
  }
  param {
    lr_mult: 2
    decay_mult: 0
  }
  convolution_param {
    num_output: 16
    pad: 1
    kernel_size: 3
    stride: 1
    weight_filler {
      type: "xavier"
    }
    bias_filler {
      type: "constant"
      value: 0
    }
  }
}
layer {
  name: "conv8_2_mbox_loc_perm"
  type: "Permute"
  bottom: "conv8_2_mbox_loc"
  top: "conv8_2_mbox_loc_perm"
  permute_param {
    order: 0
    order: 2
    order: 3
    order: 1
  }
}
layer {
  name: "conv8_2_mbox_loc_flat"
  type: "Flatten"
  bottom: "conv8_2_mbox_loc_perm"
  top: "conv8_2_mbox_loc_flat"
  flatten_param {
    axis: 1
  }
}
layer {
  name: "conv8_2_mbox_conf"
  type: "Convolution"
  bottom: "conv8_2"
  top: "conv8_2_mbox_conf"
  param {
    lr_mult: 1
    decay_mult: 1
  }
  param {
    lr_mult: 2
    decay_mult: 0
  }
  convolution_param {
    num_output: 84
    pad: 1
    kernel_size: 3
    stride: 1
    weight_filler {
      type: "xavier"
    }
    bias_filler {
      type: "constant"
      value: 0
    }
  }
}
layer {
  name: "conv8_2_mbox_conf_perm"
  type: "Permute"
  bottom: "conv8_2_mbox_conf"
  top: "conv8_2_mbox_conf_perm"
  permute_param {
    order: 0
    order: 2
    order: 3
    order: 1
  }
}
layer {
  name: "conv8_2_mbox_conf_flat"
  type: "Flatten"
  bottom: "conv8_2_mbox_conf_perm"
  top: "conv8_2_mbox_conf_flat"
  flatten_param {
    axis: 1
  }
}
layer {
  name: "conv8_2_mbox_priorbox"
  type: "PriorBox"
  bottom: "conv8_2"
  bottom: "data"
  top: "conv8_2_mbox_priorbox"
  prior_box_param {
    min_size: 213
    max_size: 264
    aspect_ratio: 2
    flip: true
    clip: false
    variance: 0.1
    variance: 0.1
    variance: 0.2
    variance: 0.2
    step: 100
    offset: 0.5
  }
}
layer {
  name: "conv9_2_mbox_loc"
  type: "Convolution"
  bottom: "conv9_2"
  top: "conv9_2_mbox_loc"
  param {
    lr_mult: 1
    decay_mult: 1
  }
  param {
    lr_mult: 2
    decay_mult: 0
  }
  convolution_param {
    num_output: 16
    pad: 1
    kernel_size: 3
    stride: 1
    weight_filler {
      type: "xavier"
    }
    bias_filler {
      type: "constant"
      value: 0
    }
  }
}
layer {
  name: "conv9_2_mbox_loc_perm"
  type: "Permute"
  bottom: "conv9_2_mbox_loc"
  top: "conv9_2_mbox_loc_perm"
  permute_param {
    order: 0
    order: 2
    order: 3
    order: 1
  }
}
layer {
  name: "conv9_2_mbox_loc_flat"
  type: "Flatten"
  bottom: "conv9_2_mbox_loc_perm"
  top: "conv9_2_mbox_loc_flat"
  flatten_param {
    axis: 1
  }
}
layer {
  name: "conv9_2_mbox_conf"
  type: "Convolution"
  bottom: "conv9_2"
  top: "conv9_2_mbox_conf"
  param {
    lr_mult: 1
    decay_mult: 1
  }
  param {
    lr_mult: 2
    decay_mult: 0
  }
  convolution_param {
    num_output: 84
    pad: 1
    kernel_size: 3
    stride: 1
    weight_filler {
      type: "xavier"
    }
    bias_filler {
      type: "constant"
      value: 0
    }
  }
}
layer {
  name: "conv9_2_mbox_conf_perm"
  type: "Permute"
  bottom: "conv9_2_mbox_conf"
  top: "conv9_2_mbox_conf_perm"
  permute_param {
    order: 0
    order: 2
    order: 3
    order: 1
  }
}
layer {
  name: "conv9_2_mbox_conf_flat"
  type: "Flatten"
  bottom: "conv9_2_mbox_conf_perm"
  top: "conv9_2_mbox_conf_flat"
  flatten_param {
    axis: 1
  }
}
layer {
  name: "conv9_2_mbox_priorbox"
  type: "PriorBox"
  bottom: "conv9_2"
  bottom: "data"
  top: "conv9_2_mbox_priorbox"
  prior_box_param {
    min_size: 264
    max_size: 315
    aspect_ratio: 2
    flip: true
    clip: false
    variance: 0.1
    variance: 0.1
    variance: 0.2
    variance: 0.2
    step: 300
    offset: 0.5
  }
}
layer {
  name: "mbox_loc"
  type: "Concat"
  bottom: "conc1_norm_mbox_loc_flat"
  bottom: "fc7_mbox_loc_flat"
  bottom: "conv6_2_mbox_loc_flat"
  bottom: "conv7_2_mbox_loc_flat"
  bottom: "conv8_2_mbox_loc_flat"
  bottom: "conv9_2_mbox_loc_flat"
  top: "mbox_loc"
  concat_param {
    axis: 1
  }
}
layer {
  name: "mbox_conf"
  type: "Concat"
  bottom: "conc1_norm_mbox_conf_flat"
  bottom: "fc7_mbox_conf_flat"
  bottom: "conv6_2_mbox_conf_flat"
  bottom: "conv7_2_mbox_conf_flat"
  bottom: "conv8_2_mbox_conf_flat"
  bottom: "conv9_2_mbox_conf_flat"
  top: "mbox_conf"
  concat_param {
    axis: 1
  }
}
layer {
  name: "mbox_priorbox"
  type: "Concat"
  bottom: "conc1_norm_mbox_priorbox"
  bottom: "fc7_mbox_priorbox"
  bottom: "conv6_2_mbox_priorbox"
  bottom: "conv7_2_mbox_priorbox"
  bottom: "conv8_2_mbox_priorbox"
  bottom: "conv9_2_mbox_priorbox"
  top: "mbox_priorbox"
  concat_param {
    axis: 2
  }
}
layer {
  name: "mbox_conf_reshape"
  type: "Reshape"
  bottom: "mbox_conf"
  top: "mbox_conf_reshape"
  reshape_param {
    shape {
      dim: 0
      dim: -1
      dim: 21
    }
  }
}
layer {
  name: "mbox_conf_softmax"
  type: "Softmax"
  bottom: "mbox_conf_reshape"
  top: "mbox_conf_softmax"
  softmax_param {
    axis: 2
  }
}
layer {
  name: "mbox_conf_flatten"
  type: "Flatten"
  bottom: "mbox_conf_softmax"
  top: "mbox_conf_flatten"
  flatten_param {
    axis: 1
  }
}
layer {
  name: "detection_out"
  type: "DetectionOutput"
  bottom: "mbox_loc"
  bottom: "mbox_conf_flatten"
  bottom: "mbox_priorbox"
  top: "detection_out"
  include {
    phase: TEST
  }
  detection_output_param {
    num_classes: 21
    share_location: true
    background_label_id: 0
    nms_param {
      nms_threshold: 0.45
      top_k: 400
    }
    save_output_param {
      output_directory: "/home/yanzhiwei/data/VOCdevkit/results/VOC2007/SSD_up_lessparam_fusion_300x300/Main"
      output_name_prefix: "comp4_det_test_"
      output_format: "VOC"
      label_map_file: "data/VOC0712/labelmap_voc.prototxt"
      name_size_file: "data/VOC0712/test_name_size.txt"
      num_test_image: 4952
    }
    code_type: CENTER_SIZE
    keep_top_k: 200
    confidence_threshold: 0.01
  }
}
layer {
  name: "detection_eval"
  type: "DetectionEvaluate"
  bottom: "detection_out"
  bottom: "label"
  top: "detection_eval"
  include {
    phase: TEST
  }
  detection_evaluate_param {
    num_classes: 21
    background_label_id: 0
    overlap_threshold: 0.5
    evaluate_difficult_gt: false
    name_size_file: "data/VOC0712/test_name_size.txt"
  }
}
I0405 21:15:04.135979  9520 layer_factory.hpp:77] Creating layer data
I0405 21:15:04.136247  9520 net.cpp:100] Creating Layer data
I0405 21:15:04.136263  9520 net.cpp:408] data -> data
I0405 21:15:04.136281  9520 net.cpp:408] data -> label
I0405 21:15:04.141041  9569 db_lmdb.cpp:35] Opened lmdb examples/VOC0712/VOC0712_test_lmdb
I0405 21:15:04.145273  9520 annotated_data_layer.cpp:62] output data size: 4,3,300,300
I0405 21:15:04.165974  9520 net.cpp:150] Setting up data
I0405 21:15:04.166033  9520 net.cpp:157] Top shape: 4 3 300 300 (1080000)
I0405 21:15:04.166043  9520 net.cpp:157] Top shape: 1 1 2 8 (16)
I0405 21:15:04.166049  9520 net.cpp:165] Memory required for data: 4320064
I0405 21:15:04.166066  9520 layer_factory.hpp:77] Creating layer data_data_0_split
I0405 21:15:04.166095  9520 net.cpp:100] Creating Layer data_data_0_split
I0405 21:15:04.166129  9520 net.cpp:434] data_data_0_split <- data
I0405 21:15:04.166148  9520 net.cpp:408] data_data_0_split -> data_data_0_split_0
I0405 21:15:04.166172  9520 net.cpp:408] data_data_0_split -> data_data_0_split_1
I0405 21:15:04.166187  9520 net.cpp:408] data_data_0_split -> data_data_0_split_2
I0405 21:15:04.166198  9520 net.cpp:408] data_data_0_split -> data_data_0_split_3
I0405 21:15:04.166208  9520 net.cpp:408] data_data_0_split -> data_data_0_split_4
I0405 21:15:04.166218  9520 net.cpp:408] data_data_0_split -> data_data_0_split_5
I0405 21:15:04.166227  9520 net.cpp:408] data_data_0_split -> data_data_0_split_6
I0405 21:15:04.166496  9520 net.cpp:150] Setting up data_data_0_split
I0405 21:15:04.166510  9520 net.cpp:157] Top shape: 4 3 300 300 (1080000)
I0405 21:15:04.166517  9520 net.cpp:157] Top shape: 4 3 300 300 (1080000)
I0405 21:15:04.166523  9520 net.cpp:157] Top shape: 4 3 300 300 (1080000)
I0405 21:15:04.166529  9520 net.cpp:157] Top shape: 4 3 300 300 (1080000)
I0405 21:15:04.166535  9520 net.cpp:157] Top shape: 4 3 300 300 (1080000)
I0405 21:15:04.166541  9520 net.cpp:157] Top shape: 4 3 300 300 (1080000)
I0405 21:15:04.166548  9520 net.cpp:157] Top shape: 4 3 300 300 (1080000)
I0405 21:15:04.166553  9520 net.cpp:165] Memory required for data: 34560064
I0405 21:15:04.166558  9520 layer_factory.hpp:77] Creating layer conv1_1
I0405 21:15:04.166586  9520 net.cpp:100] Creating Layer conv1_1
I0405 21:15:04.166592  9520 net.cpp:434] conv1_1 <- data_data_0_split_0
I0405 21:15:04.166604  9520 net.cpp:408] conv1_1 -> conv1_1
I0405 21:15:04.169631  9520 net.cpp:150] Setting up conv1_1
I0405 21:15:04.169653  9520 net.cpp:157] Top shape: 4 64 300 300 (23040000)
I0405 21:15:04.169658  9520 net.cpp:165] Memory required for data: 126720064
I0405 21:15:04.169678  9520 layer_factory.hpp:77] Creating layer relu1_1
I0405 21:15:04.169692  9520 net.cpp:100] Creating Layer relu1_1
I0405 21:15:04.169697  9520 net.cpp:434] relu1_1 <- conv1_1
I0405 21:15:04.169705  9520 net.cpp:395] relu1_1 -> conv1_1 (in-place)
I0405 21:15:04.169987  9520 net.cpp:150] Setting up relu1_1
I0405 21:15:04.170001  9520 net.cpp:157] Top shape: 4 64 300 300 (23040000)
I0405 21:15:04.170006  9520 net.cpp:165] Memory required for data: 218880064
I0405 21:15:04.170011  9520 layer_factory.hpp:77] Creating layer conv1_2
I0405 21:15:04.170028  9520 net.cpp:100] Creating Layer conv1_2
I0405 21:15:04.170035  9520 net.cpp:434] conv1_2 <- conv1_1
I0405 21:15:04.170044  9520 net.cpp:408] conv1_2 -> conv1_2
I0405 21:15:04.173030  9520 net.cpp:150] Setting up conv1_2
I0405 21:15:04.173053  9520 net.cpp:157] Top shape: 4 64 300 300 (23040000)
I0405 21:15:04.173060  9520 net.cpp:165] Memory required for data: 311040064
I0405 21:15:04.173075  9520 layer_factory.hpp:77] Creating layer relu1_2
I0405 21:15:04.173084  9520 net.cpp:100] Creating Layer relu1_2
I0405 21:15:04.173090  9520 net.cpp:434] relu1_2 <- conv1_2
I0405 21:15:04.173099  9520 net.cpp:395] relu1_2 -> conv1_2 (in-place)
I0405 21:15:04.173369  9520 net.cpp:150] Setting up relu1_2
I0405 21:15:04.173382  9520 net.cpp:157] Top shape: 4 64 300 300 (23040000)
I0405 21:15:04.173388  9520 net.cpp:165] Memory required for data: 403200064
I0405 21:15:04.173394  9520 layer_factory.hpp:77] Creating layer pool1
I0405 21:15:04.173408  9520 net.cpp:100] Creating Layer pool1
I0405 21:15:04.173413  9520 net.cpp:434] pool1 <- conv1_2
I0405 21:15:04.173421  9520 net.cpp:408] pool1 -> pool1
I0405 21:15:04.173501  9520 net.cpp:150] Setting up pool1
I0405 21:15:04.173511  9520 net.cpp:157] Top shape: 4 64 150 150 (5760000)
I0405 21:15:04.173516  9520 net.cpp:165] Memory required for data: 426240064
I0405 21:15:04.173521  9520 layer_factory.hpp:77] Creating layer conv2_1
I0405 21:15:04.173535  9520 net.cpp:100] Creating Layer conv2_1
I0405 21:15:04.173540  9520 net.cpp:434] conv2_1 <- pool1
I0405 21:15:04.173549  9520 net.cpp:408] conv2_1 -> conv2_1
I0405 21:15:04.180476  9520 net.cpp:150] Setting up conv2_1
I0405 21:15:04.180521  9520 net.cpp:157] Top shape: 4 128 150 150 (11520000)
I0405 21:15:04.180573  9520 net.cpp:165] Memory required for data: 472320064
I0405 21:15:04.180594  9520 layer_factory.hpp:77] Creating layer relu2_1
I0405 21:15:04.180615  9520 net.cpp:100] Creating Layer relu2_1
I0405 21:15:04.180622  9520 net.cpp:434] relu2_1 <- conv2_1
I0405 21:15:04.180634  9520 net.cpp:395] relu2_1 -> conv2_1 (in-place)
I0405 21:15:04.180922  9520 net.cpp:150] Setting up relu2_1
I0405 21:15:04.180939  9520 net.cpp:157] Top shape: 4 128 150 150 (11520000)
I0405 21:15:04.180945  9520 net.cpp:165] Memory required for data: 518400064
I0405 21:15:04.180950  9520 layer_factory.hpp:77] Creating layer conv2_2
I0405 21:15:04.180970  9520 net.cpp:100] Creating Layer conv2_2
I0405 21:15:04.180975  9520 net.cpp:434] conv2_2 <- conv2_1
I0405 21:15:04.180989  9520 net.cpp:408] conv2_2 -> conv2_2
I0405 21:15:04.186213  9520 net.cpp:150] Setting up conv2_2
I0405 21:15:04.186239  9520 net.cpp:157] Top shape: 4 128 150 150 (11520000)
I0405 21:15:04.186244  9520 net.cpp:165] Memory required for data: 564480064
I0405 21:15:04.186259  9520 layer_factory.hpp:77] Creating layer relu2_2
I0405 21:15:04.186269  9520 net.cpp:100] Creating Layer relu2_2
I0405 21:15:04.186275  9520 net.cpp:434] relu2_2 <- conv2_2
I0405 21:15:04.186285  9520 net.cpp:395] relu2_2 -> conv2_2 (in-place)
I0405 21:15:04.186596  9520 net.cpp:150] Setting up relu2_2
I0405 21:15:04.186609  9520 net.cpp:157] Top shape: 4 128 150 150 (11520000)
I0405 21:15:04.186614  9520 net.cpp:165] Memory required for data: 610560064
I0405 21:15:04.186619  9520 layer_factory.hpp:77] Creating layer pool2
I0405 21:15:04.186635  9520 net.cpp:100] Creating Layer pool2
I0405 21:15:04.186640  9520 net.cpp:434] pool2 <- conv2_2
I0405 21:15:04.186651  9520 net.cpp:408] pool2 -> pool2
I0405 21:15:04.186734  9520 net.cpp:150] Setting up pool2
I0405 21:15:04.186745  9520 net.cpp:157] Top shape: 4 128 75 75 (2880000)
I0405 21:15:04.186750  9520 net.cpp:165] Memory required for data: 622080064
I0405 21:15:04.186754  9520 layer_factory.hpp:77] Creating layer conv3_1
I0405 21:15:04.186770  9520 net.cpp:100] Creating Layer conv3_1
I0405 21:15:04.186780  9520 net.cpp:434] conv3_1 <- pool2
I0405 21:15:04.186791  9520 net.cpp:408] conv3_1 -> conv3_1
I0405 21:15:04.196470  9520 net.cpp:150] Setting up conv3_1
I0405 21:15:04.196516  9520 net.cpp:157] Top shape: 4 256 75 75 (5760000)
I0405 21:15:04.196521  9520 net.cpp:165] Memory required for data: 645120064
I0405 21:15:04.196553  9520 layer_factory.hpp:77] Creating layer relu3_1
I0405 21:15:04.196573  9520 net.cpp:100] Creating Layer relu3_1
I0405 21:15:04.196581  9520 net.cpp:434] relu3_1 <- conv3_1
I0405 21:15:04.196593  9520 net.cpp:395] relu3_1 -> conv3_1 (in-place)
I0405 21:15:04.198127  9520 net.cpp:150] Setting up relu3_1
I0405 21:15:04.198151  9520 net.cpp:157] Top shape: 4 256 75 75 (5760000)
I0405 21:15:04.198158  9520 net.cpp:165] Memory required for data: 668160064
I0405 21:15:04.198163  9520 layer_factory.hpp:77] Creating layer conv3_2
I0405 21:15:04.198189  9520 net.cpp:100] Creating Layer conv3_2
I0405 21:15:04.198194  9520 net.cpp:434] conv3_2 <- conv3_1
I0405 21:15:04.198205  9520 net.cpp:408] conv3_2 -> conv3_2
I0405 21:15:04.208191  9520 net.cpp:150] Setting up conv3_2
I0405 21:15:04.208253  9520 net.cpp:157] Top shape: 4 256 75 75 (5760000)
I0405 21:15:04.208262  9520 net.cpp:165] Memory required for data: 691200064
I0405 21:15:04.208283  9520 layer_factory.hpp:77] Creating layer relu3_2
I0405 21:15:04.208302  9520 net.cpp:100] Creating Layer relu3_2
I0405 21:15:04.208312  9520 net.cpp:434] relu3_2 <- conv3_2
I0405 21:15:04.208324  9520 net.cpp:395] relu3_2 -> conv3_2 (in-place)
I0405 21:15:04.209866  9520 net.cpp:150] Setting up relu3_2
I0405 21:15:04.209888  9520 net.cpp:157] Top shape: 4 256 75 75 (5760000)
I0405 21:15:04.209895  9520 net.cpp:165] Memory required for data: 714240064
I0405 21:15:04.209902  9520 layer_factory.hpp:77] Creating layer conv3_3
I0405 21:15:04.209933  9520 net.cpp:100] Creating Layer conv3_3
I0405 21:15:04.209942  9520 net.cpp:434] conv3_3 <- conv3_2
I0405 21:15:04.209954  9520 net.cpp:408] conv3_3 -> conv3_3
I0405 21:15:04.221555  9520 net.cpp:150] Setting up conv3_3
I0405 21:15:04.221608  9520 net.cpp:157] Top shape: 4 256 75 75 (5760000)
I0405 21:15:04.221616  9520 net.cpp:165] Memory required for data: 737280064
I0405 21:15:04.221637  9520 layer_factory.hpp:77] Creating layer relu3_3
I0405 21:15:04.221659  9520 net.cpp:100] Creating Layer relu3_3
I0405 21:15:04.221668  9520 net.cpp:434] relu3_3 <- conv3_3
I0405 21:15:04.221683  9520 net.cpp:395] relu3_3 -> conv3_3 (in-place)
I0405 21:15:04.222014  9520 net.cpp:150] Setting up relu3_3
I0405 21:15:04.222028  9520 net.cpp:157] Top shape: 4 256 75 75 (5760000)
I0405 21:15:04.222033  9520 net.cpp:165] Memory required for data: 760320064
I0405 21:15:04.222039  9520 layer_factory.hpp:77] Creating layer pool3
I0405 21:15:04.222055  9520 net.cpp:100] Creating Layer pool3
I0405 21:15:04.222060  9520 net.cpp:434] pool3 <- conv3_3
I0405 21:15:04.222069  9520 net.cpp:408] pool3 -> pool3
I0405 21:15:04.222158  9520 net.cpp:150] Setting up pool3
I0405 21:15:04.222169  9520 net.cpp:157] Top shape: 4 256 38 38 (1478656)
I0405 21:15:04.222174  9520 net.cpp:165] Memory required for data: 766234688
I0405 21:15:04.222179  9520 layer_factory.hpp:77] Creating layer conv4_1
I0405 21:15:04.222201  9520 net.cpp:100] Creating Layer conv4_1
I0405 21:15:04.222208  9520 net.cpp:434] conv4_1 <- pool3
I0405 21:15:04.222220  9520 net.cpp:408] conv4_1 -> conv4_1
I0405 21:15:04.241874  9520 net.cpp:150] Setting up conv4_1
I0405 21:15:04.241930  9520 net.cpp:157] Top shape: 4 512 38 38 (2957312)
I0405 21:15:04.241935  9520 net.cpp:165] Memory required for data: 778063936
I0405 21:15:04.241955  9520 layer_factory.hpp:77] Creating layer relu4_1
I0405 21:15:04.241974  9520 net.cpp:100] Creating Layer relu4_1
I0405 21:15:04.241983  9520 net.cpp:434] relu4_1 <- conv4_1
I0405 21:15:04.241997  9520 net.cpp:395] relu4_1 -> conv4_1 (in-place)
I0405 21:15:04.242332  9520 net.cpp:150] Setting up relu4_1
I0405 21:15:04.242347  9520 net.cpp:157] Top shape: 4 512 38 38 (2957312)
I0405 21:15:04.242352  9520 net.cpp:165] Memory required for data: 789893184
I0405 21:15:04.242358  9520 layer_factory.hpp:77] Creating layer conv4_2
I0405 21:15:04.242378  9520 net.cpp:100] Creating Layer conv4_2
I0405 21:15:04.242384  9520 net.cpp:434] conv4_2 <- conv4_1
I0405 21:15:04.242396  9520 net.cpp:408] conv4_2 -> conv4_2
I0405 21:15:04.271839  9520 net.cpp:150] Setting up conv4_2
I0405 21:15:04.271899  9520 net.cpp:157] Top shape: 4 512 38 38 (2957312)
I0405 21:15:04.271905  9520 net.cpp:165] Memory required for data: 801722432
I0405 21:15:04.271940  9520 layer_factory.hpp:77] Creating layer relu4_2
I0405 21:15:04.271962  9520 net.cpp:100] Creating Layer relu4_2
I0405 21:15:04.271971  9520 net.cpp:434] relu4_2 <- conv4_2
I0405 21:15:04.271984  9520 net.cpp:395] relu4_2 -> conv4_2 (in-place)
I0405 21:15:04.272313  9520 net.cpp:150] Setting up relu4_2
I0405 21:15:04.272327  9520 net.cpp:157] Top shape: 4 512 38 38 (2957312)
I0405 21:15:04.272331  9520 net.cpp:165] Memory required for data: 813551680
I0405 21:15:04.272337  9520 layer_factory.hpp:77] Creating layer conv4_3
I0405 21:15:04.272361  9520 net.cpp:100] Creating Layer conv4_3
I0405 21:15:04.272367  9520 net.cpp:434] conv4_3 <- conv4_2
I0405 21:15:04.272378  9520 net.cpp:408] conv4_3 -> conv4_3
I0405 21:15:04.302055  9520 net.cpp:150] Setting up conv4_3
I0405 21:15:04.302109  9520 net.cpp:157] Top shape: 4 512 38 38 (2957312)
I0405 21:15:04.302116  9520 net.cpp:165] Memory required for data: 825380928
I0405 21:15:04.302137  9520 layer_factory.hpp:77] Creating layer relu4_3
I0405 21:15:04.302157  9520 net.cpp:100] Creating Layer relu4_3
I0405 21:15:04.302166  9520 net.cpp:434] relu4_3 <- conv4_3
I0405 21:15:04.302179  9520 net.cpp:395] relu4_3 -> conv4_3 (in-place)
I0405 21:15:04.302498  9520 net.cpp:150] Setting up relu4_3
I0405 21:15:04.302511  9520 net.cpp:157] Top shape: 4 512 38 38 (2957312)
I0405 21:15:04.302517  9520 net.cpp:165] Memory required for data: 837210176
I0405 21:15:04.302522  9520 layer_factory.hpp:77] Creating layer conv4_3_relu4_3_0_split
I0405 21:15:04.302572  9520 net.cpp:100] Creating Layer conv4_3_relu4_3_0_split
I0405 21:15:04.302577  9520 net.cpp:434] conv4_3_relu4_3_0_split <- conv4_3
I0405 21:15:04.302587  9520 net.cpp:408] conv4_3_relu4_3_0_split -> conv4_3_relu4_3_0_split_0
I0405 21:15:04.302600  9520 net.cpp:408] conv4_3_relu4_3_0_split -> conv4_3_relu4_3_0_split_1
I0405 21:15:04.302682  9520 net.cpp:150] Setting up conv4_3_relu4_3_0_split
I0405 21:15:04.302693  9520 net.cpp:157] Top shape: 4 512 38 38 (2957312)
I0405 21:15:04.302701  9520 net.cpp:157] Top shape: 4 512 38 38 (2957312)
I0405 21:15:04.302706  9520 net.cpp:165] Memory required for data: 860868672
I0405 21:15:04.302711  9520 layer_factory.hpp:77] Creating layer pool4
I0405 21:15:04.302726  9520 net.cpp:100] Creating Layer pool4
I0405 21:15:04.302732  9520 net.cpp:434] pool4 <- conv4_3_relu4_3_0_split_0
I0405 21:15:04.302742  9520 net.cpp:408] pool4 -> pool4
I0405 21:15:04.302814  9520 net.cpp:150] Setting up pool4
I0405 21:15:04.302824  9520 net.cpp:157] Top shape: 4 512 19 19 (739328)
I0405 21:15:04.302829  9520 net.cpp:165] Memory required for data: 863825984
I0405 21:15:04.302834  9520 layer_factory.hpp:77] Creating layer conv5_1
I0405 21:15:04.302868  9520 net.cpp:100] Creating Layer conv5_1
I0405 21:15:04.302876  9520 net.cpp:434] conv5_1 <- pool4
I0405 21:15:04.302888  9520 net.cpp:408] conv5_1 -> conv5_1
I0405 21:15:04.334108  9520 net.cpp:150] Setting up conv5_1
I0405 21:15:04.334166  9520 net.cpp:157] Top shape: 4 512 19 19 (739328)
I0405 21:15:04.334172  9520 net.cpp:165] Memory required for data: 866783296
I0405 21:15:04.334193  9520 layer_factory.hpp:77] Creating layer relu5_1
I0405 21:15:04.334213  9520 net.cpp:100] Creating Layer relu5_1
I0405 21:15:04.334220  9520 net.cpp:434] relu5_1 <- conv5_1
I0405 21:15:04.334236  9520 net.cpp:395] relu5_1 -> conv5_1 (in-place)
I0405 21:15:04.340797  9520 net.cpp:150] Setting up relu5_1
I0405 21:15:04.340842  9520 net.cpp:157] Top shape: 4 512 19 19 (739328)
I0405 21:15:04.340847  9520 net.cpp:165] Memory required for data: 869740608
I0405 21:15:04.340857  9520 layer_factory.hpp:77] Creating layer conv5_2
I0405 21:15:04.340893  9520 net.cpp:100] Creating Layer conv5_2
I0405 21:15:04.340904  9520 net.cpp:434] conv5_2 <- conv5_1
I0405 21:15:04.340921  9520 net.cpp:408] conv5_2 -> conv5_2
I0405 21:15:04.369493  9520 net.cpp:150] Setting up conv5_2
I0405 21:15:04.369573  9520 net.cpp:157] Top shape: 4 512 19 19 (739328)
I0405 21:15:04.369580  9520 net.cpp:165] Memory required for data: 872697920
I0405 21:15:04.369601  9520 layer_factory.hpp:77] Creating layer relu5_2
I0405 21:15:04.369626  9520 net.cpp:100] Creating Layer relu5_2
I0405 21:15:04.369637  9520 net.cpp:434] relu5_2 <- conv5_2
I0405 21:15:04.369655  9520 net.cpp:395] relu5_2 -> conv5_2 (in-place)
I0405 21:15:04.371729  9520 net.cpp:150] Setting up relu5_2
I0405 21:15:04.371759  9520 net.cpp:157] Top shape: 4 512 19 19 (739328)
I0405 21:15:04.371765  9520 net.cpp:165] Memory required for data: 875655232
I0405 21:15:04.371773  9520 layer_factory.hpp:77] Creating layer conv5_3
I0405 21:15:04.371805  9520 net.cpp:100] Creating Layer conv5_3
I0405 21:15:04.371812  9520 net.cpp:434] conv5_3 <- conv5_2
I0405 21:15:04.371832  9520 net.cpp:408] conv5_3 -> conv5_3
I0405 21:15:04.405256  9520 net.cpp:150] Setting up conv5_3
I0405 21:15:04.405311  9520 net.cpp:157] Top shape: 4 512 19 19 (739328)
I0405 21:15:04.405318  9520 net.cpp:165] Memory required for data: 878612544
I0405 21:15:04.405340  9520 layer_factory.hpp:77] Creating layer relu5_3
I0405 21:15:04.405380  9520 net.cpp:100] Creating Layer relu5_3
I0405 21:15:04.405388  9520 net.cpp:434] relu5_3 <- conv5_3
I0405 21:15:04.405400  9520 net.cpp:395] relu5_3 -> conv5_3 (in-place)
I0405 21:15:04.405716  9520 net.cpp:150] Setting up relu5_3
I0405 21:15:04.405730  9520 net.cpp:157] Top shape: 4 512 19 19 (739328)
I0405 21:15:04.405735  9520 net.cpp:165] Memory required for data: 881569856
I0405 21:15:04.405740  9520 layer_factory.hpp:77] Creating layer conv5_3_relu5_3_0_split
I0405 21:15:04.405753  9520 net.cpp:100] Creating Layer conv5_3_relu5_3_0_split
I0405 21:15:04.405786  9520 net.cpp:434] conv5_3_relu5_3_0_split <- conv5_3
I0405 21:15:04.405795  9520 net.cpp:408] conv5_3_relu5_3_0_split -> conv5_3_relu5_3_0_split_0
I0405 21:15:04.405810  9520 net.cpp:408] conv5_3_relu5_3_0_split -> conv5_3_relu5_3_0_split_1
I0405 21:15:04.405889  9520 net.cpp:150] Setting up conv5_3_relu5_3_0_split
I0405 21:15:04.405900  9520 net.cpp:157] Top shape: 4 512 19 19 (739328)
I0405 21:15:04.405906  9520 net.cpp:157] Top shape: 4 512 19 19 (739328)
I0405 21:15:04.405911  9520 net.cpp:165] Memory required for data: 887484480
I0405 21:15:04.405917  9520 layer_factory.hpp:77] Creating layer pool5
I0405 21:15:04.405931  9520 net.cpp:100] Creating Layer pool5
I0405 21:15:04.405937  9520 net.cpp:434] pool5 <- conv5_3_relu5_3_0_split_0
I0405 21:15:04.405946  9520 net.cpp:408] pool5 -> pool5
I0405 21:15:04.406020  9520 net.cpp:150] Setting up pool5
I0405 21:15:04.406030  9520 net.cpp:157] Top shape: 4 512 19 19 (739328)
I0405 21:15:04.406035  9520 net.cpp:165] Memory required for data: 890441792
I0405 21:15:04.406039  9520 layer_factory.hpp:77] Creating layer fc6
I0405 21:15:04.406064  9520 net.cpp:100] Creating Layer fc6
I0405 21:15:04.406070  9520 net.cpp:434] fc6 <- pool5
I0405 21:15:04.406082  9520 net.cpp:408] fc6 -> fc6
I0405 21:15:04.460758  9520 net.cpp:150] Setting up fc6
I0405 21:15:04.460827  9520 net.cpp:157] Top shape: 4 1024 19 19 (1478656)
I0405 21:15:04.460834  9520 net.cpp:165] Memory required for data: 896356416
I0405 21:15:04.460852  9520 layer_factory.hpp:77] Creating layer relu6
I0405 21:15:04.460873  9520 net.cpp:100] Creating Layer relu6
I0405 21:15:04.460883  9520 net.cpp:434] relu6 <- fc6
I0405 21:15:04.460896  9520 net.cpp:395] relu6 -> fc6 (in-place)
I0405 21:15:04.461347  9520 net.cpp:150] Setting up relu6
I0405 21:15:04.461362  9520 net.cpp:157] Top shape: 4 1024 19 19 (1478656)
I0405 21:15:04.461367  9520 net.cpp:165] Memory required for data: 902271040
I0405 21:15:04.461374  9520 layer_factory.hpp:77] Creating layer fc7
I0405 21:15:04.461392  9520 net.cpp:100] Creating Layer fc7
I0405 21:15:04.461398  9520 net.cpp:434] fc7 <- fc6
I0405 21:15:04.461413  9520 net.cpp:408] fc7 -> fc7
I0405 21:15:04.476819  9520 net.cpp:150] Setting up fc7
I0405 21:15:04.476872  9520 net.cpp:157] Top shape: 4 1024 19 19 (1478656)
I0405 21:15:04.476878  9520 net.cpp:165] Memory required for data: 908185664
I0405 21:15:04.476897  9520 layer_factory.hpp:77] Creating layer relu7
I0405 21:15:04.476917  9520 net.cpp:100] Creating Layer relu7
I0405 21:15:04.476924  9520 net.cpp:434] relu7 <- fc7
I0405 21:15:04.476939  9520 net.cpp:395] relu7 -> fc7 (in-place)
I0405 21:15:04.477246  9520 net.cpp:150] Setting up relu7
I0405 21:15:04.477262  9520 net.cpp:157] Top shape: 4 1024 19 19 (1478656)
I0405 21:15:04.477265  9520 net.cpp:165] Memory required for data: 914100288
I0405 21:15:04.477272  9520 layer_factory.hpp:77] Creating layer fc7_relu7_0_split
I0405 21:15:04.477284  9520 net.cpp:100] Creating Layer fc7_relu7_0_split
I0405 21:15:04.477290  9520 net.cpp:434] fc7_relu7_0_split <- fc7
I0405 21:15:04.477301  9520 net.cpp:408] fc7_relu7_0_split -> fc7_relu7_0_split_0
I0405 21:15:04.477313  9520 net.cpp:408] fc7_relu7_0_split -> fc7_relu7_0_split_1
I0405 21:15:04.477324  9520 net.cpp:408] fc7_relu7_0_split -> fc7_relu7_0_split_2
I0405 21:15:04.477332  9520 net.cpp:408] fc7_relu7_0_split -> fc7_relu7_0_split_3
I0405 21:15:04.477463  9520 net.cpp:150] Setting up fc7_relu7_0_split
I0405 21:15:04.477475  9520 net.cpp:157] Top shape: 4 1024 19 19 (1478656)
I0405 21:15:04.477483  9520 net.cpp:157] Top shape: 4 1024 19 19 (1478656)
I0405 21:15:04.477489  9520 net.cpp:157] Top shape: 4 1024 19 19 (1478656)
I0405 21:15:04.477495  9520 net.cpp:157] Top shape: 4 1024 19 19 (1478656)
I0405 21:15:04.477499  9520 net.cpp:165] Memory required for data: 937758784
I0405 21:15:04.477505  9520 layer_factory.hpp:77] Creating layer conv6_1
I0405 21:15:04.477524  9520 net.cpp:100] Creating Layer conv6_1
I0405 21:15:04.477531  9520 net.cpp:434] conv6_1 <- fc7_relu7_0_split_0
I0405 21:15:04.477541  9520 net.cpp:408] conv6_1 -> conv6_1
I0405 21:15:04.484736  9520 net.cpp:150] Setting up conv6_1
I0405 21:15:04.484781  9520 net.cpp:157] Top shape: 4 256 19 19 (369664)
I0405 21:15:04.484788  9520 net.cpp:165] Memory required for data: 939237440
I0405 21:15:04.484805  9520 layer_factory.hpp:77] Creating layer conv6_1_relu
I0405 21:15:04.484824  9520 net.cpp:100] Creating Layer conv6_1_relu
I0405 21:15:04.484833  9520 net.cpp:434] conv6_1_relu <- conv6_1
I0405 21:15:04.484844  9520 net.cpp:395] conv6_1_relu -> conv6_1 (in-place)
I0405 21:15:04.486541  9520 net.cpp:150] Setting up conv6_1_relu
I0405 21:15:04.486567  9520 net.cpp:157] Top shape: 4 256 19 19 (369664)
I0405 21:15:04.486572  9520 net.cpp:165] Memory required for data: 940716096
I0405 21:15:04.486577  9520 layer_factory.hpp:77] Creating layer conv6_2
I0405 21:15:04.486601  9520 net.cpp:100] Creating Layer conv6_2
I0405 21:15:04.486609  9520 net.cpp:434] conv6_2 <- conv6_1
I0405 21:15:04.486624  9520 net.cpp:408] conv6_2 -> conv6_2
I0405 21:15:04.501677  9520 net.cpp:150] Setting up conv6_2
I0405 21:15:04.501745  9520 net.cpp:157] Top shape: 4 512 10 10 (204800)
I0405 21:15:04.501751  9520 net.cpp:165] Memory required for data: 941535296
I0405 21:15:04.501788  9520 layer_factory.hpp:77] Creating layer conv6_2_relu
I0405 21:15:04.501808  9520 net.cpp:100] Creating Layer conv6_2_relu
I0405 21:15:04.501817  9520 net.cpp:434] conv6_2_relu <- conv6_2
I0405 21:15:04.501833  9520 net.cpp:395] conv6_2_relu -> conv6_2 (in-place)
I0405 21:15:04.503649  9520 net.cpp:150] Setting up conv6_2_relu
I0405 21:15:04.503674  9520 net.cpp:157] Top shape: 4 512 10 10 (204800)
I0405 21:15:04.503679  9520 net.cpp:165] Memory required for data: 942354496
I0405 21:15:04.503685  9520 layer_factory.hpp:77] Creating layer conv6_2_conv6_2_relu_0_split
I0405 21:15:04.503696  9520 net.cpp:100] Creating Layer conv6_2_conv6_2_relu_0_split
I0405 21:15:04.503702  9520 net.cpp:434] conv6_2_conv6_2_relu_0_split <- conv6_2
I0405 21:15:04.503715  9520 net.cpp:408] conv6_2_conv6_2_relu_0_split -> conv6_2_conv6_2_relu_0_split_0
I0405 21:15:04.503728  9520 net.cpp:408] conv6_2_conv6_2_relu_0_split -> conv6_2_conv6_2_relu_0_split_1
I0405 21:15:04.503738  9520 net.cpp:408] conv6_2_conv6_2_relu_0_split -> conv6_2_conv6_2_relu_0_split_2
I0405 21:15:04.503751  9520 net.cpp:408] conv6_2_conv6_2_relu_0_split -> conv6_2_conv6_2_relu_0_split_3
I0405 21:15:04.503886  9520 net.cpp:150] Setting up conv6_2_conv6_2_relu_0_split
I0405 21:15:04.503898  9520 net.cpp:157] Top shape: 4 512 10 10 (204800)
I0405 21:15:04.503906  9520 net.cpp:157] Top shape: 4 512 10 10 (204800)
I0405 21:15:04.503911  9520 net.cpp:157] Top shape: 4 512 10 10 (204800)
I0405 21:15:04.503916  9520 net.cpp:157] Top shape: 4 512 10 10 (204800)
I0405 21:15:04.503922  9520 net.cpp:165] Memory required for data: 945631296
I0405 21:15:04.503927  9520 layer_factory.hpp:77] Creating layer conv7_1
I0405 21:15:04.503947  9520 net.cpp:100] Creating Layer conv7_1
I0405 21:15:04.503953  9520 net.cpp:434] conv7_1 <- conv6_2_conv6_2_relu_0_split_0
I0405 21:15:04.503967  9520 net.cpp:408] conv7_1 -> conv7_1
I0405 21:15:04.507308  9520 net.cpp:150] Setting up conv7_1
I0405 21:15:04.507333  9520 net.cpp:157] Top shape: 4 128 10 10 (51200)
I0405 21:15:04.507339  9520 net.cpp:165] Memory required for data: 945836096
I0405 21:15:04.507352  9520 layer_factory.hpp:77] Creating layer conv7_1_relu
I0405 21:15:04.507364  9520 net.cpp:100] Creating Layer conv7_1_relu
I0405 21:15:04.507371  9520 net.cpp:434] conv7_1_relu <- conv7_1
I0405 21:15:04.507378  9520 net.cpp:395] conv7_1_relu -> conv7_1 (in-place)
I0405 21:15:04.507673  9520 net.cpp:150] Setting up conv7_1_relu
I0405 21:15:04.507685  9520 net.cpp:157] Top shape: 4 128 10 10 (51200)
I0405 21:15:04.507690  9520 net.cpp:165] Memory required for data: 946040896
I0405 21:15:04.507695  9520 layer_factory.hpp:77] Creating layer conv7_2
I0405 21:15:04.507712  9520 net.cpp:100] Creating Layer conv7_2
I0405 21:15:04.507717  9520 net.cpp:434] conv7_2 <- conv7_1
I0405 21:15:04.507730  9520 net.cpp:408] conv7_2 -> conv7_2
I0405 21:15:04.514952  9520 net.cpp:150] Setting up conv7_2
I0405 21:15:04.514995  9520 net.cpp:157] Top shape: 4 256 5 5 (25600)
I0405 21:15:04.515000  9520 net.cpp:165] Memory required for data: 946143296
I0405 21:15:04.515015  9520 layer_factory.hpp:77] Creating layer conv7_2_relu
I0405 21:15:04.515033  9520 net.cpp:100] Creating Layer conv7_2_relu
I0405 21:15:04.515041  9520 net.cpp:434] conv7_2_relu <- conv7_2
I0405 21:15:04.515053  9520 net.cpp:395] conv7_2_relu -> conv7_2 (in-place)
I0405 21:15:04.515362  9520 net.cpp:150] Setting up conv7_2_relu
I0405 21:15:04.515374  9520 net.cpp:157] Top shape: 4 256 5 5 (25600)
I0405 21:15:04.515380  9520 net.cpp:165] Memory required for data: 946245696
I0405 21:15:04.515386  9520 layer_factory.hpp:77] Creating layer conv7_2_conv7_2_relu_0_split
I0405 21:15:04.515398  9520 net.cpp:100] Creating Layer conv7_2_conv7_2_relu_0_split
I0405 21:15:04.515403  9520 net.cpp:434] conv7_2_conv7_2_relu_0_split <- conv7_2
I0405 21:15:04.515415  9520 net.cpp:408] conv7_2_conv7_2_relu_0_split -> conv7_2_conv7_2_relu_0_split_0
I0405 21:15:04.515427  9520 net.cpp:408] conv7_2_conv7_2_relu_0_split -> conv7_2_conv7_2_relu_0_split_1
I0405 21:15:04.515437  9520 net.cpp:408] conv7_2_conv7_2_relu_0_split -> conv7_2_conv7_2_relu_0_split_2
I0405 21:15:04.515447  9520 net.cpp:408] conv7_2_conv7_2_relu_0_split -> conv7_2_conv7_2_relu_0_split_3
I0405 21:15:04.515581  9520 net.cpp:150] Setting up conv7_2_conv7_2_relu_0_split
I0405 21:15:04.515597  9520 net.cpp:157] Top shape: 4 256 5 5 (25600)
I0405 21:15:04.515604  9520 net.cpp:157] Top shape: 4 256 5 5 (25600)
I0405 21:15:04.515609  9520 net.cpp:157] Top shape: 4 256 5 5 (25600)
I0405 21:15:04.515617  9520 net.cpp:157] Top shape: 4 256 5 5 (25600)
I0405 21:15:04.515621  9520 net.cpp:165] Memory required for data: 946655296
I0405 21:15:04.515626  9520 layer_factory.hpp:77] Creating layer conv8_1
I0405 21:15:04.515646  9520 net.cpp:100] Creating Layer conv8_1
I0405 21:15:04.515655  9520 net.cpp:434] conv8_1 <- conv7_2_conv7_2_relu_0_split_0
I0405 21:15:04.515666  9520 net.cpp:408] conv8_1 -> conv8_1
I0405 21:15:04.523550  9520 net.cpp:150] Setting up conv8_1
I0405 21:15:04.523599  9520 net.cpp:157] Top shape: 4 128 5 5 (12800)
I0405 21:15:04.523607  9520 net.cpp:165] Memory required for data: 946706496
I0405 21:15:04.523623  9520 layer_factory.hpp:77] Creating layer conv8_1_relu
I0405 21:15:04.523638  9520 net.cpp:100] Creating Layer conv8_1_relu
I0405 21:15:04.523648  9520 net.cpp:434] conv8_1_relu <- conv8_1
I0405 21:15:04.523663  9520 net.cpp:395] conv8_1_relu -> conv8_1 (in-place)
I0405 21:15:04.523967  9520 net.cpp:150] Setting up conv8_1_relu
I0405 21:15:04.523982  9520 net.cpp:157] Top shape: 4 128 5 5 (12800)
I0405 21:15:04.523986  9520 net.cpp:165] Memory required for data: 946757696
I0405 21:15:04.523993  9520 layer_factory.hpp:77] Creating layer conv8_2
I0405 21:15:04.524016  9520 net.cpp:100] Creating Layer conv8_2
I0405 21:15:04.524021  9520 net.cpp:434] conv8_2 <- conv8_1
I0405 21:15:04.524031  9520 net.cpp:408] conv8_2 -> conv8_2
I0405 21:15:04.531457  9520 net.cpp:150] Setting up conv8_2
I0405 21:15:04.531502  9520 net.cpp:157] Top shape: 4 256 3 3 (9216)
I0405 21:15:04.531508  9520 net.cpp:165] Memory required for data: 946794560
I0405 21:15:04.531524  9520 layer_factory.hpp:77] Creating layer conv8_2_relu
I0405 21:15:04.531541  9520 net.cpp:100] Creating Layer conv8_2_relu
I0405 21:15:04.531549  9520 net.cpp:434] conv8_2_relu <- conv8_2
I0405 21:15:04.531561  9520 net.cpp:395] conv8_2_relu -> conv8_2 (in-place)
I0405 21:15:04.531863  9520 net.cpp:150] Setting up conv8_2_relu
I0405 21:15:04.531878  9520 net.cpp:157] Top shape: 4 256 3 3 (9216)
I0405 21:15:04.531883  9520 net.cpp:165] Memory required for data: 946831424
I0405 21:15:04.531888  9520 layer_factory.hpp:77] Creating layer conv8_2_conv8_2_relu_0_split
I0405 21:15:04.531900  9520 net.cpp:100] Creating Layer conv8_2_conv8_2_relu_0_split
I0405 21:15:04.531908  9520 net.cpp:434] conv8_2_conv8_2_relu_0_split <- conv8_2
I0405 21:15:04.531919  9520 net.cpp:408] conv8_2_conv8_2_relu_0_split -> conv8_2_conv8_2_relu_0_split_0
I0405 21:15:04.531955  9520 net.cpp:408] conv8_2_conv8_2_relu_0_split -> conv8_2_conv8_2_relu_0_split_1
I0405 21:15:04.531965  9520 net.cpp:408] conv8_2_conv8_2_relu_0_split -> conv8_2_conv8_2_relu_0_split_2
I0405 21:15:04.531980  9520 net.cpp:408] conv8_2_conv8_2_relu_0_split -> conv8_2_conv8_2_relu_0_split_3
I0405 21:15:04.532119  9520 net.cpp:150] Setting up conv8_2_conv8_2_relu_0_split
I0405 21:15:04.532130  9520 net.cpp:157] Top shape: 4 256 3 3 (9216)
I0405 21:15:04.532136  9520 net.cpp:157] Top shape: 4 256 3 3 (9216)
I0405 21:15:04.532143  9520 net.cpp:157] Top shape: 4 256 3 3 (9216)
I0405 21:15:04.532148  9520 net.cpp:157] Top shape: 4 256 3 3 (9216)
I0405 21:15:04.532153  9520 net.cpp:165] Memory required for data: 946978880
I0405 21:15:04.532158  9520 layer_factory.hpp:77] Creating layer conv9_1
I0405 21:15:04.532181  9520 net.cpp:100] Creating Layer conv9_1
I0405 21:15:04.532188  9520 net.cpp:434] conv9_1 <- conv8_2_conv8_2_relu_0_split_0
I0405 21:15:04.532200  9520 net.cpp:408] conv9_1 -> conv9_1
I0405 21:15:04.537384  9520 net.cpp:150] Setting up conv9_1
I0405 21:15:04.537421  9520 net.cpp:157] Top shape: 4 128 3 3 (4608)
I0405 21:15:04.537427  9520 net.cpp:165] Memory required for data: 946997312
I0405 21:15:04.537441  9520 layer_factory.hpp:77] Creating layer conv9_1_relu
I0405 21:15:04.537454  9520 net.cpp:100] Creating Layer conv9_1_relu
I0405 21:15:04.537463  9520 net.cpp:434] conv9_1_relu <- conv9_1
I0405 21:15:04.537474  9520 net.cpp:395] conv9_1_relu -> conv9_1 (in-place)
I0405 21:15:04.543201  9520 net.cpp:150] Setting up conv9_1_relu
I0405 21:15:04.543246  9520 net.cpp:157] Top shape: 4 128 3 3 (4608)
I0405 21:15:04.543254  9520 net.cpp:165] Memory required for data: 947015744
I0405 21:15:04.543263  9520 layer_factory.hpp:77] Creating layer conv9_2
I0405 21:15:04.543296  9520 net.cpp:100] Creating Layer conv9_2
I0405 21:15:04.543305  9520 net.cpp:434] conv9_2 <- conv9_1
I0405 21:15:04.543321  9520 net.cpp:408] conv9_2 -> conv9_2
I0405 21:15:04.549460  9520 net.cpp:150] Setting up conv9_2
I0405 21:15:04.549510  9520 net.cpp:157] Top shape: 4 256 1 1 (1024)
I0405 21:15:04.549515  9520 net.cpp:165] Memory required for data: 947019840
I0405 21:15:04.549535  9520 layer_factory.hpp:77] Creating layer conv9_2_relu
I0405 21:15:04.549554  9520 net.cpp:100] Creating Layer conv9_2_relu
I0405 21:15:04.549563  9520 net.cpp:434] conv9_2_relu <- conv9_2
I0405 21:15:04.549577  9520 net.cpp:395] conv9_2_relu -> conv9_2 (in-place)
I0405 21:15:04.551435  9520 net.cpp:150] Setting up conv9_2_relu
I0405 21:15:04.551462  9520 net.cpp:157] Top shape: 4 256 1 1 (1024)
I0405 21:15:04.551468  9520 net.cpp:165] Memory required for data: 947023936
I0405 21:15:04.551475  9520 layer_factory.hpp:77] Creating layer conv9_2_conv9_2_relu_0_split
I0405 21:15:04.551491  9520 net.cpp:100] Creating Layer conv9_2_conv9_2_relu_0_split
I0405 21:15:04.551498  9520 net.cpp:434] conv9_2_conv9_2_relu_0_split <- conv9_2
I0405 21:15:04.551509  9520 net.cpp:408] conv9_2_conv9_2_relu_0_split -> conv9_2_conv9_2_relu_0_split_0
I0405 21:15:04.551525  9520 net.cpp:408] conv9_2_conv9_2_relu_0_split -> conv9_2_conv9_2_relu_0_split_1
I0405 21:15:04.551537  9520 net.cpp:408] conv9_2_conv9_2_relu_0_split -> conv9_2_conv9_2_relu_0_split_2
I0405 21:15:04.551654  9520 net.cpp:150] Setting up conv9_2_conv9_2_relu_0_split
I0405 21:15:04.551668  9520 net.cpp:157] Top shape: 4 256 1 1 (1024)
I0405 21:15:04.551676  9520 net.cpp:157] Top shape: 4 256 1 1 (1024)
I0405 21:15:04.551682  9520 net.cpp:157] Top shape: 4 256 1 1 (1024)
I0405 21:15:04.551687  9520 net.cpp:165] Memory required for data: 947036224
I0405 21:15:04.551692  9520 layer_factory.hpp:77] Creating layer Deconvolution1
I0405 21:15:04.551707  9520 net.cpp:100] Creating Layer Deconvolution1
I0405 21:15:04.551714  9520 net.cpp:434] Deconvolution1 <- conv5_3_relu5_3_0_split_1
I0405 21:15:04.551725  9520 net.cpp:408] Deconvolution1 -> Deconvolution1
I0405 21:15:04.615218  9520 net.cpp:150] Setting up Deconvolution1
I0405 21:15:04.615283  9520 net.cpp:157] Top shape: 4 512 38 38 (2957312)
I0405 21:15:04.615337  9520 net.cpp:165] Memory required for data: 958865472
I0405 21:15:04.615355  9520 layer_factory.hpp:77] Creating layer Convolution1
I0405 21:15:04.615377  9520 net.cpp:100] Creating Layer Convolution1
I0405 21:15:04.615386  9520 net.cpp:434] Convolution1 <- Deconvolution1
I0405 21:15:04.615399  9520 net.cpp:408] Convolution1 -> Convolution1
I0405 21:15:04.627252  9520 net.cpp:150] Setting up Convolution1
I0405 21:15:04.627296  9520 net.cpp:157] Top shape: 4 512 38 38 (2957312)
I0405 21:15:04.627302  9520 net.cpp:165] Memory required for data: 970694720
I0405 21:15:04.627321  9520 layer_factory.hpp:77] Creating layer BatchNorm1
I0405 21:15:04.627341  9520 net.cpp:100] Creating Layer BatchNorm1
I0405 21:15:04.627351  9520 net.cpp:434] BatchNorm1 <- Convolution1
I0405 21:15:04.627360  9520 net.cpp:395] BatchNorm1 -> Convolution1 (in-place)
I0405 21:15:04.627781  9520 net.cpp:150] Setting up BatchNorm1
I0405 21:15:04.627795  9520 net.cpp:157] Top shape: 4 512 38 38 (2957312)
I0405 21:15:04.627800  9520 net.cpp:165] Memory required for data: 982523968
I0405 21:15:04.627811  9520 layer_factory.hpp:77] Creating layer up_conv5_3
I0405 21:15:04.627821  9520 net.cpp:100] Creating Layer up_conv5_3
I0405 21:15:04.627826  9520 net.cpp:434] up_conv5_3 <- Convolution1
I0405 21:15:04.627832  9520 net.cpp:395] up_conv5_3 -> Convolution1 (in-place)
I0405 21:15:04.628142  9520 net.cpp:150] Setting up up_conv5_3
I0405 21:15:04.628159  9520 net.cpp:157] Top shape: 4 512 38 38 (2957312)
I0405 21:15:04.628165  9520 net.cpp:165] Memory required for data: 994353216
I0405 21:15:04.628170  9520 layer_factory.hpp:77] Creating layer Convolution2
I0405 21:15:04.628201  9520 net.cpp:100] Creating Layer Convolution2
I0405 21:15:04.628211  9520 net.cpp:434] Convolution2 <- conv4_3_relu4_3_0_split_1
I0405 21:15:04.628219  9520 net.cpp:408] Convolution2 -> Convolution2
I0405 21:15:04.642756  9520 net.cpp:150] Setting up Convolution2
I0405 21:15:04.642809  9520 net.cpp:157] Top shape: 4 512 38 38 (2957312)
I0405 21:15:04.642817  9520 net.cpp:165] Memory required for data: 1006182464
I0405 21:15:04.642844  9520 layer_factory.hpp:77] Creating layer BatchNorm2
I0405 21:15:04.642879  9520 net.cpp:100] Creating Layer BatchNorm2
I0405 21:15:04.642887  9520 net.cpp:434] BatchNorm2 <- Convolution2
I0405 21:15:04.642899  9520 net.cpp:395] BatchNorm2 -> Convolution2 (in-place)
I0405 21:15:04.643333  9520 net.cpp:150] Setting up BatchNorm2
I0405 21:15:04.643345  9520 net.cpp:157] Top shape: 4 512 38 38 (2957312)
I0405 21:15:04.643350  9520 net.cpp:165] Memory required for data: 1018011712
I0405 21:15:04.643363  9520 layer_factory.hpp:77] Creating layer conv4_3_conv
I0405 21:15:04.643374  9520 net.cpp:100] Creating Layer conv4_3_conv
I0405 21:15:04.643381  9520 net.cpp:434] conv4_3_conv <- Convolution2
I0405 21:15:04.643388  9520 net.cpp:395] conv4_3_conv -> Convolution2 (in-place)
I0405 21:15:04.643707  9520 net.cpp:150] Setting up conv4_3_conv
I0405 21:15:04.643718  9520 net.cpp:157] Top shape: 4 512 38 38 (2957312)
I0405 21:15:04.643723  9520 net.cpp:165] Memory required for data: 1029840960
I0405 21:15:04.643728  9520 layer_factory.hpp:77] Creating layer Concat1
I0405 21:15:04.643740  9520 net.cpp:100] Creating Layer Concat1
I0405 21:15:04.643745  9520 net.cpp:434] Concat1 <- Convolution1
I0405 21:15:04.643752  9520 net.cpp:434] Concat1 <- Convolution2
I0405 21:15:04.643762  9520 net.cpp:408] Concat1 -> Concat1
I0405 21:15:04.643815  9520 net.cpp:150] Setting up Concat1
I0405 21:15:04.643827  9520 net.cpp:157] Top shape: 4 1024 38 38 (5914624)
I0405 21:15:04.643832  9520 net.cpp:165] Memory required for data: 1053499456
I0405 21:15:04.643836  9520 layer_factory.hpp:77] Creating layer Convolution3
I0405 21:15:04.643851  9520 net.cpp:100] Creating Layer Convolution3
I0405 21:15:04.643858  9520 net.cpp:434] Convolution3 <- Concat1
I0405 21:15:04.643872  9520 net.cpp:408] Convolution3 -> Convolution3
I0405 21:15:04.649032  9520 net.cpp:150] Setting up Convolution3
I0405 21:15:04.649071  9520 net.cpp:157] Top shape: 4 512 38 38 (2957312)
I0405 21:15:04.649116  9520 net.cpp:165] Memory required for data: 1065328704
I0405 21:15:04.649129  9520 layer_factory.hpp:77] Creating layer conc1
I0405 21:15:04.649142  9520 net.cpp:100] Creating Layer conc1
I0405 21:15:04.649152  9520 net.cpp:434] conc1 <- Convolution3
I0405 21:15:04.649164  9520 net.cpp:395] conc1 -> Convolution3 (in-place)
I0405 21:15:04.649482  9520 net.cpp:150] Setting up conc1
I0405 21:15:04.649495  9520 net.cpp:157] Top shape: 4 512 38 38 (2957312)
I0405 21:15:04.649502  9520 net.cpp:165] Memory required for data: 1077157952
I0405 21:15:04.649507  9520 layer_factory.hpp:77] Creating layer conc1_norm
I0405 21:15:04.649521  9520 net.cpp:100] Creating Layer conc1_norm
I0405 21:15:04.649526  9520 net.cpp:434] conc1_norm <- Convolution3
I0405 21:15:04.649538  9520 net.cpp:408] conc1_norm -> conc1_norm
I0405 21:15:04.649871  9520 net.cpp:150] Setting up conc1_norm
I0405 21:15:04.649883  9520 net.cpp:157] Top shape: 4 512 38 38 (2957312)
I0405 21:15:04.649888  9520 net.cpp:165] Memory required for data: 1088987200
I0405 21:15:04.649895  9520 layer_factory.hpp:77] Creating layer conc1_norm_conc1_norm_0_split
I0405 21:15:04.649904  9520 net.cpp:100] Creating Layer conc1_norm_conc1_norm_0_split
I0405 21:15:04.649911  9520 net.cpp:434] conc1_norm_conc1_norm_0_split <- conc1_norm
I0405 21:15:04.649921  9520 net.cpp:408] conc1_norm_conc1_norm_0_split -> conc1_norm_conc1_norm_0_split_0
I0405 21:15:04.649932  9520 net.cpp:408] conc1_norm_conc1_norm_0_split -> conc1_norm_conc1_norm_0_split_1
I0405 21:15:04.649945  9520 net.cpp:408] conc1_norm_conc1_norm_0_split -> conc1_norm_conc1_norm_0_split_2
I0405 21:15:04.650035  9520 net.cpp:150] Setting up conc1_norm_conc1_norm_0_split
I0405 21:15:04.650046  9520 net.cpp:157] Top shape: 4 512 38 38 (2957312)
I0405 21:15:04.650053  9520 net.cpp:157] Top shape: 4 512 38 38 (2957312)
I0405 21:15:04.650059  9520 net.cpp:157] Top shape: 4 512 38 38 (2957312)
I0405 21:15:04.650063  9520 net.cpp:165] Memory required for data: 1124474944
I0405 21:15:04.650068  9520 layer_factory.hpp:77] Creating layer conc1_norm_mbox_loc
I0405 21:15:04.650086  9520 net.cpp:100] Creating Layer conc1_norm_mbox_loc
I0405 21:15:04.650094  9520 net.cpp:434] conc1_norm_mbox_loc <- conc1_norm_conc1_norm_0_split_0
I0405 21:15:04.650102  9520 net.cpp:408] conc1_norm_mbox_loc -> conc1_norm_mbox_loc
I0405 21:15:04.660198  9520 net.cpp:150] Setting up conc1_norm_mbox_loc
I0405 21:15:04.660256  9520 net.cpp:157] Top shape: 4 16 38 38 (92416)
I0405 21:15:04.660262  9520 net.cpp:165] Memory required for data: 1124844608
I0405 21:15:04.660282  9520 layer_factory.hpp:77] Creating layer conc1_norm_mbox_loc_perm
I0405 21:15:04.660305  9520 net.cpp:100] Creating Layer conc1_norm_mbox_loc_perm
I0405 21:15:04.660316  9520 net.cpp:434] conc1_norm_mbox_loc_perm <- conc1_norm_mbox_loc
I0405 21:15:04.660332  9520 net.cpp:408] conc1_norm_mbox_loc_perm -> conc1_norm_mbox_loc_perm
I0405 21:15:04.660619  9520 net.cpp:150] Setting up conc1_norm_mbox_loc_perm
I0405 21:15:04.660629  9520 net.cpp:157] Top shape: 4 38 38 16 (92416)
I0405 21:15:04.660635  9520 net.cpp:165] Memory required for data: 1125214272
I0405 21:15:04.660640  9520 layer_factory.hpp:77] Creating layer conc1_norm_mbox_loc_flat
I0405 21:15:04.660650  9520 net.cpp:100] Creating Layer conc1_norm_mbox_loc_flat
I0405 21:15:04.660656  9520 net.cpp:434] conc1_norm_mbox_loc_flat <- conc1_norm_mbox_loc_perm
I0405 21:15:04.660667  9520 net.cpp:408] conc1_norm_mbox_loc_flat -> conc1_norm_mbox_loc_flat
I0405 21:15:04.660717  9520 net.cpp:150] Setting up conc1_norm_mbox_loc_flat
I0405 21:15:04.660727  9520 net.cpp:157] Top shape: 4 23104 (92416)
I0405 21:15:04.660732  9520 net.cpp:165] Memory required for data: 1125583936
I0405 21:15:04.660737  9520 layer_factory.hpp:77] Creating layer conc1_norm_mbox_conf
I0405 21:15:04.660758  9520 net.cpp:100] Creating Layer conc1_norm_mbox_conf
I0405 21:15:04.660765  9520 net.cpp:434] conc1_norm_mbox_conf <- conc1_norm_conc1_norm_0_split_1
I0405 21:15:04.660776  9520 net.cpp:408] conc1_norm_mbox_conf -> conc1_norm_mbox_conf
I0405 21:15:04.670485  9520 net.cpp:150] Setting up conc1_norm_mbox_conf
I0405 21:15:04.670536  9520 net.cpp:157] Top shape: 4 84 38 38 (485184)
I0405 21:15:04.670542  9520 net.cpp:165] Memory required for data: 1127524672
I0405 21:15:04.670584  9520 layer_factory.hpp:77] Creating layer conc1_norm_mbox_conf_perm
I0405 21:15:04.670608  9520 net.cpp:100] Creating Layer conc1_norm_mbox_conf_perm
I0405 21:15:04.670617  9520 net.cpp:434] conc1_norm_mbox_conf_perm <- conc1_norm_mbox_conf
I0405 21:15:04.670629  9520 net.cpp:408] conc1_norm_mbox_conf_perm -> conc1_norm_mbox_conf_perm
I0405 21:15:04.670894  9520 net.cpp:150] Setting up conc1_norm_mbox_conf_perm
I0405 21:15:04.670909  9520 net.cpp:157] Top shape: 4 38 38 84 (485184)
I0405 21:15:04.670913  9520 net.cpp:165] Memory required for data: 1129465408
I0405 21:15:04.670918  9520 layer_factory.hpp:77] Creating layer conc1_norm_mbox_conf_flat
I0405 21:15:04.670933  9520 net.cpp:100] Creating Layer conc1_norm_mbox_conf_flat
I0405 21:15:04.670939  9520 net.cpp:434] conc1_norm_mbox_conf_flat <- conc1_norm_mbox_conf_perm
I0405 21:15:04.670948  9520 net.cpp:408] conc1_norm_mbox_conf_flat -> conc1_norm_mbox_conf_flat
I0405 21:15:04.670999  9520 net.cpp:150] Setting up conc1_norm_mbox_conf_flat
I0405 21:15:04.671008  9520 net.cpp:157] Top shape: 4 121296 (485184)
I0405 21:15:04.671015  9520 net.cpp:165] Memory required for data: 1131406144
I0405 21:15:04.671020  9520 layer_factory.hpp:77] Creating layer conc1_norm_mbox_priorbox
I0405 21:15:04.671033  9520 net.cpp:100] Creating Layer conc1_norm_mbox_priorbox
I0405 21:15:04.671041  9520 net.cpp:434] conc1_norm_mbox_priorbox <- conc1_norm_conc1_norm_0_split_2
I0405 21:15:04.671051  9520 net.cpp:434] conc1_norm_mbox_priorbox <- data_data_0_split_1
I0405 21:15:04.671059  9520 net.cpp:408] conc1_norm_mbox_priorbox -> conc1_norm_mbox_priorbox
I0405 21:15:04.671116  9520 net.cpp:150] Setting up conc1_norm_mbox_priorbox
I0405 21:15:04.671126  9520 net.cpp:157] Top shape: 1 2 23104 (46208)
I0405 21:15:04.671133  9520 net.cpp:165] Memory required for data: 1131590976
I0405 21:15:04.671136  9520 layer_factory.hpp:77] Creating layer fc7_mbox_loc
I0405 21:15:04.671156  9520 net.cpp:100] Creating Layer fc7_mbox_loc
I0405 21:15:04.671164  9520 net.cpp:434] fc7_mbox_loc <- fc7_relu7_0_split_1
I0405 21:15:04.671175  9520 net.cpp:408] fc7_mbox_loc -> fc7_mbox_loc
I0405 21:15:04.677304  9520 net.cpp:150] Setting up fc7_mbox_loc
I0405 21:15:04.677352  9520 net.cpp:157] Top shape: 4 24 19 19 (34656)
I0405 21:15:04.677358  9520 net.cpp:165] Memory required for data: 1131729600
I0405 21:15:04.677377  9520 layer_factory.hpp:77] Creating layer fc7_mbox_loc_perm
I0405 21:15:04.677395  9520 net.cpp:100] Creating Layer fc7_mbox_loc_perm
I0405 21:15:04.677404  9520 net.cpp:434] fc7_mbox_loc_perm <- fc7_mbox_loc
I0405 21:15:04.677417  9520 net.cpp:408] fc7_mbox_loc_perm -> fc7_mbox_loc_perm
I0405 21:15:04.677644  9520 net.cpp:150] Setting up fc7_mbox_loc_perm
I0405 21:15:04.677657  9520 net.cpp:157] Top shape: 4 19 19 24 (34656)
I0405 21:15:04.677662  9520 net.cpp:165] Memory required for data: 1131868224
I0405 21:15:04.677667  9520 layer_factory.hpp:77] Creating layer fc7_mbox_loc_flat
I0405 21:15:04.677680  9520 net.cpp:100] Creating Layer fc7_mbox_loc_flat
I0405 21:15:04.677685  9520 net.cpp:434] fc7_mbox_loc_flat <- fc7_mbox_loc_perm
I0405 21:15:04.677695  9520 net.cpp:408] fc7_mbox_loc_flat -> fc7_mbox_loc_flat
I0405 21:15:04.677744  9520 net.cpp:150] Setting up fc7_mbox_loc_flat
I0405 21:15:04.677755  9520 net.cpp:157] Top shape: 4 8664 (34656)
I0405 21:15:04.677760  9520 net.cpp:165] Memory required for data: 1132006848
I0405 21:15:04.677764  9520 layer_factory.hpp:77] Creating layer fc7_mbox_conf
I0405 21:15:04.677784  9520 net.cpp:100] Creating Layer fc7_mbox_conf
I0405 21:15:04.677791  9520 net.cpp:434] fc7_mbox_conf <- fc7_relu7_0_split_2
I0405 21:15:04.677800  9520 net.cpp:408] fc7_mbox_conf -> fc7_mbox_conf
I0405 21:15:04.701668  9520 net.cpp:150] Setting up fc7_mbox_conf
I0405 21:15:04.701721  9520 net.cpp:157] Top shape: 4 126 19 19 (181944)
I0405 21:15:04.701782  9520 net.cpp:165] Memory required for data: 1132734624
I0405 21:15:04.701804  9520 layer_factory.hpp:77] Creating layer fc7_mbox_conf_perm
I0405 21:15:04.701833  9520 net.cpp:100] Creating Layer fc7_mbox_conf_perm
I0405 21:15:04.701844  9520 net.cpp:434] fc7_mbox_conf_perm <- fc7_mbox_conf
I0405 21:15:04.701859  9520 net.cpp:408] fc7_mbox_conf_perm -> fc7_mbox_conf_perm
I0405 21:15:04.702102  9520 net.cpp:150] Setting up fc7_mbox_conf_perm
I0405 21:15:04.702117  9520 net.cpp:157] Top shape: 4 19 19 126 (181944)
I0405 21:15:04.702122  9520 net.cpp:165] Memory required for data: 1133462400
I0405 21:15:04.702128  9520 layer_factory.hpp:77] Creating layer fc7_mbox_conf_flat
I0405 21:15:04.702142  9520 net.cpp:100] Creating Layer fc7_mbox_conf_flat
I0405 21:15:04.702148  9520 net.cpp:434] fc7_mbox_conf_flat <- fc7_mbox_conf_perm
I0405 21:15:04.702157  9520 net.cpp:408] fc7_mbox_conf_flat -> fc7_mbox_conf_flat
I0405 21:15:04.702208  9520 net.cpp:150] Setting up fc7_mbox_conf_flat
I0405 21:15:04.702220  9520 net.cpp:157] Top shape: 4 45486 (181944)
I0405 21:15:04.702225  9520 net.cpp:165] Memory required for data: 1134190176
I0405 21:15:04.702230  9520 layer_factory.hpp:77] Creating layer fc7_mbox_priorbox
I0405 21:15:04.702246  9520 net.cpp:100] Creating Layer fc7_mbox_priorbox
I0405 21:15:04.702253  9520 net.cpp:434] fc7_mbox_priorbox <- fc7_relu7_0_split_3
I0405 21:15:04.702262  9520 net.cpp:434] fc7_mbox_priorbox <- data_data_0_split_2
I0405 21:15:04.702270  9520 net.cpp:408] fc7_mbox_priorbox -> fc7_mbox_priorbox
I0405 21:15:04.702332  9520 net.cpp:150] Setting up fc7_mbox_priorbox
I0405 21:15:04.702347  9520 net.cpp:157] Top shape: 1 2 8664 (17328)
I0405 21:15:04.702352  9520 net.cpp:165] Memory required for data: 1134259488
I0405 21:15:04.702356  9520 layer_factory.hpp:77] Creating layer conv6_2_mbox_loc
I0405 21:15:04.702381  9520 net.cpp:100] Creating Layer conv6_2_mbox_loc
I0405 21:15:04.702391  9520 net.cpp:434] conv6_2_mbox_loc <- conv6_2_conv6_2_relu_0_split_1
I0405 21:15:04.702405  9520 net.cpp:408] conv6_2_mbox_loc -> conv6_2_mbox_loc
I0405 21:15:04.707571  9520 net.cpp:150] Setting up conv6_2_mbox_loc
I0405 21:15:04.707612  9520 net.cpp:157] Top shape: 4 24 10 10 (9600)
I0405 21:15:04.707617  9520 net.cpp:165] Memory required for data: 1134297888
I0405 21:15:04.707635  9520 layer_factory.hpp:77] Creating layer conv6_2_mbox_loc_perm
I0405 21:15:04.707653  9520 net.cpp:100] Creating Layer conv6_2_mbox_loc_perm
I0405 21:15:04.707664  9520 net.cpp:434] conv6_2_mbox_loc_perm <- conv6_2_mbox_loc
I0405 21:15:04.707676  9520 net.cpp:408] conv6_2_mbox_loc_perm -> conv6_2_mbox_loc_perm
I0405 21:15:04.707904  9520 net.cpp:150] Setting up conv6_2_mbox_loc_perm
I0405 21:15:04.707921  9520 net.cpp:157] Top shape: 4 10 10 24 (9600)
I0405 21:15:04.707926  9520 net.cpp:165] Memory required for data: 1134336288
I0405 21:15:04.707931  9520 layer_factory.hpp:77] Creating layer conv6_2_mbox_loc_flat
I0405 21:15:04.707942  9520 net.cpp:100] Creating Layer conv6_2_mbox_loc_flat
I0405 21:15:04.707948  9520 net.cpp:434] conv6_2_mbox_loc_flat <- conv6_2_mbox_loc_perm
I0405 21:15:04.707957  9520 net.cpp:408] conv6_2_mbox_loc_flat -> conv6_2_mbox_loc_flat
I0405 21:15:04.708005  9520 net.cpp:150] Setting up conv6_2_mbox_loc_flat
I0405 21:15:04.708014  9520 net.cpp:157] Top shape: 4 2400 (9600)
I0405 21:15:04.708020  9520 net.cpp:165] Memory required for data: 1134374688
I0405 21:15:04.708026  9520 layer_factory.hpp:77] Creating layer conv6_2_mbox_conf
I0405 21:15:04.708050  9520 net.cpp:100] Creating Layer conv6_2_mbox_conf
I0405 21:15:04.708061  9520 net.cpp:434] conv6_2_mbox_conf <- conv6_2_conv6_2_relu_0_split_2
I0405 21:15:04.708070  9520 net.cpp:408] conv6_2_mbox_conf -> conv6_2_mbox_conf
I0405 21:15:04.722872  9520 net.cpp:150] Setting up conv6_2_mbox_conf
I0405 21:15:04.722920  9520 net.cpp:157] Top shape: 4 126 10 10 (50400)
I0405 21:15:04.722928  9520 net.cpp:165] Memory required for data: 1134576288
I0405 21:15:04.722949  9520 layer_factory.hpp:77] Creating layer conv6_2_mbox_conf_perm
I0405 21:15:04.722978  9520 net.cpp:100] Creating Layer conv6_2_mbox_conf_perm
I0405 21:15:04.723038  9520 net.cpp:434] conv6_2_mbox_conf_perm <- conv6_2_mbox_conf
I0405 21:15:04.723052  9520 net.cpp:408] conv6_2_mbox_conf_perm -> conv6_2_mbox_conf_perm
I0405 21:15:04.723299  9520 net.cpp:150] Setting up conv6_2_mbox_conf_perm
I0405 21:15:04.723315  9520 net.cpp:157] Top shape: 4 10 10 126 (50400)
I0405 21:15:04.723320  9520 net.cpp:165] Memory required for data: 1134777888
I0405 21:15:04.723325  9520 layer_factory.hpp:77] Creating layer conv6_2_mbox_conf_flat
I0405 21:15:04.723340  9520 net.cpp:100] Creating Layer conv6_2_mbox_conf_flat
I0405 21:15:04.723348  9520 net.cpp:434] conv6_2_mbox_conf_flat <- conv6_2_mbox_conf_perm
I0405 21:15:04.723357  9520 net.cpp:408] conv6_2_mbox_conf_flat -> conv6_2_mbox_conf_flat
I0405 21:15:04.723408  9520 net.cpp:150] Setting up conv6_2_mbox_conf_flat
I0405 21:15:04.723419  9520 net.cpp:157] Top shape: 4 12600 (50400)
I0405 21:15:04.723424  9520 net.cpp:165] Memory required for data: 1134979488
I0405 21:15:04.723429  9520 layer_factory.hpp:77] Creating layer conv6_2_mbox_priorbox
I0405 21:15:04.723444  9520 net.cpp:100] Creating Layer conv6_2_mbox_priorbox
I0405 21:15:04.723453  9520 net.cpp:434] conv6_2_mbox_priorbox <- conv6_2_conv6_2_relu_0_split_3
I0405 21:15:04.723462  9520 net.cpp:434] conv6_2_mbox_priorbox <- data_data_0_split_3
I0405 21:15:04.723474  9520 net.cpp:408] conv6_2_mbox_priorbox -> conv6_2_mbox_priorbox
I0405 21:15:04.723534  9520 net.cpp:150] Setting up conv6_2_mbox_priorbox
I0405 21:15:04.723546  9520 net.cpp:157] Top shape: 1 2 2400 (4800)
I0405 21:15:04.723551  9520 net.cpp:165] Memory required for data: 1134998688
I0405 21:15:04.723556  9520 layer_factory.hpp:77] Creating layer conv7_2_mbox_loc
I0405 21:15:04.723582  9520 net.cpp:100] Creating Layer conv7_2_mbox_loc
I0405 21:15:04.723590  9520 net.cpp:434] conv7_2_mbox_loc <- conv7_2_conv7_2_relu_0_split_1
I0405 21:15:04.723601  9520 net.cpp:408] conv7_2_mbox_loc -> conv7_2_mbox_loc
I0405 21:15:04.725811  9520 net.cpp:150] Setting up conv7_2_mbox_loc
I0405 21:15:04.725831  9520 net.cpp:157] Top shape: 4 24 5 5 (2400)
I0405 21:15:04.725836  9520 net.cpp:165] Memory required for data: 1135008288
I0405 21:15:04.725847  9520 layer_factory.hpp:77] Creating layer conv7_2_mbox_loc_perm
I0405 21:15:04.725858  9520 net.cpp:100] Creating Layer conv7_2_mbox_loc_perm
I0405 21:15:04.725864  9520 net.cpp:434] conv7_2_mbox_loc_perm <- conv7_2_mbox_loc
I0405 21:15:04.725875  9520 net.cpp:408] conv7_2_mbox_loc_perm -> conv7_2_mbox_loc_perm
I0405 21:15:04.726085  9520 net.cpp:150] Setting up conv7_2_mbox_loc_perm
I0405 21:15:04.726101  9520 net.cpp:157] Top shape: 4 5 5 24 (2400)
I0405 21:15:04.726106  9520 net.cpp:165] Memory required for data: 1135017888
I0405 21:15:04.726111  9520 layer_factory.hpp:77] Creating layer conv7_2_mbox_loc_flat
I0405 21:15:04.726121  9520 net.cpp:100] Creating Layer conv7_2_mbox_loc_flat
I0405 21:15:04.726127  9520 net.cpp:434] conv7_2_mbox_loc_flat <- conv7_2_mbox_loc_perm
I0405 21:15:04.726137  9520 net.cpp:408] conv7_2_mbox_loc_flat -> conv7_2_mbox_loc_flat
I0405 21:15:04.726182  9520 net.cpp:150] Setting up conv7_2_mbox_loc_flat
I0405 21:15:04.726197  9520 net.cpp:157] Top shape: 4 600 (2400)
I0405 21:15:04.726202  9520 net.cpp:165] Memory required for data: 1135027488
I0405 21:15:04.726205  9520 layer_factory.hpp:77] Creating layer conv7_2_mbox_conf
I0405 21:15:04.726222  9520 net.cpp:100] Creating Layer conv7_2_mbox_conf
I0405 21:15:04.726228  9520 net.cpp:434] conv7_2_mbox_conf <- conv7_2_conv7_2_relu_0_split_2
I0405 21:15:04.726240  9520 net.cpp:408] conv7_2_mbox_conf -> conv7_2_mbox_conf
I0405 21:15:04.734990  9520 net.cpp:150] Setting up conv7_2_mbox_conf
I0405 21:15:04.735044  9520 net.cpp:157] Top shape: 4 126 5 5 (12600)
I0405 21:15:04.735051  9520 net.cpp:165] Memory required for data: 1135077888
I0405 21:15:04.735069  9520 layer_factory.hpp:77] Creating layer conv7_2_mbox_conf_perm
I0405 21:15:04.735090  9520 net.cpp:100] Creating Layer conv7_2_mbox_conf_perm
I0405 21:15:04.735100  9520 net.cpp:434] conv7_2_mbox_conf_perm <- conv7_2_mbox_conf
I0405 21:15:04.735168  9520 net.cpp:408] conv7_2_mbox_conf_perm -> conv7_2_mbox_conf_perm
I0405 21:15:04.735414  9520 net.cpp:150] Setting up conv7_2_mbox_conf_perm
I0405 21:15:04.735427  9520 net.cpp:157] Top shape: 4 5 5 126 (12600)
I0405 21:15:04.735432  9520 net.cpp:165] Memory required for data: 1135128288
I0405 21:15:04.735440  9520 layer_factory.hpp:77] Creating layer conv7_2_mbox_conf_flat
I0405 21:15:04.735450  9520 net.cpp:100] Creating Layer conv7_2_mbox_conf_flat
I0405 21:15:04.735460  9520 net.cpp:434] conv7_2_mbox_conf_flat <- conv7_2_mbox_conf_perm
I0405 21:15:04.735471  9520 net.cpp:408] conv7_2_mbox_conf_flat -> conv7_2_mbox_conf_flat
I0405 21:15:04.735524  9520 net.cpp:150] Setting up conv7_2_mbox_conf_flat
I0405 21:15:04.735536  9520 net.cpp:157] Top shape: 4 3150 (12600)
I0405 21:15:04.735540  9520 net.cpp:165] Memory required for data: 1135178688
I0405 21:15:04.735545  9520 layer_factory.hpp:77] Creating layer conv7_2_mbox_priorbox
I0405 21:15:04.735558  9520 net.cpp:100] Creating Layer conv7_2_mbox_priorbox
I0405 21:15:04.735564  9520 net.cpp:434] conv7_2_mbox_priorbox <- conv7_2_conv7_2_relu_0_split_3
I0405 21:15:04.735572  9520 net.cpp:434] conv7_2_mbox_priorbox <- data_data_0_split_4
I0405 21:15:04.735584  9520 net.cpp:408] conv7_2_mbox_priorbox -> conv7_2_mbox_priorbox
I0405 21:15:04.735641  9520 net.cpp:150] Setting up conv7_2_mbox_priorbox
I0405 21:15:04.735652  9520 net.cpp:157] Top shape: 1 2 600 (1200)
I0405 21:15:04.735657  9520 net.cpp:165] Memory required for data: 1135183488
I0405 21:15:04.735662  9520 layer_factory.hpp:77] Creating layer conv8_2_mbox_loc
I0405 21:15:04.735683  9520 net.cpp:100] Creating Layer conv8_2_mbox_loc
I0405 21:15:04.735694  9520 net.cpp:434] conv8_2_mbox_loc <- conv8_2_conv8_2_relu_0_split_1
I0405 21:15:04.735703  9520 net.cpp:408] conv8_2_mbox_loc -> conv8_2_mbox_loc
I0405 21:15:04.744925  9520 net.cpp:150] Setting up conv8_2_mbox_loc
I0405 21:15:04.744972  9520 net.cpp:157] Top shape: 4 16 3 3 (576)
I0405 21:15:04.744978  9520 net.cpp:165] Memory required for data: 1135185792
I0405 21:15:04.744994  9520 layer_factory.hpp:77] Creating layer conv8_2_mbox_loc_perm
I0405 21:15:04.745015  9520 net.cpp:100] Creating Layer conv8_2_mbox_loc_perm
I0405 21:15:04.745025  9520 net.cpp:434] conv8_2_mbox_loc_perm <- conv8_2_mbox_loc
I0405 21:15:04.745041  9520 net.cpp:408] conv8_2_mbox_loc_perm -> conv8_2_mbox_loc_perm
I0405 21:15:04.745283  9520 net.cpp:150] Setting up conv8_2_mbox_loc_perm
I0405 21:15:04.745297  9520 net.cpp:157] Top shape: 4 3 3 16 (576)
I0405 21:15:04.745303  9520 net.cpp:165] Memory required for data: 1135188096
I0405 21:15:04.745308  9520 layer_factory.hpp:77] Creating layer conv8_2_mbox_loc_flat
I0405 21:15:04.745321  9520 net.cpp:100] Creating Layer conv8_2_mbox_loc_flat
I0405 21:15:04.745327  9520 net.cpp:434] conv8_2_mbox_loc_flat <- conv8_2_mbox_loc_perm
I0405 21:15:04.745339  9520 net.cpp:408] conv8_2_mbox_loc_flat -> conv8_2_mbox_loc_flat
I0405 21:15:04.745388  9520 net.cpp:150] Setting up conv8_2_mbox_loc_flat
I0405 21:15:04.745400  9520 net.cpp:157] Top shape: 4 144 (576)
I0405 21:15:04.745404  9520 net.cpp:165] Memory required for data: 1135190400
I0405 21:15:04.745410  9520 layer_factory.hpp:77] Creating layer conv8_2_mbox_conf
I0405 21:15:04.745434  9520 net.cpp:100] Creating Layer conv8_2_mbox_conf
I0405 21:15:04.745443  9520 net.cpp:434] conv8_2_mbox_conf <- conv8_2_conv8_2_relu_0_split_2
I0405 21:15:04.745456  9520 net.cpp:408] conv8_2_mbox_conf -> conv8_2_mbox_conf
I0405 21:15:04.751372  9520 net.cpp:150] Setting up conv8_2_mbox_conf
I0405 21:15:04.751405  9520 net.cpp:157] Top shape: 4 84 3 3 (3024)
I0405 21:15:04.751410  9520 net.cpp:165] Memory required for data: 1135202496
I0405 21:15:04.751425  9520 layer_factory.hpp:77] Creating layer conv8_2_mbox_conf_perm
I0405 21:15:04.751442  9520 net.cpp:100] Creating Layer conv8_2_mbox_conf_perm
I0405 21:15:04.751451  9520 net.cpp:434] conv8_2_mbox_conf_perm <- conv8_2_mbox_conf
I0405 21:15:04.751459  9520 net.cpp:408] conv8_2_mbox_conf_perm -> conv8_2_mbox_conf_perm
I0405 21:15:04.751739  9520 net.cpp:150] Setting up conv8_2_mbox_conf_perm
I0405 21:15:04.751754  9520 net.cpp:157] Top shape: 4 3 3 84 (3024)
I0405 21:15:04.751758  9520 net.cpp:165] Memory required for data: 1135214592
I0405 21:15:04.751763  9520 layer_factory.hpp:77] Creating layer conv8_2_mbox_conf_flat
I0405 21:15:04.751775  9520 net.cpp:100] Creating Layer conv8_2_mbox_conf_flat
I0405 21:15:04.751782  9520 net.cpp:434] conv8_2_mbox_conf_flat <- conv8_2_mbox_conf_perm
I0405 21:15:04.751791  9520 net.cpp:408] conv8_2_mbox_conf_flat -> conv8_2_mbox_conf_flat
I0405 21:15:04.751842  9520 net.cpp:150] Setting up conv8_2_mbox_conf_flat
I0405 21:15:04.751852  9520 net.cpp:157] Top shape: 4 756 (3024)
I0405 21:15:04.751858  9520 net.cpp:165] Memory required for data: 1135226688
I0405 21:15:04.751863  9520 layer_factory.hpp:77] Creating layer conv8_2_mbox_priorbox
I0405 21:15:04.751878  9520 net.cpp:100] Creating Layer conv8_2_mbox_priorbox
I0405 21:15:04.751886  9520 net.cpp:434] conv8_2_mbox_priorbox <- conv8_2_conv8_2_relu_0_split_3
I0405 21:15:04.751895  9520 net.cpp:434] conv8_2_mbox_priorbox <- data_data_0_split_5
I0405 21:15:04.751905  9520 net.cpp:408] conv8_2_mbox_priorbox -> conv8_2_mbox_priorbox
I0405 21:15:04.751962  9520 net.cpp:150] Setting up conv8_2_mbox_priorbox
I0405 21:15:04.751973  9520 net.cpp:157] Top shape: 1 2 144 (288)
I0405 21:15:04.751978  9520 net.cpp:165] Memory required for data: 1135227840
I0405 21:15:04.751983  9520 layer_factory.hpp:77] Creating layer conv9_2_mbox_loc
I0405 21:15:04.752002  9520 net.cpp:100] Creating Layer conv9_2_mbox_loc
I0405 21:15:04.752010  9520 net.cpp:434] conv9_2_mbox_loc <- conv9_2_conv9_2_relu_0_split_0
I0405 21:15:04.752025  9520 net.cpp:408] conv9_2_mbox_loc -> conv9_2_mbox_loc
I0405 21:15:04.755208  9520 net.cpp:150] Setting up conv9_2_mbox_loc
I0405 21:15:04.755230  9520 net.cpp:157] Top shape: 4 16 1 1 (64)
I0405 21:15:04.755235  9520 net.cpp:165] Memory required for data: 1135228096
I0405 21:15:04.755247  9520 layer_factory.hpp:77] Creating layer conv9_2_mbox_loc_perm
I0405 21:15:04.755260  9520 net.cpp:100] Creating Layer conv9_2_mbox_loc_perm
I0405 21:15:04.755266  9520 net.cpp:434] conv9_2_mbox_loc_perm <- conv9_2_mbox_loc
I0405 21:15:04.755278  9520 net.cpp:408] conv9_2_mbox_loc_perm -> conv9_2_mbox_loc_perm
I0405 21:15:04.755491  9520 net.cpp:150] Setting up conv9_2_mbox_loc_perm
I0405 21:15:04.755502  9520 net.cpp:157] Top shape: 4 1 1 16 (64)
I0405 21:15:04.755506  9520 net.cpp:165] Memory required for data: 1135228352
I0405 21:15:04.755511  9520 layer_factory.hpp:77] Creating layer conv9_2_mbox_loc_flat
I0405 21:15:04.755523  9520 net.cpp:100] Creating Layer conv9_2_mbox_loc_flat
I0405 21:15:04.755529  9520 net.cpp:434] conv9_2_mbox_loc_flat <- conv9_2_mbox_loc_perm
I0405 21:15:04.755537  9520 net.cpp:408] conv9_2_mbox_loc_flat -> conv9_2_mbox_loc_flat
I0405 21:15:04.755589  9520 net.cpp:150] Setting up conv9_2_mbox_loc_flat
I0405 21:15:04.755599  9520 net.cpp:157] Top shape: 4 16 (64)
I0405 21:15:04.755604  9520 net.cpp:165] Memory required for data: 1135228608
I0405 21:15:04.755609  9520 layer_factory.hpp:77] Creating layer conv9_2_mbox_conf
I0405 21:15:04.755627  9520 net.cpp:100] Creating Layer conv9_2_mbox_conf
I0405 21:15:04.755635  9520 net.cpp:434] conv9_2_mbox_conf <- conv9_2_conv9_2_relu_0_split_1
I0405 21:15:04.755647  9520 net.cpp:408] conv9_2_mbox_conf -> conv9_2_mbox_conf
I0405 21:15:04.762699  9520 net.cpp:150] Setting up conv9_2_mbox_conf
I0405 21:15:04.762744  9520 net.cpp:157] Top shape: 4 84 1 1 (336)
I0405 21:15:04.762751  9520 net.cpp:165] Memory required for data: 1135229952
I0405 21:15:04.762768  9520 layer_factory.hpp:77] Creating layer conv9_2_mbox_conf_perm
I0405 21:15:04.762789  9520 net.cpp:100] Creating Layer conv9_2_mbox_conf_perm
I0405 21:15:04.762799  9520 net.cpp:434] conv9_2_mbox_conf_perm <- conv9_2_mbox_conf
I0405 21:15:04.762811  9520 net.cpp:408] conv9_2_mbox_conf_perm -> conv9_2_mbox_conf_perm
I0405 21:15:04.763058  9520 net.cpp:150] Setting up conv9_2_mbox_conf_perm
I0405 21:15:04.763072  9520 net.cpp:157] Top shape: 4 1 1 84 (336)
I0405 21:15:04.763121  9520 net.cpp:165] Memory required for data: 1135231296
I0405 21:15:04.763128  9520 layer_factory.hpp:77] Creating layer conv9_2_mbox_conf_flat
I0405 21:15:04.763142  9520 net.cpp:100] Creating Layer conv9_2_mbox_conf_flat
I0405 21:15:04.763149  9520 net.cpp:434] conv9_2_mbox_conf_flat <- conv9_2_mbox_conf_perm
I0405 21:15:04.763157  9520 net.cpp:408] conv9_2_mbox_conf_flat -> conv9_2_mbox_conf_flat
I0405 21:15:04.763216  9520 net.cpp:150] Setting up conv9_2_mbox_conf_flat
I0405 21:15:04.763226  9520 net.cpp:157] Top shape: 4 84 (336)
I0405 21:15:04.763231  9520 net.cpp:165] Memory required for data: 1135232640
I0405 21:15:04.763236  9520 layer_factory.hpp:77] Creating layer conv9_2_mbox_priorbox
I0405 21:15:04.763252  9520 net.cpp:100] Creating Layer conv9_2_mbox_priorbox
I0405 21:15:04.763259  9520 net.cpp:434] conv9_2_mbox_priorbox <- conv9_2_conv9_2_relu_0_split_2
I0405 21:15:04.763267  9520 net.cpp:434] conv9_2_mbox_priorbox <- data_data_0_split_6
I0405 21:15:04.763276  9520 net.cpp:408] conv9_2_mbox_priorbox -> conv9_2_mbox_priorbox
I0405 21:15:04.763339  9520 net.cpp:150] Setting up conv9_2_mbox_priorbox
I0405 21:15:04.763348  9520 net.cpp:157] Top shape: 1 2 16 (32)
I0405 21:15:04.763353  9520 net.cpp:165] Memory required for data: 1135232768
I0405 21:15:04.763357  9520 layer_factory.hpp:77] Creating layer mbox_loc
I0405 21:15:04.763372  9520 net.cpp:100] Creating Layer mbox_loc
I0405 21:15:04.763381  9520 net.cpp:434] mbox_loc <- conc1_norm_mbox_loc_flat
I0405 21:15:04.763389  9520 net.cpp:434] mbox_loc <- fc7_mbox_loc_flat
I0405 21:15:04.763397  9520 net.cpp:434] mbox_loc <- conv6_2_mbox_loc_flat
I0405 21:15:04.763406  9520 net.cpp:434] mbox_loc <- conv7_2_mbox_loc_flat
I0405 21:15:04.763411  9520 net.cpp:434] mbox_loc <- conv8_2_mbox_loc_flat
I0405 21:15:04.763418  9520 net.cpp:434] mbox_loc <- conv9_2_mbox_loc_flat
I0405 21:15:04.763427  9520 net.cpp:408] mbox_loc -> mbox_loc
I0405 21:15:04.763480  9520 net.cpp:150] Setting up mbox_loc
I0405 21:15:04.763492  9520 net.cpp:157] Top shape: 4 34928 (139712)
I0405 21:15:04.763497  9520 net.cpp:165] Memory required for data: 1135791616
I0405 21:15:04.763502  9520 layer_factory.hpp:77] Creating layer mbox_conf
I0405 21:15:04.763511  9520 net.cpp:100] Creating Layer mbox_conf
I0405 21:15:04.763517  9520 net.cpp:434] mbox_conf <- conc1_norm_mbox_conf_flat
I0405 21:15:04.763525  9520 net.cpp:434] mbox_conf <- fc7_mbox_conf_flat
I0405 21:15:04.763531  9520 net.cpp:434] mbox_conf <- conv6_2_mbox_conf_flat
I0405 21:15:04.763540  9520 net.cpp:434] mbox_conf <- conv7_2_mbox_conf_flat
I0405 21:15:04.763545  9520 net.cpp:434] mbox_conf <- conv8_2_mbox_conf_flat
I0405 21:15:04.763551  9520 net.cpp:434] mbox_conf <- conv9_2_mbox_conf_flat
I0405 21:15:04.763561  9520 net.cpp:408] mbox_conf -> mbox_conf
I0405 21:15:04.763608  9520 net.cpp:150] Setting up mbox_conf
I0405 21:15:04.763618  9520 net.cpp:157] Top shape: 4 183372 (733488)
I0405 21:15:04.763623  9520 net.cpp:165] Memory required for data: 1138725568
I0405 21:15:04.763628  9520 layer_factory.hpp:77] Creating layer mbox_priorbox
I0405 21:15:04.763638  9520 net.cpp:100] Creating Layer mbox_priorbox
I0405 21:15:04.763644  9520 net.cpp:434] mbox_priorbox <- conc1_norm_mbox_priorbox
I0405 21:15:04.763650  9520 net.cpp:434] mbox_priorbox <- fc7_mbox_priorbox
I0405 21:15:04.763658  9520 net.cpp:434] mbox_priorbox <- conv6_2_mbox_priorbox
I0405 21:15:04.763664  9520 net.cpp:434] mbox_priorbox <- conv7_2_mbox_priorbox
I0405 21:15:04.763670  9520 net.cpp:434] mbox_priorbox <- conv8_2_mbox_priorbox
I0405 21:15:04.763675  9520 net.cpp:434] mbox_priorbox <- conv9_2_mbox_priorbox
I0405 21:15:04.763684  9520 net.cpp:408] mbox_priorbox -> mbox_priorbox
I0405 21:15:04.763730  9520 net.cpp:150] Setting up mbox_priorbox
I0405 21:15:04.763741  9520 net.cpp:157] Top shape: 1 2 34928 (69856)
I0405 21:15:04.763746  9520 net.cpp:165] Memory required for data: 1139004992
I0405 21:15:04.763751  9520 layer_factory.hpp:77] Creating layer mbox_conf_reshape
I0405 21:15:04.763767  9520 net.cpp:100] Creating Layer mbox_conf_reshape
I0405 21:15:04.763787  9520 net.cpp:434] mbox_conf_reshape <- mbox_conf
I0405 21:15:04.763795  9520 net.cpp:408] mbox_conf_reshape -> mbox_conf_reshape
I0405 21:15:04.763862  9520 net.cpp:150] Setting up mbox_conf_reshape
I0405 21:15:04.763875  9520 net.cpp:157] Top shape: 4 8732 21 (733488)
I0405 21:15:04.763880  9520 net.cpp:165] Memory required for data: 1141938944
I0405 21:15:04.763885  9520 layer_factory.hpp:77] Creating layer mbox_conf_softmax
I0405 21:15:04.763896  9520 net.cpp:100] Creating Layer mbox_conf_softmax
I0405 21:15:04.763903  9520 net.cpp:434] mbox_conf_softmax <- mbox_conf_reshape
I0405 21:15:04.763914  9520 net.cpp:408] mbox_conf_softmax -> mbox_conf_softmax
I0405 21:15:04.764369  9520 net.cpp:150] Setting up mbox_conf_softmax
I0405 21:15:04.764384  9520 net.cpp:157] Top shape: 4 8732 21 (733488)
I0405 21:15:04.764389  9520 net.cpp:165] Memory required for data: 1144872896
I0405 21:15:04.764394  9520 layer_factory.hpp:77] Creating layer mbox_conf_flatten
I0405 21:15:04.764407  9520 net.cpp:100] Creating Layer mbox_conf_flatten
I0405 21:15:04.764413  9520 net.cpp:434] mbox_conf_flatten <- mbox_conf_softmax
I0405 21:15:04.764422  9520 net.cpp:408] mbox_conf_flatten -> mbox_conf_flatten
I0405 21:15:04.764472  9520 net.cpp:150] Setting up mbox_conf_flatten
I0405 21:15:04.764483  9520 net.cpp:157] Top shape: 4 183372 (733488)
I0405 21:15:04.764488  9520 net.cpp:165] Memory required for data: 1147806848
I0405 21:15:04.764494  9520 layer_factory.hpp:77] Creating layer detection_out
I0405 21:15:04.764539  9520 net.cpp:100] Creating Layer detection_out
I0405 21:15:04.764549  9520 net.cpp:434] detection_out <- mbox_loc
I0405 21:15:04.764557  9520 net.cpp:434] detection_out <- mbox_conf_flatten
I0405 21:15:04.764564  9520 net.cpp:434] detection_out <- mbox_priorbox
I0405 21:15:04.764573  9520 net.cpp:408] detection_out -> detection_out
W0405 21:15:04.764683  9520 detection_output_layer.cpp:49] Failed to create directory: /home/yanzhiwei/data/VOCdevkit/results/VOC2007/SSD_up_lessparam_fusion_300x300/Main
I0405 21:15:04.774061  9520 net.cpp:150] Setting up detection_out
I0405 21:15:04.774112  9520 net.cpp:157] Top shape: 1 1 1 7 (7)
I0405 21:15:04.774118  9520 net.cpp:165] Memory required for data: 1147806876
I0405 21:15:04.774130  9520 layer_factory.hpp:77] Creating layer detection_eval
I0405 21:15:04.774157  9520 net.cpp:100] Creating Layer detection_eval
I0405 21:15:04.774168  9520 net.cpp:434] detection_eval <- detection_out
I0405 21:15:04.774178  9520 net.cpp:434] detection_eval <- label
I0405 21:15:04.774190  9520 net.cpp:408] detection_eval -> detection_eval
I0405 21:15:04.775938  9520 net.cpp:150] Setting up detection_eval
I0405 21:15:04.775955  9520 net.cpp:157] Top shape: 1 1 21 5 (105)
I0405 21:15:04.775959  9520 net.cpp:165] Memory required for data: 1147807296
I0405 21:15:04.775965  9520 net.cpp:228] detection_eval does not need backward computation.
I0405 21:15:04.775972  9520 net.cpp:228] detection_out does not need backward computation.
I0405 21:15:04.775980  9520 net.cpp:228] mbox_conf_flatten does not need backward computation.
I0405 21:15:04.775986  9520 net.cpp:228] mbox_conf_softmax does not need backward computation.
…
